checkpoint4.pth (torch_old, 49798 bytes, 6 tensors)

fc1.weight f4 [120, 37]
0	0xbd25eaa2	-0.040506966
1	0x3d897bb9	0.06713051
2	0xbdbee89e	-0.09321712
3	0x3dc4797f	0.09593486
4	0xbf033bea	-0.51263297
5	0x3e091b9e	0.13389441
6	0xbdf54b3b	-0.1197724
7	0x3e29ae4c	0.16570395
8	0xbd22eb49	-0.039775167
9	0x3dd84fcf	0.10562097
10	0x3cd47beb	0.025937995
11	0x3dac1bc6	0.08403735
12	0x3d5e241b	0.05423365
13	0x3d154b93	0.036449026
14	0x3e29831f	0.16553925
15	0x3dc4d383	0.09610655
16	0x3d07d7c5	0.03316476
17	0xbd7d987b	-0.061912995
18	0x3da1d89e	0.079026446
19	0xbd56ba85	-0.052423973
20	0xbe2e52f8	-0.17023838
21	0xbcaa9c69	-0.020826535
22	0x3e0cafaf	0.13738893
23	0xbe4179c9	-0.18894114
24	0x3d5b7242	0.05357576
25	0xbc4d182a	-0.012517968
26	0xbc0f9f43	-0.008765998
27	0x3e6a4d8d	0.22881146
28	0xbe8c1585	-0.27360168
29	0x3e2a213e	0.16614243
30	0x3d9410b0	0.072297454
31	0x3e8d7b1f	0.27632996
32	0xbe2bdce2	-0.16783479
33	0xbe9a4404	-0.30130017
34	0xbedef978	-0.43549705
35	0xbca5ab39	-0.020223247
36	0x3d3bcf42	0.045851953
37	0x3dbe1075	0.09280483
38	0xbe0331ec	-0.12812012
39	0xbc6486d0	-0.013948157
40	0x3c681eb5	0.014167477
41	0xbf0200a4	-0.5078223
42	0x3e66e8f7	0.22549807
43	0xbd83a7b8	-0.06428474
44	0xbd79fb7d	-0.061030854
45	0xbf367ecd	-0.7128723
46	0xbe7734dc	-0.24141258
47	0x3d87a69d	0.06623576
48	0xbda5a956	-0.08088939
49	0xbdb1b04e	-0.086762056
50	0xbe5baf0c	-0.21453494
51	0xbe834f98	-0.25646663
52	0xbe7a6aa6	-0.24454746
53	0x3d87e1b2	0.06634845
54	0x3e42be05	0.19017799
55	0xbef47a74	-0.47749674
56	0x3d24a9c1	0.040200952
57	0xbec607f2	-0.38677937
58	0x3e0ad4dc	0.13557762
59	0x3bb5b4da	0.005545241
60	0x3d635c66	0.05550804
61	0x3e8cdaf0	0.27510786
62	0xbe804719	-0.25054243
63	0x3e86e902	0.26349646
64	0xbdb23ec7	-0.0870338
65	0xbe719737	-0.2359284
66	0x3daa587b	0.083176576
67	0xbd9360f8	-0.0719623
68	0xbde3db5e	-0.11125825
69	0xbeb8244e	-0.35965198
70	0x3e40f11a	0.18841973
71	0x3d70a7c2	0.058753736
72	0x3def84cc	0.11695251
73	0x3cb568e8	0.02214475
74	0xbdcdde4f	-0.100521676
75	0x3d2253cd	0.0396307
76	0x3e34dfef	0.17663549
77	0x3d9d7cac	0.07689795
78	0xbe736e86	-0.2377263
79	0x3d9409e7	0.07228451
80	0xbe93bfe3	-0.28857335
81	0x3c7bf3e6	0.015377974
82	0xbe08a655	-0.133447
83	0x3e67ff10	0.22655892
84	0x3d79c07e	0.06097459
85	0xbdb85211	-0.09000028
86	0xbdf917d5	-0.12162749
87	0xbbd5a19c	-0.0065195095
88	0x3e79cdf0	0.24394965
89	0x3da44529	0.08021004
90	0x3d0ec995	0.034860212
91	0xbdbed2b5	-0.09317533
92	0xbe6f6f68	-0.23382342
93	0x3e0b5ef4	0.1361044
94	0xbda30872	-0.07960595
95	0xbeaf06ad	-0.3418478
96	0x3d28ba78	0.041193455
97	0x3d5dd008	0.054153472
98	0x3db78843	0.08961537
99	0xbe802fef	-0.2503657
100	0x3e843f57	0.25829574
101	0xbd834854	-0.0641028
102	0x3e0fc50c	0.14040011
103	0x3e522988	0.20523655
104	0xbd9fb6c6	-0.07798533
105	0xbe80b588	-0.25138497
106	0x3e3a6753	0.18203478
107	0xbcc6582d	-0.024211967
108	0x3e8e32c4	0.27773106
109	0xbd8320dc	-0.06402752
110	0x3d03b06c	0.03215067
111	0x3e828f0a	0.25499755
112	0x3e079a57	0.1324247
113	0xbe2ce0b9	-0.168826
114	0x3d164213	0.036684107
115	0x3d5f5141	0.05452085
116	0x3e0f8b3c	0.14017957
117	0x3e58d57c	0.21175188
118	0xbd527e49	-0.051389966
119	0xbdc7f471	-0.097634204
120	0xbd48994c	-0.04897432
121	0x3e7b6d7a	0.2455348
122	0x3d892fa7	0.06698542
123	0xbe0d7c73	-0.13817005
124	0xbd056fe4	-0.03257741
125	0xbf15f310	-0.5857401
126	0xbdaf9852	-0.08573975
127	0x3d891627	0.06693678
128	0x3e458c04	0.19291693
129	0xbd703e5b	-0.058653217
130	0xbb970e42	-0.004609854
131	0xbdb4f815	-0.088363804
132	0x3dc02042	0.09381153
133	0x3e6d8403	0.2319489
134	0x3e2681a0	0.16260386
135	0x3e65e703	0.22451405
136	0x3e969a26	0.2941448
137	0xbd422cc9	-0.04740599
138	0xbdbbd173	-0.09170809
139	0xbe499940	-0.19687366
140	0xbe19d345	-0.15021999
141	0xbca5245f	-0.020158945
142	0xbd82ddfb	-0.06389996
143	0x3db8073e	0.08985756
144	0x3df63dd6	0.12023513
145	0xbcb4384c	-0.0219995
146	0x3dcd126a	0.10013278
147	0x3cfa9def	0.030592887
148	0x3d9bc012	0.07604994
149	0x3e94a51e	0.29032224
150	0xbde6b6b8	-0.112653196
151	0x3dca9325	0.09891347
152	0x3e057a9f	0.13035057
153	0xbcf0896c	-0.029362403
154	0xbe194096	-0.14966044
155	0xbd4496ef	-0.047995504
156	0xbd92b235	-0.071628965
157	0x3e1094fa	0.1411933
158	0x3d49b4f1	0.049244825
159	0xbd34a7ec	-0.044105455
160	0xbc9e13e8	-0.019296601
161	0x3e3061a4	0.17224747
162	0xbe8c7bc2	-0.2743817
163	0x3e26462e	0.16237709
164	0xbde25b16	-0.110525295
165	0x3d72cdb5	0.05927821
166	0xbddc9cd0	-0.10772097
167	0xbdd349e7	-0.1031683
168	0xbdff2225	-0.124576844
169	0xbd815db9	-0.06316704
170	0xbc2de825	-0.01061443
171	0x3d1189a0	0.03553164
172	0x3dccc7b2	0.09999026
173	0xbd06abc8	-0.032878667
174	0x3e90b94c	0.2826637
175	0x3dd2870f	0.10279667
176	0x3e47f742	0.19527915
177	0x3d49c899	0.04926357
178	0x3dc79b72	0.09746446
179	0xbc30ff11	-0.010803
180	0xbe1c156b	-0.15242545
181	0x3ca0957f	0.019602535
182	0xbf0d42cd	-0.55180055
183	0x3d34ef80	0.044173717
184	0xbc918777	-0.01776479
185	0xbd7b80b4	-0.061402038
186	0xbe38cf2a	-0.18047777
187	0xbdddcc36	-0.10829966
188	0x3ea31943	0.3185521
189	0x3e92fc2b	0.28708014
190	0x3e1a47e8	0.15066493
191	0xbd82325b	-0.06357261
192	0xbd1c72da	-0.03819547
193	0xbcb3c523	-0.021944588
194	0x3eb09e30	0.34495687
195	0xbd5fbbbc	-0.054622397
196	0x3d90aac0	0.07063818
197	0xbd8f1e27	-0.06988173
198	0x3f01a815	0.506471
199	0xbdb603c5	-0.08887438
200	0x3d9af4a9	0.075661965
201	0xbe9c7df2	-0.3056484
202	0x3e00ccf2	0.1257818
203	0x3e2046cc	0.15652007
204	0x3e88f6a3	0.2675067
205	0xbe1518e2	-0.14560273
206	0x3de6330c	0.11240205
207	0x3d2a5779	0.041587327
208	0x3de2d732	0.110762015
209	0xbda1e98c	-0.07905874
210	0xbe0ac08d	-0.13550015
211	0x3e4e19af	0.20126985
212	0xbdd6a057	-0.10479801
213	0x3e092f50	0.13396955
214	0x3e921ea9	0.28539017
215	0x3e613d9b	0.21996157
216	0x3e206e34	0.15667039
217	0xbda429ac	-0.08015761
218	0xbe7457cd	-0.23861618
219	0x3e052a70	0.1300447
220	0xbd207770	-0.039176404
221	0x3d8fb47a	0.07016845
222	0xbed3585e	-0.41278356
223	0xbe3c0a2c	-0.18363255
224	0x3e53b864	0.20675808
225	0xbda510db	-0.080598556
226	0xbdad3f5a	-0.08459349
227	0x3e513b41	0.2043276
228	0x3e21600a	0.15759292
229	0x3e222286	0.15833482
230	0xbe676549	-0.22597231
231	0xbe6919e3	-0.22763781
232	0x3e3fa8da	0.18716756
233	0x3d04c3f5	0.03241344
234	0xbdb985a2	-0.090586916
235	0xbe0bc814	-0.13650542
236	0xbde1a714	-0.11018196
237	0xbde52ac0	-0.111897945
238	0x3d4b83a5	0.049686093
239	0x3bc11c27	0.0058932486
240	0xbdb3c658	-0.087780654
241	0x3cc34174	0.023834921
242	0xbcd0d80d	-0.025493646
243	0x3e146f39	0.14495553
244	0xbd6400ef	-0.055664953
245	0xbd85805f	-0.065186255
246	0xbdec09eb	-0.11525329
247	0xbe9943b1	-0.29934457
248	0xbe1ec4c7	-0.15504752
249	0x3ea2fe71	0.31834748
250	0x3e45f8fd	0.19333263
251	0x3d92b73f	0.07163858
252	0x3d42711f	0.047471162
253	0x3d7a5d10	0.061123908
254	0x3ca0972b	0.019603333
255	0xbdfea218	-0.12433261

fc1.bias f4 [120]
0	0xbde7728f	-0.11301147
1	0xbc91e423	-0.01780898
2	0xbe09883c	-0.13430876
3	0x3e26cac4	0.16288286
4	0xbdcef03d	-0.101044156
5	0x3dbd1fcb	0.0923458
6	0x3d4ea563	0.050450694
7	0x3d7d0890	0.061775744
8	0xbd0618b4	-0.032738402
9	0x3cb310bb	0.021858564
10	0x3d12ec20	0.035869718
11	0xbe25c7b6	-0.16189465
12	0xbc9880a0	-0.01861602
13	0x3d37164d	0.044699002
14	0x3c2123f8	0.009835236
15	0x3e643c9e	0.22288749
16	0xbe0a8c35	-0.13530047
17	0xbe153c05	-0.14573677
18	0xbd866665	-0.06562499
19	0xbdd20bd5	-0.10256163
20	0x3ddf0e92	0.10891451
21	0x3d2b3532	0.041798778
22	0xbe5e64d4	-0.2171815
23	0xbdfd0b08	-0.1235562
24	0xbe4cfd64	-0.20018536
25	0xbbac3b29	-0.005256076
26	0x3dd436f5	0.10362045
27	0x3d1f9ba5	0.038966794
28	0xbe05e7eb	-0.13076751
29	0x3dfb7442	0.12278034
30	0x3da1055d	0.07862351
31	0x3d8edd1b	0.06975766
32	0xbe094946	-0.13406858
33	0x3da90033	0.08251991
34	0xbdac0149	-0.083986826
35	0x3ded62c7	0.11591106
36	0x3be2cbd1	0.0069212695
37	0xbe4b66cd	-0.19863434
38	0x3d45e873	0.048317384
39	0x3b553cec	0.0032537533
40	0xbd9abe8d	-0.07555876
41	0xbd41538e	-0.047198825
42	0xbdc2a0e4	-0.09503344
43	0xbbb7ed2d	-0.0056129904
44	0xbd2d81bb	-0.04236005
45	0x3dfa8ffb	0.12234493
46	0xbe7a498a	-0.24442115
47	0xbdb86191	-0.09002984
48	0x3d1f3b0f	0.038874682
49	0x3d985b62	0.07439305
50	0x3d4a0d30	0.049328983
51	0xbda2711a	-0.07931729
52	0x3c65da75	0.014029135
53	0xbd8e8f34	-0.069609076
54	0xbd7b3ec1	-0.061339144
55	0xbd07cde8	-0.033155352
56	0xbe51ec1e	-0.20500228
57	0xbdbcc7f7	-0.09217828
58	0x3d710655	0.05884393
59	0xbcb37f00	-0.021911144
60	0x3de9dff3	0.11419668
61	0xbe21edd8	-0.15813386
62	0xbe1c63b5	-0.1527241
63	0x3e332e01	0.17498018
64	0xbd4b06ab	-0.049566906
65	0x3c2524df	0.010079592
66	0x3e15dcda	0.1463503
67	0x3d37e533	0.044896316
68	0x3e037ad8	0.1283983
69	0xbdc84b5d	-0.097799994
70	0x3e1ecd10	0.15507913
71	0x3db03efa	0.08605762
72	0x3d603ed3	0.054747414
73	0xbd21e4b5	-0.039524753
74	0xbe419cb5	-0.18907435
75	0xbe1555c0	-0.14583492
76	0xbd422923	-0.047402512
77	0xbe194c31	-0.14970471
78	0xbd883e4e	-0.06652509
79	0x3e985357	0.29751083
80	0x3cbdc805	0.023166666
81	0xbe15d80e	-0.146332
82	0xbe296a43	-0.16544442
83	0x3d8007bb	0.062514745
84	0xbe21748f	-0.1576712
85	0xbd279009	-0.040908847
86	0xbd9eb91b	-0.0775015
87	0xbd098552	-0.03357441
88	0x3c56739c	0.013089087
89	0x3e2622a4	0.16224152
90	0x3c0e9a7b	0.008703823
91	0x3d6b7bc1	0.057491068
92	0xbc9db6fb	-0.019252291
93	0xbe3d4829	-0.18484558
94	0x3dabc28d	0.08386717
95	0x3dca6b25	0.098837174
96	0xbe62d1de	-0.2215037
97	0x3df78699	0.12086219
98	0xbdb5025d	-0.088383414
99	0xbe09a5ce	-0.13442156
100	0x3d8b061c	0.06788275
101	0x3e8043b2	0.25051647
102	0x3dd3b7e8	0.10337812
103	0xbe2f6f99	-0.17132415
104	0xbe20dda8	-0.15709555
105	0x3e29466b	0.16530769
106	0xbe0fafac	-0.14031857
107	0x3e0a64e2	0.13515046
108	0x3e1da635	0.15395434
109	0x3c827338	0.015924081
110	0x3e0f3f3c	0.13988966
111	0xbe18e26b	-0.14930122
112	0x3e0f5e11	0.14000727
113	0x3e3496af	0.17635606
114	0x3dac0c4c	0.08400783
115	0x3ccd8410	0.025087386
116	0x3d821fe5	0.0635374
117	0x3df1b38f	0.11801826
118	0x3cf1c38f	0.029512195
119	0x3dda0816	0.106460735

fc2.weight f4 [61, 120]
0	0x3d28c4fe	0.04120349
1	0x3d4bf496	0.049793802
2	0xbcd77da9	-0.026305037
3	0x3d9d3ed9	0.07678003
4	0x3c8fe4ed	0.017565215
5	0x3ccb822b	0.024842342
6	0xbba92c1b	-0.0051627285
7	0x3ce7035a	0.02819984
8	0x3cfab314	0.03060297
9	0x3ddf3fe2	0.109008566
10	0x3b7155f3	0.0036824911
11	0xbbf2787e	-0.0073996177
12	0x3d004cc4	0.03132321
13	0x3d2835c2	0.041066892
14	0x3e4698b2	0.19394186
15	0xbe245314	-0.16047317
16	0xbdb7d9bf	-0.08977079
17	0xbd4f769d	-0.050650228
18	0x3c9c70f5	0.01909683
19	0x3d97ae1d	0.07406256
20	0x3c56a1b2	0.013100075
21	0x3e2ca155	0.16858418
22	0x3d6ae6fc	0.05734919
23	0xbd1de9be	-0.038552992
24	0xbd8a2c3b	-0.067467175
25	0x3e52073a	0.20510569
26	0xbd0ae6b1	-0.03391141
27	0xbd985606	-0.07438283
28	0x3d1c2712	0.038123198
29	0x3d7ca3c6	0.061679624
30	0x3e0cf24f	0.13764308
31	0xbec82195	-0.3908812
32	0x3d499749	0.049216542
33	0xbdce3f9e	-0.10070728
34	0xbcc4021a	-0.023926783
35	0x3ccad346	0.024758946
36	0x3d1f22f9	0.038851712
37	0x3cf80818	0.030277297
38	0xbd276752	-0.04087002
39	0xbdcf0408	-0.10108191
40	0x3e0cef07	0.13763057
41	0x3d26e967	0.040749934
42	0xbd09e3f1	-0.033664647
43	0xbd3df69f	-0.046377774
44	0x3e5d75d6	0.21626982
45	0x3de9ea88	0.114216864
46	0x3cc7a0fd	0.024368757
47	0x3e1de6b0	0.15420032
48	0xbdc0bb64	-0.09410742
49	0x3cd8cc2e	0.026464548
50	0x3d2a7f30	0.0416252
51	0xbcbead97	-0.023276133
52	0x3d8dbb98	0.06920546
53	0xbd22bf8e	-0.039733462
54	0xbd8f9c47	-0.070122294
55	0xbcfa3d09	-0.030546682
56	0xbc212eba	-0.009837801
57	0x3c9163f7	0.017747862
58	0xbdc2caab	-0.09511312
59	0xbcdb12b2	-0.026742313
60	0x3e60d5fe	0.21956632
61	0x3cf2f954	0.029659905
62	0xbd003831	-0.03130359
63	0x3dfb8bc8	0.122825205
64	0x3d0ec189	0.03485254
65	0x3d336fa9	0.04380766
66	0x3de87207	0.11349874
67	0x3e552fff	0.2081909
68	0x3e3bedc9	0.18352427
69	0x3df63c6a	0.12023242
70	0x3d0e8577	0.03479525
71	0xbe8d82f6	-0.27638978
72	0x3d4cf9fb	0.050043087
73	0x3d9be083	0.076111816
74	0x3ddd284f	0.10798704
75	0x3df544c1	0.119760044
76	0x3e57b12e	0.21063682
77	0x3dd4ea54	0.10396257
78	0x3d17a1d1	0.037019555
79	0xbe508867	-0.20364533
80	0xbc1b11fe	-0.009464739
81	0xbd81c1db	-0.06335803
82	0xbce051ec	-0.027382813
83	0xbdc641b6	-0.09680502
84	0xbd3aa340	-0.045565844
85	0xbde5488e	-0.11195479
86	0x3d14d0df	0.036332007
87	0x3d8afa6e	0.06786047
88	0x3d13a166	0.036042593
89	0x3d8bca83	0.068257354
90	0x3d7d1ad2	0.061793156
91	0x3d703628	0.058645397
92	0x3e6ec58b	0.23317544
93	0x3db70d93	0.08938136
94	0xbea9361d	-0.33049098
95	0x3e27d288	0.16388905
96	0xbb591c5f	-0.0033128483
97	0xbc9eb5ae	-0.019373741
98	0x3e3ab619	0.18233527
99	0x3dd920d1	0.10601962
100	0x3e2e5a0a	0.17026535
101	0x3da85560	0.08219409
102	0xbe09d6fb	-0.13460915
103	0xbcf9faa1	-0.030515017
104	0xbd084b22	-0.033274777
105	0xbe21a4dd	-0.15785547
106	0x3d0cb404	0.034351364
107	0x3e9635e9	0.29338005
108	0x3d11b252	0.03557045
109	0xbdceb8f4	-0.10093871
110	0x3a4ef526	0.00078948063
111	0x3e6b201f	0.22961472
112	0xbe29ab23	-0.1656919
113	0x3d8eaa17	0.06966036
114	0xbc7441d3	-0.014908272
115	0x3e1909a7	0.14945088
116	0x3d6340f6	0.055481873
117	0xbe5d5aea	-0.21616712
118	0xbe028fc7	-0.12750159
119	0xbe1dfd2f	-0.15428613
120	0x3e4e08c9	0.20120539
121	0x3ea1a1ae	0.31568664
122	0xbeea2436	-0.45730752
123	0xbd781b83	-0.060573112
124	0xbdfe40e6	-0.12414722
125	0xbe6f7067	-0.23382722
126	0x3dc08209	0.09399802
127	0x3d34f6f3	0.04418082
128	0x3db12a6c	0.086506695
129	0x3e55e8b9	0.20889558
130	0xbe02ce2f	-0.12773965
131	0xbd92ca85	-0.07167534
132	0xbda6c73e	-0.08143471
133	0x3d07b7fc	0.033134446
134	0xbc338bdb	-0.010958637
135	0x3a6c55e5	0.0009015485
136	0xbd51f346	-0.051257394
137	0x3bc06c2e	0.005872271
138	0xbd3170e8	-0.043320566
139	0x3c8e6295	0.017380992
140	0x3b7aa6e6	0.0038246452
141	0x3daa0ea8	0.08303577
142	0x3cf5891a	0.029972602
143	0xbdf66494	-0.120309025
144	0xbe44cd55	-0.19218953
145	0xbd8737b2	-0.0660242
146	0x3cb8913b	0.022530189
147	0x3dfaed94	0.12252346
148	0xbe05041a	-0.12989846
149	0xbb0acc44	-0.002117888
150	0xbe39cb64	-0.18143994
151	0xbef252de	-0.47328848
152	0xbde0925d	-0.109654166
153	0x3d1d48b4	0.038399413
154	0x3e978b6c	0.29598558
155	0xbcb1d5a5	-0.021708319
156	0xbdd61e5a	-0.10455008
157	0xbd35e88a	-0.04441122
158	0x3dbfa148	0.09356934
159	0x3e14d161	0.14532997
160	0xbe081c92	-0.13292149
161	0x3e178d37	0.14799963
162	0xbe668c39	-0.22514428
163	0xbdd77fd0	-0.10522425
164	0x3d9b7ba3	0.07591941
165	0xbe338f9e	-0.17535254
166	0xbbcae108	-0.0061913766
167	0xbdb1031a	-0.0864317
168	0xbcd7a3b4	-0.026323177
169	0xbe4011ef	-0.18756841
170	0xbd0031ff	-0.03129768
171	0x3ae7eabd	0.0017693859
172	0x3dbcbb69	0.09215433
173	0x3e4e6627	0.20156156
174	0x3dd5da1a	0.1044199
175	0xbe0095bd	-0.1255712
176	0x3e538165	0.20654829
177	0xbe04c00d	-0.12963887
178	0xbe644ddc	-0.22295326
179	0x3e151d1b	0.14561884
180	0x3ce54fba	0.027992118
181	0xbdd387c3	-0.10328629
182	0xbe3e6e98	-0.18596876
183	0xbdb3ad83	-0.08773329
184	0xbe3039f5	-0.17209609
185	0x3cd7d019	0.026344346
186	0xbe6ff437	-0.23433004
187	0x3d71fab3	0.059076976
188	0x3bf560ac	0.007488331
189	0x3e1ae579	0.151266
190	0x3e084921	0.13309146
191	0xbb2a3889	-0.002597364
192	0x3d467375	0.048449952
193	0xbe55d417	-0.20881687
194	0xbdac730c	-0.08420381
195	0x3d990794	0.074721485
196	0xbdcaca14	-0.099018246
197	0x3db081a2	0.086184755
198	0x3ce4dd32	0.027937505
199	0x3d2e63be	0.04257559
200	0xbe70fb75	-0.23533423
201	0x3d5f24ef	0.054478582
202	0x3dad9acf	0.08476793
203	0xb9d37ab3	-0.00040336474
204	0xbe04f3b1	-0.12983586
205	0xbd378b13	-0.044810366
206	0xbcf430d7	-0.029808445
207	0xbeab24d9	-0.3342655
208	0xbd8a32c9	-0.06747968
209	0x3dbfe5c3	0.093699954
210	0x3d94cd23	0.07265689
211	0x3e445599	0.19173278
212	0x3e279348	0.16364777
213	0x3dc52bff	0.09627532
214	0xbe0f1250	-0.1397183
215	0x3d77684b	0.060402196
216	0xbe84115c	-0.25794494
217	0x3c4f2c77	0.012644879
218	0xbdc220a8	-0.09478885
219	0xbe147b72	-0.14500216
220	0xbbb703d2	-0.005585172
221	0xbdf4b701	-0.11948968
222	0x3d2c3188	0.042039424
223	0x3e498cd1	0.19682623
224	0xbe8635a4	-0.262128
225	0xbda702de	-0.08154844
226	0xbdef0a32	-0.116718665
227	0xbcd88c1b	-0.026433995
228	0x3e3752ba	0.17902651
229	0xbc0585ef	-0.008149608
230	0x3cd0c8e4	0.025486417
231	0x3e01569a	0.12630692
232	0x3da37d4b	0.07982882
233	0xbe4323a5	-0.19056566
234	0x3e253c24	0.16136223
235	0x3db67c72	0.08910455
236	0xbd91bb5d	-0.07115815
237	0x3aca667f	0.0015441923
238	0xbd3478f2	-0.044060655
239	0xbea9bdf8	-0.33152747
240	0x3d87c4dc	0.06629345
241	0x3db2a686	0.08723168
242	0xbd1421c3	-0.03616501
243	0x3bb2d843	0.0054579093
244	0xbd54c458	-0.05194506
245	0x3d229fc5	0.03970315
246	0xbdb07c92	-0.0861751
247	0x3ea1f4bc	0.3163203
248	0x3ea5924e	0.32338184
249	0xbd374acc	-0.044749066
250	0x3e02281d	0.12710615
251	0xbe01a96d	-0.12662287
252	0x3cbf200a	0.023330707
253	0x3d308301	0.043093685
254	0xbe2e81fa	-0.1704177
255	0x3e669df6	0.22521195

fc2.bias f4 [61]
0	0x3e0640e5	0.13110693
1	0x3d4a777c	0.049430355
2	0x3d556880	0.052101612
3	0x3d4f3651	0.05058891
4	0xbd958b02	-0.07301904
5	0xbdaa5230	-0.08316457
6	0xbdbd0061	-0.09228588
7	0xbc6c78b3	-0.014433074
8	0x3a3206f3	0.00067911966
9	0xbe440ca1	-0.19145443
10	0x3c86581e	0.01639944
11	0x3d860031	0.06543005
12	0x3d9d4bbe	0.07680462
13	0x3c2bd7e6	0.010488486
14	0xbdf7adb3	-0.12093677
15	0xbd45d54d	-0.048299123
16	0xbdbb1f2f	-0.09136807
17	0x3c9a95d3	0.01887027
18	0xbdb1c19f	-0.086795084
19	0xbcdb473b	-0.026767364
20	0xbdf57484	-0.11985114
21	0x3e034e3c	0.12822813
22	0xbcd2fcb0	-0.025755256
23	0xbd097905	-0.03356268
24	0xbe06f658	-0.1317991
25	0x3d004a06	0.031320594
26	0x3da5b609	0.08091361
27	0xbd855aff	-0.06511497
28	0xbde3c894	-0.111222416
29	0xbcc764bc	-0.024340026
30	0x3dca617b	0.09881874
31	0xbd07c2de	-0.033144824
32	0x3dbe9b4a	0.09306963
33	0x3c57e5cc	0.013177346
34	0xbdd95307	-0.10611539
35	0x3d8eb867	0.06968766
36	0xbd7a3549	-0.061085973
37	0xbdbf491e	-0.09340118
38	0xbdaf4862	-0.08558728
39	0xbd4c39c2	-0.04985977
40	0xbda822cd	-0.08209763
41	0xbde4cb41	-0.1117158
42	0xbd8ffed9	-0.0703103
43	0x3d990c1a	0.07473011
44	0x3d26fab8	0.040766448
45	0xbc68c7d6	-0.014207801
46	0xbca6df1d	-0.02037006
47	0x3d779cbe	0.060452215
48	0xbdf81e94	-0.12115207
49	0xbd2d2369	-0.042270098
50	0xbcf4bfc9	-0.029876607
51	0x3d0ad13e	0.033890955
52	0xbcbc653c	-0.022997491
53	0x3d4224d3	0.0473984
54	0x3ccbfd5d	0.024901086
55	0x3dc6f8d8	0.09715432
56	0x3c30dfee	0.0107955765
57	0x3ea2f77a	0.31829435
58	0x3e93adc9	0.28843525
59	0xbc092eee	-0.008373005
60	0x3d85d4da	0.06534739

fc3.weight f4 [4, 61]
0	0xbe01a7ea	-0.1266171
1	0x3da809e5	0.08205012
2	0x3ded8258	0.11597127
3	0x3df829fa	0.121173814
4	0xbe23d68b	-0.1599981
5	0xbe2bdb8f	-0.16782974
6	0x3dd40b8d	0.10353766
7	0x3e1f7b7d	0.15574451
8	0xbe61c3e5	-0.22047384
9	0xbd4303e8	-0.047611147
10	0x3e0976b9	0.13424195
11	0x3e93d9d2	0.2887712
12	0x3e569078	0.20953548
13	0x3da4b4c8	0.08042294
14	0x3d947b0f	0.07250034
15	0x3e62c2ac	0.22144574
16	0x3d7f1177	0.062272515
17	0x3daa4d9e	0.083155856
18	0x3ebef6b4	0.37297595
19	0xbe99e12f	-0.30054614
20	0x3e25735a	0.16157284
21	0x3e91d1f2	0.28480488
22	0x3e723f22	0.23656896
23	0x3cc7f7e5	0.024410198
24	0x3e744c62	0.23857263
25	0xbe273dfa	-0.16332236
26	0x3e1556be	0.14583871
27	0xbd871a12	-0.065967694
28	0x3e37b24b	0.17939107
29	0x3dee71af	0.11642777
30	0x3dd58a00	0.10426712
31	0xbe9ed296	-0.3102004
32	0x3e0a8b96	0.1352981
33	0xbe8d78e1	-0.27631286
34	0x3d2a9760	0.04164827
35	0x3ea5f005	0.32409683
36	0x3d9de1cd	0.07709084
37	0x3d2b0bda	0.04175935
38	0x3db3548a	0.08756359
39	0x3dc89e88	0.097958624
40	0x3df4b100	0.119478226
41	0xbd2305e4	-0.03980054
42	0xbe53b184	-0.20673186
43	0xbe8ff654	-0.2811762
44	0xbd00b8e2	-0.031426318
45	0xbeb46b52	-0.3523813
46	0x3ce2cb6e	0.027684893
47	0xbda3a192	-0.079898015
48	0xbcff5ea0	-0.03117305
49	0xbe194382	-0.14967158
50	0xbea6a876	-0.325504
51	0x3db2bfd3	0.08727994
52	0x3d165e95	0.036711294
53	0x3dc02a58	0.093830764
54	0xbdf7bdac	-0.12096724
55	0x3c73fb94	0.014891524
56	0x3eb1eeeb	0.34752592
57	0x3e3d615a	0.18494168
58	0x3e7ba726	0.24575481
59	0xbaf8c389	-0.0018979172
60	0x3dbbde1f	0.091732256
61	0x3d030246	0.03198459
62	0x3eb7c062	0.35888964
63	0x3e4c45c0	0.19948483
64	0x3da816d6	0.082074806
65	0xbe77c1f1	-0.24195077
66	0x3db37270	0.087620616
67	0x3e29bd40	0.165761
68	0x3dc0bd5a	0.09411116
69	0x3ea41309	0.32045773
70	0x3eec74be	0.46182817
71	0x3da7b28f	0.08188354
72	0x3e9fb237	0.31190655
73	0x3e4357dd	0.19076486
74	0xbcf1ff6f	-0.029540746
75	0xbdab60d1	-0.08368076
76	0x3e6b4cfd	0.22978587
77	0xbe8957ba	-0.26824743
78	0x3e065d98	0.1312164
79	0x3ec15316	0.37758702
80	0x3e5181d2	0.20459679
81	0xbe2cbe7e	-0.16869542
82	0x3e205cdc	0.15660423
83	0x3ed40ec0	0.41417503
84	0xbe89df97	-0.26928398
85	0xba7b9c1a	-0.0009598151
86	0xbd8b25bf	-0.06794309
87	0x3e08d1fd	0.13361354
88	0xbda691c7	-0.081332736
89	0x3e0698ac	0.13144177
90	0x3ea355f4	0.31901515
91	0x3e2eb325	0.17060526
92	0xbd07e84c	-0.03318052
93	0x3f409bc4	0.7523768
94	0x3cdaf97d	0.026730293
95	0xbd27a239	-0.040926192
96	0x3e96eb6e	0.29476494
97	0x3eb9c172	0.362804
98	0xbe0f3940	-0.13986683
99	0x3d786834	0.06064625
100	0xbe3e2032	-0.18566969
101	0x3ec9bb1f	0.39400575
102	0x3e1c9c72	0.15294054
103	0x3edc0847	0.42975065
104	0x3e8a61a8	0.2702763
105	0xbe49ac58	-0.1969465
106	0x3e2f3ec4	0.17113787
107	0x3de65f5b	0.11248656
108	0xbdec296b	-0.11531337
109	0x3e06d838	0.13168418
110	0xbe47b7a7	-0.19503652
111	0xbe6ee54b	-0.23329656
112	0x3d8f7e6e	0.070065364
113	0x3e02117f	0.12701987
114	0x3cf9943d	0.030466193
115	0xbe75b30c	-0.23994082
116	0xbc4a466d	-0.012345892
117	0x3d9a0d67	0.075220875
118	0x3e077e5a	0.13231793
119	0x3e44f249	0.1923305
120	0xbf2d3120	-0.67653084
121	0x3e1467d5	0.14492734
122	0x3e117155	0.14203389
123	0x3bd43a3a	0.0064766677
124	0x3c9e7acf	0.01934567
125	0xbe6abe26	-0.22924098
126	0xbd6d06c5	-0.057867784
127	0x3ce7516f	0.028237073
128	0x3eab54de	0.33463186
129	0x3ec76f20	0.3895197
130	0xbc569d3a	-0.013099009
131	0x3e7392af	0.23786424
132	0x3e8306ee	0.25591224
133	0x3eb5f593	0.3553892
134	0x3d923cbd	0.07140491
135	0x3ef3c649	0.47612217
136	0xbe9db5f8	-0.30802894
137	0x3dfefb2a	0.124502495
138	0x3e9d24ec	0.30692232
139	0x3dff0871	0.12452782
140	0xbdc65307	-0.09683805
141	0xbdde1308	-0.10843474
142	0xbe1bd5bb	-0.1521825
143	0x3d4659d6	0.048425518
144	0x3eb7413a	0.3579195
145	0xbb7f314a	-0.003893929
146	0xbdbb9558	-0.091593444
147	0xbebc40a4	-0.36768067
148	0x3d9dbfe9	0.077026196
149	0xbe3eeaf9	-0.18644322
150	0xbe50add5	-0.20378812
151	0xbe170640	-0.14748478
152	0x3e3290d9	0.17438067
153	0xbe493a7c	-0.19651216
154	0x39ca0684	0.00038533297
155	0xbea67e97	-0.32518455
156	0xbe6467e2	-0.22305253
157	0x3df74aa9	0.12074787
158	0x3d8652c1	0.06558753
159	0x3e95ca67	0.29255983
160	0x3d702ac1	0.058634523
161	0xbef9bffa	-0.4877928
162	0xbdfb8f87	-0.12283235
163	0x3ce746ec	0.02823206
164	0xbe1810f9	-0.14850225
165	0xbe189bac	-0.14903134
166	0xbd071954	-0.03298314
167	0xbe3505a2	-0.1767793
168	0xbe22c0d9	-0.15893878
169	0xbe4fa81d	-0.20278974
170	0x3e5a673a	0.2132844
171	0xbd9ebd88	-0.07750994
172	0xbe5aa082	-0.21350291
173	0xbdd2850c	-0.10279283
174	0x3e47f986	0.1952878
175	0x3df6051b	0.120126925
176	0x3dfe0415	0.12403122
177	0x3dc77765	0.097395696
178	0x3e98a2a1	0.29811576
179	0x3e17966f	0.1480348
180	0x3e0498dc	0.12948936
181	0xbe5ff769	-0.21871723
182	0x3e0915fd	0.13387294
183	0x3d1479e3	0.036249053
184	0x3d08295c	0.03324257
185	0x3e920a45	0.2852346
186	0x3ea302f2	0.31838185
187	0x3e5b9aea	0.21445814
188	0xbe3c2eb7	-0.18377195
189	0xbe4889be	-0.19583794
190	0x3e8879a0	0.26655293
191	0xbe0d69d3	-0.138099
192	0x3e3ce940	0.18448353
193	0x3d1b8af7	0.037974324
194	0x3d98a468	0.07453233
195	0x3e8fd9ab	0.28095755
196	0x3dec4434	0.11536446
197	0x3e5b3309	0.21406187
198	0x3cb426dc	0.021991186
199	0x3e69e9a4	0.22843033
200	0x3e41bcb7	0.18919645
201	0xbdbe0cb0	-0.09279764
202	0xbdf222f6	-0.118230745
203	0x3d116dc8	0.035505086
204	0xbc672f53	-0.014110404
205	0xbc4070c5	-0.011745636
206	0xbe5d16b6	-0.21590695
207	0x3eb5ea43	0.3553029
208	0xbe7ba719	-0.24575461
209	0x3e5c23c9	0.21498026
210	0x3b02b407	0.001994373
211	0xbe86e5db	-0.2634724
212	0xbe29de6e	-0.16588756
213	0xbd4cb151	-0.04997379
214	0xbe8d136d	-0.27553883
215	0x3e0464b2	0.12929037
216	0x3e0c05dd	0.13674112
217	0xbec41451	-0.3829675
218	0x3f012c0e	0.5045785
219	0xbe3131eb	-0.17304198
220	0xbe5004a4	-0.2031427
221	0x3dba50e4	0.0909746
222	0xbdf0627d	-0.11737535
223	0x3eb6fce9	0.3573983
224	0x3ecff776	0.40618485
225	0x3f01a870	0.5064764
226	0x3e3bcfff	0.18341063
227	0x3e6577c4	0.22408968
228	0xbe9e40b3	-0.30908737
229	0xbe8f08e2	-0.27936465
230	0xbdcf9785	-0.10136322
231	0x3e51a044	0.20471293
232	0xbe25af39	-0.16180123
233	0xbec1985b	-0.3781155
234	0x3f14d0e5	0.5813125
235	0x3d9586d8	0.0730111
236	0x3e76296e	0.24039242
237	0x3e55637c	0.20838732
238	0x3e434684	0.19069868
239	0x3cdc51de	0.026894506
240	0x3e3122a0	0.17298365
241	0x3e452f82	0.19256404
242	0xbc9e12d6	-0.019296091
243	0x3df6e945	0.120562114

fc3.bias f4 [4]
0	0x3e87018a	0.26368362
1	0x3e94b796	0.29046315
2	0x3e9c4993	0.30524883
3	0x3e4c389a	0.19943467
