checkpoint5.pth (torch_old, 52174 bytes, 6 tensors)

fc1.weight f4 [126, 37]
00000000: cf48 973d aa1b a8bc a65b bbbc ee62 663d
00000010: 59ad 0a3e acb1 b93e f98f 16be eff5 a7be
00000020: e62a d0bd 6a7b 93bf 87c2 22bd 25a1 4f3c
00000030: e457 7f3d a37b 463d 4b9d 523d 120a b03c
00000040: becf 91bd 37f2 2a3d 944e 553e ca7a 663e
00000050: b29b 47be a55c dcbc 0c4e a9bd eda0 293e
00000060: f982 5b3d b83a 8fbb c408 323e cae8 e33d
00000070: 0109 66bc 79c3 8d3e ebeb 4cbc b7c8 653e
00000080: 78b7 683d 1df7 953d 8f8b a7bb c700 0c3c
00000090: 9b78 093c 57d6 053d 2142 073e 252f f1bc
000000a0: 8c3f 013e 44b2 adbd f7ef 943e 4cc7 3b3c
000000b0: a0e1 a4be 614c a0be 0112 3cbf 757f c33d
000000c0: 3efc 87bc 77b8 103c 031a 4bbe f770 26be
000000d0: 8b1c fc3d ff14 f8bd c571 8a3e 97c7 5a3e
000000e0: 19a7 26bd bc44 bebd b02d a53d eb87 003e
000000f0: 5d1a e3bc 8fc7 053e 60c7 f23d 60f4 123e
00000100: 12c4 bb3d 48fb c4bd c70a 8dbd cb9f f33c
00000110: 3cf6 b4bd 514f a6bd 3246 7c3e b08f 0b3e
00000120: 9d57 903d cf92 0bb9 2acf 503d 744a 933d
00000130: 7578 e43d b7a0 173e 822b 02be 4896 8e3e
00000140: 4455 8ebe a199 adbe f6dc 1fbf cf41 9bbf
00000150: 58bd 013e d43e d7bd ea0f f5bb 5091 133c
00000160: 144c b5bc 74f3 c33d c105 643d fb52 5abd
00000170: 57ba 113e 8512 c63d 6786 7bbd b1d9 c13c
00000180: d762 053d dcf4 d33c 7621 0d3d a44a c1bc
00000190: 6c43 4a3e 85e1 163c c5eb 933e c045 263e
000001a0: 3aeb 14be aac3 0e3d 8495 2f3e 0e0b 093e
000001b0: f619 893e 6125 22bc 8704 623c 2fb2 893c
000001c0: d1cd 8f3d f618 06be abcb 0d3e d389 f83d
000001d0: 5ccb 85bd 3f58 bb3d 7a8c a4bd 46f4 143e
000001e0: 7932 1c3f 3dad 13be 6d18 0c3e 6ed8 40bd
000001f0: c8f8 393c ac68 9bbd 1e3e a1be 2425 4f3d
00000200: e2f7 3e3d f80e 953c d6d2 7d3d c7b0 a4bd
00000210: d4f1 553c 2a4a b43d 1ec7 5d3e f80f 6a3d
00000220: 77bb b7bd 18b9 bd3b 2d78 17be c339 2e3e
00000230: 1a0d 163e 0543 2fbe b126 41be 5735 23b9
00000240: 69fa 6b3e 87d0 673e 886a d53a cfd1 51bb
00000250: 85eb a3bd 93c7 343e bf35 143d d45a 5f3e
00000260: 4587 cbbe 8057 17be 6182 a2bd da49 81bd
00000270: d394 063c 4c2f 663c f6a5 453e 2817 60be
00000280: f584 143c 6bb7 983d a2fa 9b3e c404 d8bd
00000290: 7a27 07bc 3cc7 e43d 8182 f9bc 3445 80be
000002a0: db3a e5bd 8ec3 f9bd 5d51 06be c427 0a3e
000002b0: 4da9 8a3e 8e95 56bd 1e34 493e e5e5 843e
000002c0: 779e 9b3d 046a 2bbe 99bd adbe 6321 883e
000002d0: 36a4 8fbc 3211 a0bd 0c82 e8bb 33db 8dbc
000002e0: dac7 fdbc 6200 db3d bd4a 7fbe 57de 51be
000002f0: 2ce3 693d 22f6 81be 46d3 11be 7238 02be
00000300: a9b4 693c 4a8f 1b3e 6900 df3e ecc5 f63b
00000310: dc47 12bd ee8b 1cbd 870f b83d a479 13be
00000320: 148f b13d 98c5 5dbe 322f 953d 83ee 62be
00000330: aa04 0fbe 7897 a53b 4613 31be 4e7a 84bd
00000340: 838f 433c 04cd c2bc a6ec 06be 88bf be3d
00000350: 1105 08be db67 d2bc e742 763e 6c92 053e
00000360: c46f bebd 3ef2 873c 1b7f d4be 83b2 f8bd
00000370: 0a81 1fbe 1660 ec3c 9aa2 eabd d6bf cfbd
00000380: 2616 5a3d a737 59be 8aaa a2bd 862c 1c3e
00000390: 098a 2cbe 6676 343d 2935 6bbe 7c91 84bf
000003a0: 4e96 473e 23d1 ecbc bb06 63bd 3e1b d9bd
000003b0: 9c1c 5cbe 2bf0 2ebb 2591 1a3e c02a 39be
000003c0: 74d8 0abe f74e 393e fd2d 993d efc1 c3bd
000003d0: 7799 75be ce9f 003d e4bd bbbd cdda 86bd
000003e0: 8ba1 8ebe 0099 7e3c cc49 353c ebf0 423c
000003f0: e8a9 c6bd 2a79 863e 646e 2c3d 73ef 51be
0.07386934 -0.020521004 -0.02287085 0.05624669 0.1354269 0.36268365 -0.14703359 -0.3280482
-0.10164432 -1.1522038 -0.039736297 0.012672697 0.06233968 0.048457753 0.051419538 0.021489177
-0.07119702 0.0417349 0.20830756 0.22507778 -0.19492987 -0.026899645 -0.082668394 0.16565295
0.053591702 -0.0043710135 0.17386156 0.11128385 -0.014040233 0.27688196 -0.012507419 0.22439848
0.056815594 0.07322524 -0.005113072 0.008545107 0.008390571 0.032675114 0.1320882 -0.029441426
0.12621897 -0.08481267 0.2908933 0.01146109 -0.32203388 -0.31308272 -0.7346497 0.09545795
-0.01659977 0.008833042 -0.19834141 -0.1625403 0.12310132 -0.1211338 0.27039924 0.213652
-0.0406867 -0.09290454 0.08065355 0.12551849 -0.027722532 0.13064407 0.11854434 0.14351034
0.09168257 -0.096182406 -0.06886821 0.029739281 -0.08836028 -0.08120597 0.24636152 0.13629031
0.07047961 -0.00013310763 0.050978817 0.07191935 0.11155788 0.14807402 -0.1271191 0.2784903
-0.27799428 -0.33906272 -0.62446535 -1.2129458 0.12669885 -0.105100304 -0.0074787037 0.009006813
-0.022131003 0.095679194 0.05566955 -0.053301793 0.1423124 0.09671501 -0.061407473 0.023663374
0.032564964 0.025873594 0.03445574 -0.023595162 0.19752282 0.0092090415 0.28890815 0.16237545
-0.14542857 0.03485457 0.1714688 0.13383123 0.2677762 -0.009896607 0.013795025 0.016808597
0.07021678 -0.1309546 0.13847224 0.12135663 -0.06532928 0.09147691 -0.08034606 0.14546308
0.61014515 -0.14421554 0.13681193 -0.047081403 0.011350818 -0.07588324 -0.31492704 0.05057253
0.04662312 0.018195614 0.061968647 -0.0804153 0.013058145 0.08803208 0.21657988 0.057144135
-0.08971303 0.005789887 -0.14791937 0.17014222 0.14653435 -0.1711541 -0.18862416 -0.00015564762
0.23044743 0.2263814 0.0016282359 -0.0032015925 -0.08003906 0.17654257 0.03618407 0.21811992
-0.3975164 -0.14779472 -0.07935024 -0.06312914 0.008214193 0.014049362 0.1930159 -0.21883833
0.009064903 0.07456859 0.30464655 -0.10547784 -0.008249158 0.111708134 -0.030457737 -0.25052798
-0.111928664 -0.12195502 -0.13116975 0.13491732 0.2708229 -0.05238872 0.19648787 0.25956646
0.07598584 -0.1673966 -0.33933714 0.26587972 -0.017534357 -0.0781578 -0.007095581 -0.017316436
-0.030979086 0.106934324 -0.24930854 -0.20494972 0.057101414 -0.25383097 -0.1424075 -0.12716845
0.014264264 0.15191379 0.43555 0.0075309183 -0.03571306 -0.038219385 0.089873366 -0.14401871
0.08669868 -0.21657407 0.072843924 -0.22161298 -0.13966623 0.005053457 -0.17292508 -0.0646864
0.011936071 -0.0237794 -0.13176212 0.093138754 -0.13283183 -0.025684288 0.24048959 0.13044137
-0.09298661 0.016595002 -0.41503224 -0.121434234 -0.15576568 0.028854411 -0.11456795 -0.10144012
0.05324378 -0.21212636 -0.07942684 0.1525136 -0.16849531 0.044058226 -0.22969498 -1.0356898
0.1949093 -0.028908318 -0.05542634 -0.10600899 -0.21495289 -0.0026693444 0.1509443 -0.18082714
-0.13559133 0.18096529 0.07479475 -0.09558474 -0.23984323 0.0314024 -0.09167078 -0.06584702
-0.27857623 0.015539408 0.011064958 0.01189826 -0.09700376 0.26264316 0.042097464 -0.20501499

fc1.bias f4 [126]
00000000: cf10 bfbd 4386 853d 0a93 7abb 2b3a 19be
00000010: 6580 9fbc d95b ad3c cea5 abbd de57 b43d
00000020: 799e 8b3d 847a e2bb 86ac b4bd a893 30be
00000030: 85dc 35be 6ddc 33bc a408 063d 7262 5bbd
00000040: 9219 d8bd d831 d2bd e2c8 e33d b82a e4ba
00000050: f5c2 19be a865 32be 5b01 bfbd 01f2 49be
00000060: fc1f ef3d 3cce ae3d 8a75 80bd bdd0 cb3d
00000070: 7544 063d b7e7 68bc ac60 d2bc dd84 bfbc
00000080: 83c9 a7bc d503 603d 7c19 b43d 0385 c13d
00000090: 5903 ca3b 8fad 2d3d 625c 89bd cdca b13d
000000a0: ae5c 723c 4987 1fbe 93ed 00be 3c37 17ba
000000b0: da9d 9cbd 2078 233d 7fe2 923d bb55 ee3c
000000c0: 4d35 37be da5a 02bc 5973 87bd 17b5 a93d
000000d0: 6c7e f63b 2033 bc3d fc11 943d 9b4c 7cbd
000000e0: c370 913d 5c2e 95bd 0a66 d33d 2696 51bd
000000f0: 0dd8 5c3e 2e9c afbc cb69 05bd 45bc d8bc
00000100: 8116 e83d 7db6 71bd c03d 003b fd29 2fbe
00000110: 9cfc f7bc 42eb ef3d 4b50 82bd 66fc 4e3d
00000120: 7c72 8a3c 26d7 b83d ce13 2c3c 060d debd
00000130: 7d53 0fbe fc76 0c3d a565 c7bd cee2 f4bd
00000140: 1c9d 45be ee92 fc3c ed6e f3bd 2065 183e
00000150: 5c72 03be 381e 813c fb5b 6dbd 8c01 b23d
00000160: d1f3 613e a3c9 403e 526e 9bbc 4faf e5bd
00000170: ed5c f9bd 7c86 f9bb 011f 2c3d f1bb cf3d
00000180: 90e2 20bd 6c51 c73d 9b99 b9bd d52f c1bc
00000190: c7ed e5bd f889 17bd 533e 05bd 73c6 0a3e
000001a0: bf7d 3f3e beff 3b3e e0a4 e33d 7284 b2bc
000001b0: af8e 013e c649 6a3d 3c47 c53d 22e8 583d
000001c0: ddb3 d6bd 2b09 04bc 205d 42bd 97ae c93c
000001d0: 14be 33bd 123c edbc d2fa 6ebd ad07 1ebe
000001e0: aa9c 353e 70dc 493e bfd3 3bbd d8ac 76bd
000001f0: 3c1e f4bc b5e0 6fbe
-0.09329378 0.06519749 -0.0038234615 -0.14963596 -0.019470403 0.02116196 -0.08381234 0.08805822
0.06817336 -0.0069115777 -0.08821969 -0.17243826 -0.17759903 -0.010977847 0.032723084 -0.05356068
-0.10551752 -0.10263413 0.111223 -0.0017407751 -0.15015776 -0.17421591 -0.093264304 -0.19721223
0.116760224 0.0853543 -0.06272419 0.09951923 0.03278013 -0.014215401 -0.025680862 -0.023378784
-0.02048183 0.054691155 0.08793923 0.09449198 0.00616495 0.042401846 -0.06707074 0.08681259
0.014792604 -0.15578951 -0.12590627 -0.00057684234 -0.07647295 0.039909482 0.07172107 0.029093614
-0.17891426 -0.007956231 -0.06613798 0.08286493 0.007522395 0.09189439 0.07229993 -0.061596494
0.07101586 -0.07284233 0.10322197 -0.051168583 0.21566792 -0.021436777 -0.032571595 -0.026456961
0.11332417 -0.059011925 0.0019568056 -0.17105861 -0.03027182 0.11714794 -0.06362971 0.050533675
0.016900294 0.09025411 0.010502769 -0.10842328 -0.13996692 0.03429316 -0.09736184 -0.11957322
-0.19298214 0.03083178 -0.11886392 0.14882326 -0.12836593 0.01576148 -0.057949048 0.08691701
0.22065665 0.18826918 -0.018973503 -0.11215078 -0.12175927 -0.0076149087 0.042021755 0.10143269
-0.039278567 0.09732327 -0.09062501 -0.023582378 -0.11226993 -0.03699681 -0.03253014 0.13552265
0.18700312 0.18359277 0.11115432 -0.02179167 0.12652086 0.057199262 0.096327275 0.052955754
-0.10483525 -0.008058826 -0.047452092 0.024619384 -0.043882445 -0.028959308 -0.05834467 -0.15432616
0.17735544 0.19712996 -0.045856234 -0.06022343 -0.029799573 -0.23425563

fc2.weight f4 [61, 126]
00000000: e5d8 18be 804c 6b3d 0aef 2ebe 07c0 383c
00000010: ee05 58bd 5e1a 55be 0934 013e ffe0 9fbc
00000020: f306 49bd 82ae 8fbd 5e2e 30bc f0a1 d2bd
00000030: 1e14 4f3c e497 e4bd f68f ecbd 2064 73be
00000040: 093c 9abd 86aa 87be a18e 4e3d bfdd d53d
00000050: 6bd9 153e 1071 bfbd 95e2 1d3d e8e0 92bd
00000060: 714a 903d 7a72 cdbd 673c b5be 66e1 0dbe
00000070: 8472 2f3d 0d7e 2bbe d508 20be 4ae2 babd
00000080: 417b 44bd 5cee 8cbd 250a 80bc 3607 253e
00000090: 14ed a1bb 752d a03d 745a 2d3e 6c68 ab3d
000000a0: f1c1 adbc b022 92be 202d e73d 7365 923d
000000b0: 1142 19bd ab1e f73d 8e39 cfbd b663 edbb
000000c0: 86fc 06be 885b 44be dacf f9bc 17fe 453d
000000d0: ff0b 21bd 10ab cfbd d5e6 80be 5c8f 953c
000000e0: 8473 b83d 9558 80be 1868 59bd 0898 11be
000000f0: 6e45 ecbb f428 4a3e a4ba 8e3d c079 2cbe
00000100: 0c24 40bd 649d 2ebd e935 233e 917b 07be
00000110: dd9f 03be b36b d93d 7002 bdbe 82bf a93d
00000120: a35a 94bd 90a5 993a 9956 493c 52ff 463e
00000130: bf56 de3e b965 9bbd 11a3 86be 1abc a4bc
00000140: eaba 26be 0696 1cbe f1ae 1ebc 364c 5a3d
00000150: d747 8dbe 57c4 0bbe e924 bcbd 7ba8 df3e
00000160: 5289 f0bd afb6 b23d 1c76 173e 7531 3bbc
00000170: 4486 3a3e 3984 a1bc 9646 09be 9991 5a3d
00000180: b1cb cebd 695c 053e d152 84be c275 64be
00000190: 44d5 833e 118f a93c 20f4 38be ded7 edbd
000001a0: 759d 183e 3625 b73c e0e9 f13c 7317 8b3d
000001b0: 93f7 013d 163d 083e 1140 32bd 17c0 04be
000001c0: 88b4 6abd c43d 33bc 2473 97bd b645 2d3e
000001d0: ee68 5dbc 7e7d 9abd 5461 b6bd cf70 183e
000001e0: dba3 3cbd 249f 313e 8767 7ebc be59 a53d
000001f0: f06e c33c ca2e 3e3d d0a3 2fbe 670e 4cbd
00000200: 029e fcbd 5bd4 33be 5465 5a3d 4696 a53d
00000210: 4d61 49bc 8538 083c ed3a 133d fbd7 c5bc
00000220: 1a3c 0a3d 08c5 15be 717a a3bc b18e 0a3d
00000230: dce2 613d bbf4 dfbd f4b5 d9bd ef93 e13d
00000240: 85d0 b7bd 9cca 58bd c3a7 3f3d c720 1e3d
00000250: 42d3 6c3c 3d64 cfbd b8c1 9e3c a68e 02bd
00000260: b23d cb3a 3b70 06be 434d 333d 2243 c03d
00000270: 039c aebd 3397 913e ca79 aabe 7e4f 7e3c
00000280: 6c04 fc3d 57fc 493e d94e 473d aa8c ce3d
00000290: f969 febd 3ee8 c43e 5780 14be a8f8 c1bd
000002a0: 4ddb 5abc 3f0b 12bb 8870 7ebd 2a86 373d
000002b0: 35bc d3ba 7151 6cbd 1ed3 923b 15df 36bd
000002c0: 873d f0bd 0635 c33c ae99 d0bd 0791 d2bd
000002d0: 8f17 07bd 4477 d9bd 438c aebd 5f31 6dbd
000002e0: 9410 4e3e 5b13 56bd 4c40 2fbe 487d b83e
000002f0: e960 ad3b 3c56 63be 46f4 9dbd df0f 49bd
00000300: ce0a 503d 8d5b d3bb 9d9a c9bd f4ef 5a3c
00000310: 17ba 17be 2772 9337 9628 573d 6ce2 fd3d
00000320: 46bd b83d d608 32be 8f76 8abe 8081 9338
00000330: c23a cebc 101a 08be ec98 f93c d424 363c
00000340: a1a8 693d 33eb 8a3d 5138 a0bd 00fe 8c3d
00000350: 2010 c83d 0ff3 173e b3bb abbd 4817 033e
00000360: 0832 b3bd 92a1 3bbd ee8a 673e 3ab3 813c
00000370: 3342 f1bc 3c80 d43d 645a 2cbd d286 acbd
00000380: 4e86 b1bd a86f 0e3e fe60 b0bd b484 14be
00000390: 4e42 8bbd 1d3e 2fbd 4178 403e eebc ccbd
000003a0: 3aba 5e3d 8939 f93d e3c1 f93b b35a b4bd
000003b0: 09bc c8bc 36ea d4bd 9980 01bd 16a1 203d
000003c0: 6762 813d be3d 143e cc84 2bbe 258c 33be
000003d0: da5d 083d eda1 033e 444d c23d ae34 e23d
000003e0: 4034 06bd 9e21 823d 8fdc 823d 459b 3ebd
000003f0: 012f 5dbd 3287 2abc 715b bdbd 4546 f6bc
-0.14926489 0.057446003 -0.17083374 0.011276252 -0.05274003 -0.2081084 0.12617506 -0.019516466
-0.049078893 -0.070157066 -0.010753242 -0.102847934 0.012639074 -0.11161783 -0.11550896 -0.23768663
-0.07530982 -0.26497287 0.05042899 0.10442685 0.1463372 -0.09347737 0.038546164 -0.07171804
0.070454486 -0.100316 -0.35397646 -0.13855514 0.04283382 -0.16747303 -0.15628369 -0.091251925
-0.047969107 -0.06881401 -0.015629837 0.16116032 -0.004941592 0.0782117 0.16929036 0.08369526
-0.021210643 -0.2854209 0.11287904 0.07148256 -0.03741652 0.12066396 -0.101183996 -0.0072445525
-0.13182268 -0.19175541 -0.03049462 0.048338022 -0.03931808 -0.101400495 -0.2517611 0.018256836
0.09006408 -0.25067583 -0.053077787 -0.14218152 -0.007210425 0.19742185 0.069691926 -0.16843319
-0.046909377 -0.04263057 0.15938534 -0.1323073 -0.12853952 0.10616245 -0.36915922 0.0828848
-0.0724385 0.0011722315 0.012288713 0.19433334 0.43425557 -0.075877614 -0.26296285 -0.020109225
-0.1628224 -0.15291604 -0.009685264 0.053295337 -0.27593872 -0.13649116 -0.091867276 0.43683228
-0.11744942 0.087262504 0.14791149 -0.011425366 0.18215281 -0.019716369 -0.13405833 0.05336151
-0.10097445 0.13023533 -0.25844434 -0.22310546 0.25748646 0.020698102 -0.18061876 -0.11613439
0.14903815 0.02235661 0.029530466 0.06791582 0.031730246 0.13304552 -0.04351813 -0.12963901
-0.057301074 -0.010940019 -0.07395008 0.16921124 -0.013513787 -0.07543467 -0.089052826 0.14886783
-0.046054702 0.17345864 -0.0155276125 0.080737576 0.02385661 0.04643134 -0.17152333 -0.049818423
-0.12334825 -0.17561476 0.05331929 0.08085303 -0.012291265 0.008314257 0.035944868 -0.02415084
0.033748724 -0.14625943 -0.019955846 0.033827487 0.05514799 -0.109353505 -0.10630408 0.11014544
-0.08975319 -0.0529276 0.04679085 0.038605478 0.014454665 -0.10126541 0.019379482 -0.03187432
0.0015506058 -0.1312875 0.043774854 0.093878046 -0.085258506 0.28435668 -0.33296043 0.015521882
0.12305531 0.19725166 0.04865918 0.10085423 -0.124225564 0.38458437 -0.14502083 -0.094712555
-0.013357949 -0.0022284535 -0.062119037 0.044805683 -0.0016154113 -0.057694856 0.0044807335 -0.04464634
-0.117304854 0.023828994 -0.10185562 -0.10281568 -0.03298145 -0.10618451 -0.085228465 -0.057908412
0.20123512 -0.052264553 -0.17114371 0.36033082 0.0052910936 -0.22200865 -0.07712607 -0.0490874
0.050791554 -0.0064501227 -0.09843943 0.013362873 -0.14817081 1.7576922e-05 0.05252894 0.12396702
0.09020476 -0.17386183 -0.27043578 7.0336275e-05 -0.025174502 -0.13291192 0.030468427 0.011117179
0.057045583 0.06783142 -0.078232415 0.06884384 0.097687006 0.14838813 -0.0838541 0.1280185
-0.08749777 -0.045808382 0.22611591 0.015832532 -0.029450512 0.10376021 -0.04207839 -0.084241524
-0.08668195 0.13909781 -0.0861225 -0.14503747 -0.06799756 -0.042783845 0.18795873 -0.09996973
0.05437682 0.12169177 0.00762199 -0.08806362 -0.024503725 -0.10396235 -0.03161678 0.039216124
0.06317597 0.14476678 -0.16749877 -0.1753393 0.03329263 0.12854739 0.094873935 0.11045204
-0.032764673 0.06354068 0.063897245 -0.046534795 -0.053999905 -0.01040821 -0.09245957 -0.030062804

fc2.bias f4 [61]
00000000: f7a7 b63d 220b 253e 8664 4bbc 242b 273e
00000010: d6ee 013e d227 b7bc 8903 d3bd d402 bfbd
00000020: 8702 04bd 9c6b cbbc 3cd3 383d 3ac7 90bc
00000030: ae61 013e 6c69 7a3e b263 19bc a624 863e
00000040: 98a5 a6bd 5845 dbbc bf01 84bd 4c59 813e
00000050: 0122 543b 27f8 81bd c4b7 ab3d a97c 5e3d
00000060: 2b20 d7bd fa2e 5fbc 5b55 54bc dc87 293e
00000070: 5886 a83d cc86 2c3d bbc5 59bd 15fc 95bd
00000080: af52 50bc 8baf 08be ffd0 0cbd 72aa 853c
00000090: e2d3 7e3e 7470 c43c fb31 debc da40 ab3d
000000a0: fefe b8bb 4944 25be 4516 043d ebc3 1d3d
000000b0: 7890 2bbd 57c9 0a3e fa4b 093e 0727 f7bb
000000c0: 8629 d93d 6dfc aa3d bc2e 4a3d ee76 243e
000000d0: 7dfc fe3d 3f51 8a3c abfd 343e c1bf 803c
000000e0: e944 da3d fd76 873d f4d0 2c3d bc77 ae3c
000000f0: d54b 993e
0.089187555 0.16117528 -0.012414103 0.1632505 0.12688765 -0.022357855 -0.10303409 -0.09326711
-0.032228973 -0.024831586 0.045123324 -0.017673124 0.12634918 0.24454278 -0.009362148 0.26199836
-0.08137053 -0.026766464 -0.064456455 0.2526344 0.00323689 -0.063461594 0.0838466 0.054318104
-0.105041824 -0.01362204 -0.012959803 0.16555732 0.08228749 0.04212074 -0.053167086 -0.073234715
-0.012715026 -0.13348214 -0.034379 0.016316626 0.24885514 0.023979403 -0.027123442 0.08361979
-0.005645632 -0.1613933 0.0322478 0.03851692 -0.041885823 0.13553368 0.13407889 -0.007542494
0.10603623 0.08348928 0.049360976 0.16060993 0.12450502 0.016884444 0.17674892 0.015716435
0.10657675 0.06614492 0.04219146 0.021297328 0.29940668

fc3.weight f4 [4, 61]
00000000: f105 033e b99f 433e f65c 133d 7b46 9c3d
00000010: 9634 0f3e 600d ca3e b1dd 0eba 21d9 e2bd
00000020: aa1b 283d c666 63be 9455 a0bd a8d6 2d3d
00000030: 43d4 213d 339a d13d 1c9a 983d 7b86 9e3d
00000040: 39a4 cdbd 38c4 a0bd b3ac 1cbe 5a4f da3d
00000050: 1c99 9ebe 7473 c3bd 1829 533e 821a 98be
00000060: c3b9 1fbd acf3 143d 8b52 353d 5dac 9a3d
00000070: 84a4 ab3d ddfa 573e cee1 80bd e6b7 1dbe
00000080: c594 8e3c d798 30be de2b b3bd 5ba8 1e3d
00000090: 31e6 903d a4bd 82bd a59c 88be 2d9a 963e
000000a0: 10a7 853d 99e5 9bbd 09f3 0d3d 341f acbd
000000b0: a259 e33b 6700 303e fd7d a23e 6d18 adbe
000000c0: f035 383e fee6 203e 8fa4 7b3e 294a 403e
000000d0: 0450 6f3d 8573 cc3e 0c10 423c f2b5 503e
000000e0: b3b0 153e c45e e0be 3ebc c0bd e67d 5f3e
000000f0: f98b 243e 021e b13d 7b0c 373e fd4c eabd
00000100: 2c5f 973d 7200 8f3e 0cb5 7d3e 91f3 c4bd
00000110: 30e7 4ebe ee01 473e 2972 9b3d acb2 4dbc
00000120: b67e 273e bd3c c63d da69 fc3d 1969 f93d
00000130: 2e89 fc3d 1125 9fbd 41b9 3b3e f0a6 9bbd
00000140: d0a6 1bbc 4a06 9abc e0d7 80be 8597 8d3e
00000150: 2c58 8abc 8cf6 923b c51f 0b3d e181 a9be
00000160: c9d4 b53d 6931 3f3c 2346 a53e ff0a 723d
00000170: ae54 d0bd af3a 35be 8a46 e6bd cf62 94bd
00000180: 9557 bdbe 4d7f 1a3d 7a2e 233d c75c 83be
00000190: e23b 213e 3d7a 823b 5cdf 6c3c 02a4 9e3d
000001a0: bfc0 6e3d 942e c03d afdd 023e e47f 853e
000001b0: 2fd5 2b3e 7e1a 003e a28d 923e dda4 573e
000001c0: b9c7 443e e7d6 9e3d 7a17 c13d 5b7a 083e
000001d0: 871d 5d3e d1ef 063e 92a8 503c 9071 4fbe
000001e0: 324c ab3e 3337 0e3e 2b53 ac3e e45b 603d
000001f0: 2a09 913e 70e4 89bc 5de7 213e 7844 a73d
00000200: cd5b 0cbf fc6a 513e 0880 943e 2ae0 88be
00000210: 3bd2 2ebe a53b 8e3e 6c7a 503c f379 493d
00000220: 66a9 463d ba55 493e 73aa 3f3e 965e 11be
00000230: 2799 52bd 8800 133c a4a0 8dbe 48eb 8ebd
00000240: 6ea7 0b3e ee0d 92be 049f 433e a833 583e
00000250: 9366 57be 743c 773d f99e 9f3e a461 173f
00000260: 9afa cfbe 6369 303e 8143 96bd 99c2 9a3e
00000270: 4294 25be 4ccc d9be 2fd2 a33d b0c6 89be
00000280: 34a7 94bd ac79 dcbd 3f38 973e ebbe b3b9
00000290: a815 a2be f14c 263e e30b 9c3e c298 ff3d
000002a0: e2e8 5c3e 4779 09be 61bf 583e 079c 523e
000002b0: af3c b8bd 90f4 b03d 8dfd 613e 3ec2 3b3e
000002c0: 29ad a3bd 2b21 373d dffa 7c3e 7e12 e9bc
000002d0: 929a 78be 3598 cd3e df0a 883d 9d64 953e
000002e0: f01e ae3c 686c 3abc 5729 cf3d 6354 da3e
000002f0: a686 cc3e 7cfb 55be abbf a1bd b9be 9b3d
00000300: 4248 cd3e 428f 27bc 5d18 7a3e 8876 bb3c
00000310: cf12 973d d9ff bd3e e367 b83d b424 d93c
00000320: 7cb8 2c3c 6d4b 3e3d a997 eb3d cad9 243d
00000330: 43a4 04bf ac1b f5bd ff1a 8cbe d4de 89bd
00000340: 4c84 493c d9ff 4abe 5c48 0a3e ed23 623c
00000350: f07b 15bd 7337 83be 1df1 67be 2729 683e
00000360: e865 19be d4fa 5abc 7cb6 eb3d 3959 013e
00000370: 2084 05be dfb2 4f3d ab95 3c3d b826 1cbe
00000380: a959 4ebe 4590 2ebe 3475 913c 6d11 943e
00000390: 4524 3d3d cd09 a13e cc76 cabd ecd8 1f3e
000003a0: 462b 933e 6c9f e2bd 67b7 493e 0269 0ebc
000003b0: 8197 873c a5a6 0d3e b340 de3d c393 b8bc
000003c0: 2909 babd 187f 0dbe 9957 a8bc fd72 513d
0.12795235 0.19103898 0.035977326 0.076306306 0.13984904 0.3946333 -0.0005449905 -0.1107657
0.041042008 -0.22207174 -0.07828823 0.04244104 0.03950907 0.10234489 0.07451269 0.07740494
-0.100410886 -0.07849926 -0.15300255 0.10659666 -0.30976188 -0.09543505 0.20621145 -0.29707724
-0.038995516 0.036365196 0.044268172 0.07552407 0.08380988 0.2109179 -0.06293069 -0.15402183
0.017404923 -0.17245804 -0.087486014 0.038734775 0.070751555 -0.06383827 -0.2668201 0.29414502
0.06526005 -0.07612152 0.034655605 -0.08404389 0.0069381753 0.17187653 0.31736746 -0.33807698
0.17989326 0.15713117 0.24574493 0.1877829 0.05842592 0.39931884 0.011844646 0.20381907
0.14618187 -0.438223 -0.09410904 0.2182537 0.1606902 0.08648302 0.17875855 -0.114404656
0.073911995 0.27930027 0.24776095 -0.09616769 -0.20205379 0.1943433 0.07590134 -0.012554806
0.1635693 0.09679554 0.12324877 0.12178249 0.123308524 -0.07770742 0.18332388 -0.076002
-0.00950022 -0.018801827 -0.251647 0.27654663 -0.016887747 0.004484957 0.033965845 -0.33106902
0.08878476 0.011669495 0.32280073 0.059092518 -0.10172401 -0.17698167 -0.11243923 -0.07245409
-0.36980882 0.03771906 0.039839245 -0.2565672 0.157455 0.003981857 0.01445755 0.07746126
0.058289286 0.09383884 0.12779878 0.26074135 0.16780542 0.12510106 0.28623682 0.21058984
0.19216813 0.07755833 0.09428306 0.13327925 0.21593295 0.1317742 0.012735503 -0.20258164
0.3345657 0.13888244 0.33657202 0.054775134 0.28327304 -0.01683256 0.15810914 0.08167356
-0.54827577 0.20450968 0.2900393 -0.26733524 -0.17072384 0.2777988 0.0127245 0.049188565
0.048501395 0.19661608 0.18717365 -0.14196238 -0.05141559 0.008972295 -0.27661622 -0.0697847
0.13638088 -0.28526253 0.19103628 0.21113455 -0.21035223 0.060360387 0.31175974 0.5913336
-0.4062088 0.17227702 -0.07337094 0.3022659 -0.16169837 -0.4253868 0.07999074 -0.269094
-0.07258454 -0.107653946 0.295351 -0.00034283785 -0.31657147 0.16240288 0.3047782 0.12480308
0.21573213 -0.1342517 0.21166755 0.20567332 -0.089959495 0.086403966 0.22069378 0.18335816
-0.07992012 0.044709366 0.24705075 -0.0284512 -0.24277714 0.40155187 0.066426985 0.29178324
0.021254987 -0.011378385 0.10115307 0.42642507 0.3994648 -0.20896715 -0.07897886 0.07604737
0.4009419 -0.010227026 0.24423356 0.022883669 0.07376634 0.3710926 0.0900419 0.02650676
0.010542031 0.04645865 0.11503536 0.040246762 -0.51813143 -0.119681686 -0.27364346 -0.06731954
0.012299608 -0.1982416 0.13504165 0.013802511 -0.03649515 -0.25628242 -0.22650571 0.22671948
-0.1498028 -0.013365466 0.115094155 0.12631692 -0.13038683 0.050707694 0.046041172 -0.15249145
-0.2015139 -0.17047222 0.017756082 0.28919545 0.046177167 0.3145279 -0.0988594 0.15610093
0.28743953 -0.110655636 0.19698869 -0.008692028 0.016551735 0.13833101 0.10852184 -0.022531396
-0.090837784 -0.13818014 -0.020549582 0.051135052

fc3.bias f4 [4]
00000000: cb1d 083e dc74 9e3d c966 663e 3d8f e23d
0.13292615 0.07737133 0.22500147 0.11062477
