checkpoint0.pth (torch_old, 37107 bytes, 6 tensors)

fc1.weight f4 [81, 37]
00000000: af94 f43d 1d85 0abe 6baa c7bc 8397 7abd
00000010: cf2d 2cbe 3a62 af3c 3f9a 12be e835 f23d
00000020: 2c84 0ebe dc96 17bf 681e 44be b9e8 6f3d
00000030: 52f0 ce3d a451 c53b 5c2e b8bd 4f8f 1f3d
00000040: 0a5e 1bbd 40f5 10be 7a64 713b 3637 c43d
00000050: 04ec e2bd 0746 1dbe 0624 0e3d 045a 80be
00000060: 0c83 01be b20d b3bd f6df 993d e420 2c3d
00000070: c50a b7bc 6436 d73d f84f 6ebe a335 113e
00000080: 48f0 633e 3f56 4bbd 4fd6 7ebe 961c cabd
00000090: 7dfa 2a3d ebed d9bd 08ff 133e 40ac 2bbc
000000a0: 7099 533e e3c0 a53d ea6c cb3e 3b64 02bf
000000b0: f076 cdbe bf3b 86be cda2 a7bf c574 913c
000000c0: 1d59 063b 91d9 e1bc 8bdc 1ebd 4c80 54bc
000000d0: 6c7c 2f3e 485c 6fbd ed62 3e3e 47ac bb3d
000000e0: 7ed1 043e 5ef4 21be 1b1a ee3d f833 0a3d
000000f0: baa4 323d 8390 683d 4a50 9c3d 84b0 1d3e
00000100: 9640 1e3c 1079 95bd b259 af3d e10a 043d
00000110: d02f b3bd bf02 eebd 7422 593e c666 8c3c
00000120: f137 123c 8d0d 99b9 9b2f 4d3e 5294 cabc
00000130: 8e5c 073e 053d b33d bfd7 f8bd 5e45 b23e
00000140: 9209 e0be 1cd2 72be 6106 99be 9a37 8dbf
00000150: 277c 983d c521 163d 9c9f bfbd 7ebd 063e
00000160: 5ec0 823d 90b6 433e 2522 d43d 2acb 06be
00000170: f248 a23d 71bd c53d 107b b7bc 3a18 c8bd
00000180: 6406 f13d ccc8 dd3b 7612 bd3d 2119 053e
00000190: a1e2 163e b789 20bd f0c1 2f3e 35a5 243e
000001a0: 8081 97bd d669 82bd de03 5b3e db2a 303d
000001b0: 7513 7a3e 0266 5e3d b0f0 6a3c 3206 013e
000001c0: 1858 403e 86e3 f3bd 5711 0fbb e7ac 713e
000001d0: a389 483e 768c a23c 805f e6be 58a2 59be
000001e0: dff7 8fbf 0ad2 893d c70b 9e3d e6e1 123d
000001f0: 6826 31bd 4889 ffbd 86e3 49be c6d3 6a3c
00000200: 8c11 163e 844f df3d 409a 373d 7631 113c
00000210: cf5d 803e 85b5 3fbc 1b42 db3d e35e de3d
00000220: b714 0d3d ed38 623d 07c1 2d3c 5897 0ebe
00000230: 77d7 cb3d 34cd 87bc bc4b f43b 1c39 08bc
00000240: 7830 9b3b 59b8 c8bd 734c b73c c413 843c
00000250: 682b 2f3e 3f72 a83d 4d8a 50be a2d2 8e3e
00000260: ac37 093e fed3 333d 256a 51be 5249 94be
00000270: 9bb6 bdbd 649e 173d d653 843e 543b 73bb
00000280: 6105 b9be f15e b5bb 27d7 66be ffed 563e
00000290: c6ea 30be 30cd 83bd 2e65 1dbe e134 8f3c
000002a0: b484 34bc f567 1fbd 8f65 4a3c 403b b6be
000002b0: 6542 82be 9727 ab3d 52fa 743e 7a9f 143d
000002c0: 8bee 4abd df35 703d 1512 dbbd 277b bd3d
000002d0: e9e0 0ebe 67e3 163d 3bd4 05bb 03be a1bd
000002e0: a7c0 10bd 977c 0f3e 5765 8ebd e9cc fabd
000002f0: 06eb 1c3d 2f64 8ebd a90c bb3e 8904 18bf
00000300: 32a2 ebbe 5f76 bdbe 5b3c 9bbf 7963 9c3d
00000310: b5db 163d f11d dc3d 80bf 403d 2f49 47bc
00000320: 11a7 833d 61e5 b7bd d77d da3d dfac 043e
00000330: 78fe e13d 01bb b03d 47ec 53bd 0fda bbbc
00000340: 718b 9b3d 3235 8cbd e0fc 9e3c 1b03 3c3d
00000350: 9bb1 81bc 0b0e 733e 8741 7c3e c5e4 af3d
00000360: 87e4 433e ca4c 9a3c 4cd2 b0bd 213b 2c3e
00000370: 42b9 c3bd 8ff3 063d 7daa d3bd 015b 043d
00000380: 88e8 9b3c a4fa 75bd f144 d23d 978e efbb
00000390: 31dc 3c3e 6952 663e ecb7 f83d b3f8 4e3b
000003a0: 5a0c 223e 626a adba b7e7 f43b ce39 0a3c
000003b0: 28d7 b0be 5149 cb3c cf81 063d f632 6cbd
000003c0: d6d2 8bbc 7000 a43d 5576 c93e f14f 12bf
000003d0: 77d1 83be c9b4 09be f96d a6bf 17fe fabd
000003e0: 5bd0 aebd 5618 063e c7cb 7f3e 7812 e03d
000003f0: a5c0 503d 857b 373e f484 6cbd 1dc5 75bc
0.11942422 -0.13527341 -0.024373254 -0.06117965 -0.1681435 0.021409143 -0.14316653 0.11826688
-0.13917607 -0.5921457 -0.19152224 0.05857155 0.10104431 0.006021695 -0.08993217 0.03895503
-0.03793148 -0.14156055 0.003683357 0.09580843 -0.11080173 -0.15358745 0.034702323 -0.25068676
-0.12647647 -0.087428465 0.0751342 0.042023554 -0.022344003 0.10508421 -0.23272693 0.14180617
0.22259629 -0.049642798 -0.2488644 -0.098687336 0.04174279 -0.106410824 0.14452755 -0.010478079
0.20664 0.08093431 0.39731532 -0.5093419 -0.40129805 -0.26217458 -1.3096558 0.017755875
0.0020499893 -0.027569564 -0.038784545 -0.0129700415 0.17137307 -0.058437616 0.18592425 0.09163719
0.1297054 -0.15815875 0.11626073 0.033740968 0.043614127 0.056778442 0.076325014 0.15399367
0.009658953 -0.072984815 0.0856203 0.032236937 -0.08749354 -0.116216175 0.21204549 0.01713885
0.00892447 -0.0002919253 0.20037691 -0.024728928 0.132189 0.08751873 -0.12150525 0.34818548
-0.43757302 -0.23712963 -0.2988768 -1.1032593 0.07445555 0.0366533 -0.09356615 0.13158223
0.063843474 0.19112611 0.10358075 -0.13163438 0.079240695 0.09655274 -0.022397548 -0.09770246
0.11768797 0.0067683216 0.09232037 0.12997867 0.1473489 -0.039193835 0.17163825 0.16078646
-0.07397747 -0.06367843 0.21388194 0.04300962 0.24421485 0.0542965 0.014339611 0.1260002
0.18783605 -0.11908631 -0.0021830404 0.23601113 0.19583754 0.019842368 -0.44994736 -0.21253335
-1.1247519 0.06729515 0.0771709 0.035859965 -0.043249518 -0.12477356 -0.197157 0.014332717
0.14655131 0.10903838 0.04482484 0.00886189 0.2507157 -0.0117009925 0.10705968 0.10857942
0.034443583 0.05523007 0.010605103 -0.1392492 0.09953206 -0.01657734 0.0074553173 -0.008314397
0.0047360025 -0.098007865 0.022375321 0.016122706 0.17106402 0.08224916 -0.20365258 0.27895075
0.13400143 0.043903343 -0.20450647 -0.2896219 -0.09263345 0.037016287 0.25845212 -0.003711422
-0.36136916 -0.0055349995 -0.22543012 0.20989226 -0.17277059 -0.06435621 -0.15370628 0.01748127
-0.011017967 -0.0389175 0.012353315 -0.3559208 -0.2544128 0.083571605 0.23923615 0.0362849
-0.0495439 0.058645125 -0.10696808 0.09252005 -0.13952984 0.03683796 -0.0020420689 -0.0789757
-0.035339978 0.14012371 -0.06952923 -0.12246115 0.038310073 -0.06952702 0.36533096 -0.5938192
-0.46022183 -0.37004372 -1.2127794 0.076361604 0.036830623 0.10747898 0.04705763 -0.012163444
0.0642835 -0.089792974 0.10668533 0.1295657 0.11034864 0.08629418 -0.051739004 -0.022931127
0.07594956 -0.06846084 0.01940769 0.0459014 -0.01583176 0.23735826 0.24634372 0.08588556
0.19130145 0.018835444 -0.08633861 0.16819431 -0.095568195 0.03294712 -0.103352524 0.03231335
0.019031778 -0.060053483 0.10267056 -0.007310699 0.18443371 0.22492374 0.12144455 0.0031581342
0.15825024 -0.0013230557 0.0074739116 0.008436633 -0.3453915 0.024815233 0.03283864 -0.057665788
-0.017068308 0.08007896 0.39348093 -0.5715323 -0.25745746 -0.1344787 -1.3002311 -0.12255495
-0.085358344 0.13095221 0.24980079 0.10941023 0.05096497 0.17918213 -0.05774398 -0.015000609

fc1.bias f4 [81]
00000000: b10d 883d 627c b93d f5b7 35bd 81ef 853d
00000010: b36b babc cc1b 173e a9b0 073e 2041 743c
00000020: 7669 d63a 5f09 ebbd 90dd 0b3c 2bed 08be
00000030: 5e5a f73d b42e 24be d821 0bbe 6dec 01be
00000040: 1749 8cbd aeb9 7c3c 66d8 eabc acd1 5bbc
00000050: 280f b9bd a3f1 10be c199 babd 97be 7cbd
00000060: ad9c c2bd b8cf 9c3b e95b a83d 084a ddbc
00000070: ad6b 17bd a931 66bc 9fa2 f2bc 466b 3cbd
00000080: af90 1ebd 03c1 eabd e52d 363e e58f 0d3e
00000090: dab0 0dbe 21c0 3d3d 6b5b e9bd bea2 85bd
000000a0: 0122 6cbe bba9 8e3d 2285 c5bd 4dd6 25bd
000000b0: 30a9 343e 4bfc 593d cd4a 2f3e e78e 6e3d
000000c0: 44e9 8e3d c853 bfbd 3507 693c 5eac 043e
000000d0: 6ccc 183c 46c5 e8bc 7ad2 563d 7a8b 55bd
000000e0: 7e59 0abe 9fe2 30bc 4fb6 e63d 3b74 053e
000000f0: c1d0 3b3e 37e2 213e 9baf 4dbe e025 8a3c
00000100: dc4c fc3d b798 d0bd bb58 343d 81dd e9bd
00000110: cfdb 21bd 55ee c93d 26ed be3d ce1f cfbc
00000120: 5146 00bd 4a4f af3b 2942 9dbd 1033 913d
00000130: 34c2 2abe 504c abbd c33e f93b b131 123d
00000140: 96f5 bd3d
0.066432364 0.09056927 -0.04436489 0.06539822 -0.022756433 0.14756697 0.13250984 0.014908105
0.0016358334 -0.11476397 0.008536711 -0.13371722 0.12077783 -0.16033441 -0.13587129 -0.12687846
-0.06849878 0.015425129 -0.02866764 -0.013416689 -0.09036094 -0.14154677 -0.091113575 -0.0617052
-0.0950254 0.004785504 0.082206555 -0.02701284 -0.036967922 -0.014049926 -0.02961856 -0.04600074
-0.0387122 -0.11462595 0.17790945 0.13824423 -0.13836995 0.046325807 -0.1139439 -0.06525181
-0.23059846 0.06965967 -0.09644534 -0.040487576 0.17642665 0.05321912 0.17118378 0.05824175
0.06978086 -0.09342152 0.01422291 0.12956378 0.009326082 -0.02841438 0.05244682 -0.05213497
-0.13510701 -0.010796218 0.11265241 0.1303262 0.18341352 0.1580895 -0.2008652 0.016863763
0.12319347 -0.10185378 0.044029932 -0.11419202 -0.039516266 0.09859911 0.09322576 -0.02528372
-0.03131706 0.005350028 -0.07678635 0.070898175 -0.16675645 -0.08364165 0.0076063587 0.03569192
0.092753574

fc2.weight f4 [69, 81]
00000000: 524d 373e cad9 02be 123c 9d3c 6811 d33d
00000010: cfae 78bd 0883 7ebd 94a2 4d3e e36e 11be
00000020: 41e7 85bc 25ae c53e 43c8 3c3e b9d5 1cbe
00000030: b24a 273d cf50 56bb a3b5 2ebd 6cc9 96bc
00000040: d596 ac3e ab2c 843d b745 d73d cdeb 03be
00000050: 2390 4cbe aa34 963d 0093 efbc 9fb4 80bc
00000060: ed84 5fbd cc67 4d3d 3cd9 86bd 346f a53e
00000070: 71a0 023d dbe7 69bd fb7e 89bb 0cf3 dfbd
00000080: a449 7abd d9ab c83d 0d1c d23d 11ab ee3d
00000090: 90f8 f9bd 18dd d1bc 8c94 9e3d 20e3 28be
000000a0: 5f13 343d 7177 dabd 4cec 54be ec45 553c
000000b0: 2e29 d5bd 9e7d 4ebd b080 513e f92c a0bd
000000c0: 6009 1dbe 4def 6abe 7728 efbc 832a ee3c
000000d0: 2f80 07bd a60c 91bd 60dc dfbd bda1 29bd
000000e0: 43cf 87bd 8721 6d3c e963 0a3e 82c5 b7bb
000000f0: 3541 853e 707d f43d ab17 4e3d 6f9d 3d3d
00000100: 75bd 6a3d f55e 29be 961e a8bd e818 03bd
00000110: d1c0 1dbd ca06 c3bd 56ea 8e3c 94c1 9abd
00000120: abf7 743e dd2c d53d 5787 423c cb1b 863d
00000130: e27c 2ebd 019b 0a3e 63d3 cfbd 4e99 aa3e
00000140: 54d1 29bd 5bef 6ebd 75d4 18be 6b5d 0f3e
00000150: fb6a d03d 35a4 863d c5b4 4fbd a515 69bd
00000160: de5c fc3d 331f 02be 69c0 713e 9d3e b5bd
00000170: 3106 1a3d de0e 7a3a 2fdd 93bd 08d3 643d
00000180: a5ae 66bd 5257 8cbd 4d7a 0fbe e0c6 d93d
00000190: d255 343e c1f4 9e3e 621b 89be bc3e 90bd
000001a0: 0522 dbbd f111 b83d 18e7 903d 9aa7 a63c
000001b0: 10d0 ce3d 55fb 883c 90e6 67be 25e7 483d
000001c0: e55f 7ebe 6538 6a3a e23f 933e b8a8 dbbd
000001d0: ac74 d2bc 1cc3 103e bb11 d1bd 271b c33d
000001e0: bd13 c73e 24fe 2e3e c498 853c abd2 4cbd
000001f0: aaea 243d a339 ed3c d48f 453c cbd4 7d3d
00000200: bb8c bd3d 8dd3 073e c3bb 28be 5e40 df3d
00000210: c2c1 cdbd 478b 333e 26a1 0cbd 14c1 e9bd
00000220: 3a5e 66be 0125 e9bd b50e 773d 643a a83d
00000230: e70b c93d 2caf edba e158 48be 1043 183e
00000240: 80ff babd a2c3 70be 517c 5b3d d330 9abd
00000250: 0d39 1fbe 6a1c d13c 3075 6abd 7774 cb3d
00000260: a0be 33bd c8a8 8a3e 4ac9 023e 53d6 093c
00000270: d8e7 1bbd 4476 0abe ce6f 35be 2ab6 3dbe
00000280: 476e aabe c853 8abe 8eff 823d 48e7 5b3d
00000290: bbd5 d9bd b9b1 2a3d a62b 8dbe 8f98 eb3c
000002a0: 758a 483d 1a4a b7bd 6620 22be f173 3b3d
000002b0: b527 263e bbb8 843c f367 0abe c7ac fbbe
000002c0: 833d 33be 0983 2b3d 8723 0e3e 5986 dcbd
000002d0: 8f7d a4bd 1787 633e 2996 0c3e 885e e53d
000002e0: a258 04bd 5f15 0d3e 353b debd c534 c9be
000002f0: ebfe 96be 9a23 7fbe f0cf 2a3e a2c6 c4bd
00000300: 8673 adbe e6cc 5bbd f2e5 013d bcc8 2bbe
00000310: 262b 83bc 0571 b43d 00df e83d 388c f3bd
00000320: acb5 00be 3816 c63e 1b2a 66bd 11f9 5f3e
00000330: 1226 3a3e 7cbf 673c e6aa edbc 24f7 37be
00000340: 0d7a d93b 910c 16be 56f3 013e d7c8 1e3e
00000350: 7829 00bf c978 ae3d d589 c73a b530 a03d
00000360: 8581 fbbd 199c ad3b 197c 15be f232 a2bd
00000370: 20ef 47be b46e 673d bf65 123e b0db 2b3d
00000380: 78a0 51bd c4d1 2e3e 1db0 26bd 5723 9dbc
00000390: 72a0 e7bc 6564 183e ebc6 963e 575e 92bc
000003a0: b872 b53d fc30 cd3b c065 4b3e dcd2 00bd
000003b0: 2e6a d5be cf00 f9bb e788 75be 36b8 343e
000003c0: 5901 7dbd 425a 2a3c 899b c4bd dc7e 15be
000003d0: ecab 1dbe ce5d 4bbe 4977 3bbe a099 4abe
000003e0: 4acd 9ebd f97d 493e 9e1a eebd f961 23bd
000003f0: d300 91be 6f54 92bc ef38 bcbc 1ce1 edbd
0.17900589 -0.12778392 0.019193683 0.10306054 -0.060713585 -0.06213668 0.2008155 -0.14202456
-0.016345622 0.38609424 0.18435769 -0.15315904 0.04084272 -0.0032701974 -0.04265369 -0.018406592
0.33708826 0.06453832 0.10511344 -0.1288292 -0.19976859 0.073342636 -0.0292449 -0.015711127
-0.054570127 0.050147817 -0.06584403 0.32311404 0.03189129 -0.05710588 -0.0041960455 -0.109350294
-0.061105385 0.09798402 0.102592565 0.11653722 -0.12205613 -0.025618121 0.07743177 -0.16492891
0.043963786 -0.10667313 -0.20793265 0.013017159 -0.10408245 -0.050412767 0.20459247 -0.07821078
-0.15335608 -0.22942849 -0.0291941 0.029073006 -0.03308123 -0.070824906 -0.10930705 -0.04141401
-0.06631329 0.014473326 0.13514675 -0.0056082616 0.26026312 0.11937988 0.05031554 0.04629272
0.057309587 -0.1654013 -0.08208959 -0.032006174 -0.038513962 -0.09522779 0.017445724 -0.07556453
0.23922603 0.104089476 0.011873088 0.0654827 -0.042599566 0.13535692 -0.10147741 0.33320087
-0.041459396 -0.058333736 -0.14924796 0.1400048 0.10176655 0.06574289 -0.050709505 -0.056905407
0.123224005 -0.12707214 0.23608555 -0.08849833 0.03760356 0.00095389585 -0.07219922 0.055865318
-0.056318898 -0.068525925 -0.14011498 0.106336355 0.17610863 0.31046107 -0.26778704 -0.07043216
-0.10699848 0.08987797 0.07075328 0.02034359 0.100982785 0.016721407 -0.22646546 0.04904856
-0.24841268 0.0008934795 0.28759676 -0.1072554 -0.0256904 0.14136928 -0.1020846 0.09526663
0.38882247 0.17089134 0.016308196 -0.050005596 0.040262856 0.028958147 0.012058217 0.061970513
0.09255358 0.13264294 -0.16477875 0.10900949 -0.10046722 0.17533599 -0.03433337 -0.1141378
-0.22496882 -0.11384011 0.06031676 0.08214262 0.09816723 -0.001813387 -0.19565155 0.14869332
-0.09130764 -0.23512128 0.053585354 -0.07528844 -0.15549107 0.025526244 -0.057240665 0.09934323
-0.043882966 0.27081895 0.12772098 0.008412915 -0.0380629 -0.13521677 -0.17718431 -0.18526521
-0.3328726 -0.27017045 0.063963994 0.053687364 -0.10636469 0.041673396 -0.27572364 0.028759269
0.048960168 -0.089496806 -0.15832672 0.045764867 0.16226085 0.016201368 -0.13516216 -0.49155256
-0.17503934 0.04187301 0.1388074 -0.10767812 -0.08031761 0.22219501 0.13729157 0.11199671
-0.03231109 0.13777684 -0.108511366 -0.39298072 -0.29491362 -0.24915925 0.16680884 -0.09608199
-0.338772 -0.053662203 0.031713434 -0.16775793 -0.016011786 0.08810619 0.11370659 -0.11891979
-0.12569302 0.38688827 -0.0561925 0.21872355 0.18178585 0.0141447745 -0.029012155 -0.1796537
0.006636864 -0.14653231 0.12690482 0.15506302 -0.50063276 0.08519132 0.0015223572 0.0782179
-0.12280563 0.0052981493 -0.14598121 -0.07919873 -0.19524813 0.05650206 0.14296626 0.041957557
-0.051178426 0.17072207 -0.0406953 -0.01918189 -0.028274748 0.14882047 0.29448637 -0.01786725
0.088597715 0.006261943 0.19863033 -0.03145109 -0.4168257 -0.0075989733 -0.23978005 0.17648396
-0.061768863 0.010397496 -0.095999785 -0.14599174 -0.15397614 -0.19860002 -0.18307222 -0.19785166
-0.077539995 0.19676961 -0.116261706 -0.039888356 -0.2832094 -0.017862527 -0.022976367 -0.11615202

fc2.bias f4 [69]
00000000: f003 cb3d f399 d3bd 609c c0bd 23da c93d
00000010: 7731 bb3d 7d55 233c 216b e6bd a569 88bc
00000020: 1b45 4b3d 2ff3 103e 96bf 783b 7bc4 93bd
00000030: 739e 9bbd b646 aa3c 424e 20bb c9e1 2e3c
00000040: 32fc 94bd 9313 4ebd 116a 43bd 24ca de3b
00000050: b83d fe3c 8682 3f3d 0445 ebbc ca71 8cbc
00000060: e4ab adbd f19d 953e be1a 9ebd 2319 2d3d
00000070: 6d0f 41bc 9bdc dbbd 3f56 81bc 0f29 b53d
00000080: d227 9dbc e3da 873b 98d8 dfbd 5633 e1bd
00000090: dd3a e3bc 7d62 0c3d fe37 c03b 71c6 603e
000000a0: 5d00 ca3d 4835 d93d 33ff b5bd dc10 2a3d
000000b0: 36e3 ccbd 7c01 3dbe 21b7 573d 2a44 f83c
000000c0: 8375 8b3e a35a b83c 1500 b7bd 294e 83bd
000000d0: 06b8 4e3c cb9a 1d3e 2cc8 753d fd9e 9abd
000000e0: a805 9b3d 3ac0 23be 9607 893c a16b 6cbd
000000f0: f982 b9bd 800a 5dba 4441 ec3d 426b 413b
00000100: 2b3e b73a e42c 263e 0609 583d fe15 8b3e
00000110: 1158 833d
0.099128604 -0.10332098 -0.09404826 0.098560594 0.09140294 0.009969112 -0.11250902 -0.016651938
0.04962645 0.14155267 0.003795599 -0.0721521 -0.07598581 0.02078567 -0.0024460708 0.010673949
-0.07274665 -0.050311636 -0.047708575 0.0067989994 0.03103529 0.046755336 -0.028719433 -0.017144103
-0.08480051 0.29222062 -0.077199444 0.0422603 -0.011783463 -0.107354365 -0.015788196 0.08845722
-0.019184027 0.0041459664 -0.10929984 -0.1099612 -0.02773803 0.034273613 0.00586605 0.219507
0.098633505 0.10605866 -0.08886566 0.041519985 -0.100042745 -0.18457597 0.05266488 0.03030594
0.27238092 0.022504156 -0.089355625 -0.06411392 0.012617117 0.1539108 0.060005352 -0.07549856
0.07569438 -0.15991297 0.01672725 -0.05771983 -0.09058184 -0.00084320456 0.11535886 0.0029513394
0.001398032 0.16228062 0.05274298 0.27165216 0.06413282

fc3.weight f4 [4, 69]
00000000: dc8f 833d eea9 063d 428c 70be f040 803e
00000010: 0606 5ebe c55d 733e 4e76 ba3a 9f74 d73d
00000020: 535c 093e f50f 593e 87bd 343e 40a4 1c3e
00000030: de9c babd 0ddc 02be 5713 80be 2d8d f93d
00000040: c8c3 343c d0a1 ea3d fea1 c63e 7119 5a3b
00000050: 92b1 28be b30f 6d3d 9a3a b53c 3b59 ddbd
00000060: 5d66 823e 259a ef3d 5ef2 89bd a32b 243d
00000070: 5d08 5a3e 0378 cabc 0caa 983c fb1b ac3e
00000080: 3f4b 85be 049e 9d3d 9261 fb3d d96d 083e
00000090: e407 f0be 22d9 233e ea33 4d3d 7a07 813d
000000a0: a57c 363e 8fe9 063e bec7 b33e 04f5 1bbe
000000b0: f092 b2bd eafb 23be 58b5 833d 4e4e c8bd
000000c0: 42b9 103e 4499 e0bd d1db a0bd a0a7 fd3c
000000d0: 995e 283e f2d9 d83d af82 b33e 72ba b138
000000e0: e89b 853e 21b7 82bd a02a e8bd 8c52 dc3d
000000f0: 6020 9e3d 68f1 30bc d198 bd3e 14d9 b93d
00000100: 786d 71be a8d7 2f3e 1d74 ba3c cd4f ed3d
00000110: dafb 63be db0f 183e 5805 113e a46b e1bd
00000120: 0b50 15bf 3dcf c73b 47df 8c3e fc3b 3a3d
00000130: a11c 133e cb50 e1bc e381 9b3e 912c 9a3d
00000140: 269d 3f3e 04dd 4fbe c194 9abd f367 e1bd
00000150: e318 4c3e 08ab 14be b332 44be 98c1 6a3e
00000160: 0515 1a3e 4350 433d 7896 733e 0b6e 4a3e
00000170: faab 9c3a 1ea9 03bc 719e 2b3e 9736 d4bc
00000180: de57 123e f390 52be 2c05 2b3d 99ec 43bd
00000190: 8609 173e 4345 993c 1a3b 463e 7b8e c9bd
000001a0: 83f5 96bd 7218 6dbe e005 ab3d 4c68 503e
000001b0: 4c5d 363d 2a67 e33d 775e e7bc c49b a53d
000001c0: ab43 c63c ef72 67be 5890 fdbd b258 f53d
000001d0: 774c 50be dc86 d73d 04f3 ad3c d45e e6bd
000001e0: f409 163e 0748 493e 1bd6 1b3e 0ab8 3a3e
000001f0: 638c 4f3e 9596 d83d b9b2 76be 681e 2bbe
00000200: c646 193e e719 14bd 084f 883c 7e4f 643d
00000210: 353a 8dbd 0d05 17bf 2d13 f93d 298e 1d3e
00000220: d55c 303d c6a5 013e 4892 d03d f330 4e3e
00000230: da96 0dbe eecd f7bd 7404 b5bd b2b5 643d
00000240: ea37 8bbe 9ec6 aa3d 78f1 e83d 95a5 0f3e
00000250: 7933 e7bd f7c4 003d 887d 5d3d 8955 553e
00000260: 912e 883e 62ff 87be c0c5 93be c1d0 dfbe
00000270: 7637 0a3f 8951 013e cc88 4cbc f0f0 06bd
00000280: 15d6 a3be f87d 673d 7c60 b03e 17aa c53d
00000290: 1562 bbbd 35fd 683e 226b 5abe b120 3fbe
000002a0: bd66 c8bd 5aea 273e 5cd2 ec3c e78a 0a3e
000002b0: 2bfd dc3d fa86 95be b523 4dbe 203c 14bd
000002c0: 04a6 75bd a6aa b23d 3c30 2b3e 9be1 393e
000002d0: 0b92 5e3d 78d8 503e 7d3d 2cbd ce4a f2bd
000002e0: cac8 c5bc 8d07 a7bc b830 c73d c0e3 983d
000002f0: 9cf1 67be 5cae 163e e47e 7a3e 6aec e13d
00000300: 4ea3 11be 354a 5d3e f40a 813d b827 61bd
00000310: fa5e 0f3b 51ed e33d 769b 45be 102c 623c
00000320: d12a bd3e ce07 6b3e 0621 283e 0578 8a3b
00000330: d8d5 443e e035 183e f388 c73d 65d1 533e
00000340: cfdd cdbd 566c eebd 8477 dc3d 187e 703e
00000350: 1400 7e3e ec68 0cbd 4940 da3d c8c4 a53d
00000360: 89a7 8d3e 481c a2bd f4fc d2be cacd 2a3e
00000370: 1dd9 8f3b f8c1 95bd dcf6 3c3e e48d 0a3e
00000380: a2f2 90be 79da 423c 902d 453e 6470 913d
00000390: 0da5 1e3e 1766 883d a322 12be 8a24 79bd
000003a0: 293c fa3d d5ba 95bd 7673 693e d6fb 54be
000003b0: 8e74 833e 3f19 c4bd fbc0 543d 614d 33be
000003c0: cc7d b63e 9094 42bd ca2d fe3d 3603 39be
000003d0: 603a cd3c a047 e2bc 78dc c338 bac1 d83c
000003e0: 1ba9 4e3e 0131 503e ac07 8ebc be41 3b3e
000003f0: 4357 d0bd a4c9 733d f762 5fbe 9714 343e
0.064239234 0.0328769 -0.23491004 0.25049543 -0.21681985 0.23766239 0.0014225931 0.105202906
0.13414125 0.21197493 0.17650424 0.15297031 -0.09111951 -0.12779255 -0.25014755 0.1218513
0.011033006 0.114566445 0.38795465 0.0033279324 -0.16473988 0.0578763 0.02212267 -0.10808035
0.25468722 0.116993226 -0.06735681 0.040080678 0.21292253 -0.02471543 0.018635772 0.33615097
-0.2603397 0.07696155 0.122744694 0.13323154 -0.4688102 0.16000798 0.050098337 0.06300254
0.17820986 0.13175033 0.3511333 -0.15230185 -0.08719432 -0.16014066 0.06431073 -0.097805604
0.1413317 -0.10966733 -0.07854427 0.030963719 0.16442336 0.10588445 0.3506064 8.474746e-05
0.2609551 -0.06382585 -0.11336255 0.10757932 0.07721019 -0.010799743 0.37030652 0.090746075
-0.23576915 0.1717211 0.022760445 0.115874864 -0.22264042 0.14849798 0.14162195 -0.11006859
-0.5832526 0.006097703 0.27514097 0.04546736 0.1436639 -0.027504345 0.30372533 0.075280316
0.18712291 -0.20299155 -0.07547904 -0.11006155 0.19931369 -0.14518368 -0.19159965 0.22925413
0.15047081 0.047683965 0.23787868 0.1976854 0.0011953108 -0.008035926 0.1675966 -0.025904937
0.14291331 -0.20563106 0.04175298 -0.04783306 0.14749727 0.018709784 0.19358483 -0.09841629
-0.073710464 -0.23153856 0.0835073 0.20352286 0.04452257 0.11103661 -0.028243287 0.080863506
0.024202188 -0.22602437 -0.12381047 0.11979808 -0.20341669 0.10523769 0.021234043 -0.11248556
0.14652234 0.19656383 0.15218394 0.18234268 0.20268397 0.10575596 -0.24091615 -0.16710818
0.14968404 -0.036157515 0.016639248 0.055739872 -0.06895868 -0.5899208 0.121618606 0.15386261
0.04305728 0.12660894 0.10184151 0.2013586 -0.13827077 -0.12099825 -0.0883874 0.05583734
-0.27191097 0.083386645 0.113741815 0.14028008 -0.112891145 0.03143784 0.054074794 0.2083341
0.26598027 -0.2656203 -0.2886181 -0.43713954 0.53990877 0.1262876 -0.012483787 -0.03294462
-0.3199927 0.056516618 0.34448612 0.09651583 -0.09149567 0.22752841 -0.2132993 -0.18664815
-0.09785221 0.16397992 0.0289089 0.1352955 0.107904755 -0.2920454 -0.20033152 -0.036190152
-0.059972778 0.08723955 0.16717619 0.18152468 0.054338496 0.20395076 -0.042050827 -0.11830674
-0.024143595 -0.020389343 0.09726089 0.07465315 -0.2265076 0.1471495 0.24462467 0.110314205
-0.14222452 0.21610339 0.06300917 -0.05496952 0.0021876679 0.11129249 -0.19297585 0.013804451
0.3694673 0.22952196 0.16418847 0.004225733 0.192222 0.14864302 0.09742918 0.20685346
-0.10052072 -0.11641757 0.10764983 0.23485601 0.24804717 -0.03427975 0.10656793 0.08094174
0.27666882 -0.079155505 -0.41208613 0.16680065 0.0043898956 -0.07312387 0.18453544 0.1353069
-0.28310114 0.011892908 0.19255662 0.07101515 0.1549265 0.06660097 -0.14271025 -0.060825862
0.12218506 -0.07311026 0.22797951 -0.20799193 0.25674862 -0.09575128 0.051941853 -0.17509986
0.3564285 -0.04750496 0.12411077 -0.18067631 0.02505225 -0.027622044 9.33939e-05 0.026459564
0.20181696 0.20331194 -0.017337643 0.18286797 -0.10172894 0.05951847 -0.21815096 0.1758598

fc3.bias f4 [4]
00000000: 70f1 8a3e 501c 6b3e 67b1 733e d272 543e
0.27137327 0.22960019 0.23798142 0.20746925
