checkpoint3.pth (torch_old, 26050 bytes, 6 tensors)

fc1.weight f4 [69, 37]
0	0x3ccd51a4	0.025063343
1	0xbc00e154	-0.007866222
2	0x3b8029dd	0.0039112405
3	0x3dcf43ef	0.10120379
4	0xbe35efef	-0.17767309
5	0x3e93fa1d	0.2890176
6	0xbefc1197	-0.4923217
7	0xbebaf602	-0.36515814
8	0xbee401dc	-0.4453267
9	0xbfb2a735	-1.3957278
10	0x3d1e208a	0.03860525
11	0x3d70002c	0.058593914
12	0x3d535416	0.051593862
13	0xbc9f8b7f	-0.019475697
14	0x3b3e7187	0.0029059367
15	0xbd812fbd	-0.063079335
16	0x3dadbf57	0.08483761
17	0xbd086749	-0.033301625
18	0x3e7143ea	0.23561063
19	0x3bc65265	0.0060523027
20	0xbccc23ea	-0.024919469
21	0xbde182c1	-0.110112675
22	0xbbfe35e9	-0.0077578914
23	0xbe09a244	-0.13440806
24	0xbcd327c8	-0.025775805
25	0xbc7fb430	-0.015606925
26	0x3db001c6	0.08594088
27	0x3e079602	0.13240817
28	0x3df59b18	0.119924724
29	0x3e8461db	0.25855908
30	0x3cb70f05	0.022346029
31	0x3e3dfaea	0.18552747
32	0x3d7db709	0.061942134
33	0xbc3594af	-0.011082812
34	0xbdba3a4b	-0.0909315
35	0xbd4fde40	-0.050749063
36	0x3d65a72c	0.05606763
37	0x3c3f944d	0.0116930725
38	0x3e0b481e	0.1360173
39	0x3c93a9bc	0.018025272
40	0x3defd2ee	0.117101535
41	0xba90eac4	-0.0011056294
42	0x3ec0d605	0.37663284
43	0xbef6f892	-0.4823652
44	0xbee00663	-0.43754873
45	0xbed1ab80	-0.40951157
46	0xbfd25460	-1.6431999
47	0x3cb8fbed	0.022581065
48	0xbb21f5df	-0.00247132
49	0x3d8e30ec	0.06942925
50	0xbb72694b	-0.003698903
51	0x3cd21192	0.025643144
52	0x3e317b05	0.17332084
53	0x3d1d5177	0.03840777
54	0x3e44778b	0.19186227
55	0x3dda479a	0.10658188
56	0x3c989e4c	0.01863017
57	0x3c75c777	0.015001169
58	0x3d832475	0.06403438
59	0x3d149d49	0.03628281
60	0xbd01e98c	-0.03171687
61	0x3e00b0fb	0.12567513
62	0x3e25b38f	0.16181777
63	0x3de5b702	0.112165466
64	0x3d883fa1	0.06652761
65	0x3d7ec2b0	0.062197387
66	0x3cb4350c	0.021997951
67	0x3d4eb5da	0.050466396
68	0x3c316175	0.010826458
69	0xbd950627	-0.07276564
70	0x3d17d13c	0.037064776
71	0xbd147671	-0.036245767
72	0x3ba0f833	0.0049124
73	0x3b0a659c	0.0021117693
74	0x3e1197f4	0.14218122
75	0xbce5c0d0	-0.028046042
76	0x3ce4fb1c	0.02795177
77	0x3d7af0eb	0.061264914
78	0xbe1fbe54	-0.15599948
79	0x3e2f16d0	0.17098546
80	0x3d4ae6e4	0.0495366
81	0xbed70d5c	-0.4200238
82	0xbe8973f9	-0.26846293
83	0xbf071989	-0.5277334
84	0x3c31fea4	0.010863934
85	0x3ce71452	0.028207932
86	0xbe36244b	-0.17787282
87	0x3ddce4e3	0.10785844
88	0x39df8a33	0.0004263684
89	0x3ce07b34	0.027402498
90	0x3ddd6eb9	0.10812134
91	0xbde99538	-0.11405414
92	0x3d651aca	0.05593375
93	0x3d8a3273	0.06747904
94	0xbddc9967	-0.10771447
95	0x3c17e616	0.009271165
96	0xbcc6e16d	-0.024277413
97	0xbcb0a9ff	-0.021565435
98	0xbd57d5ba	-0.05269406
99	0xbd209eac	-0.03921382
100	0x3d9ba9b4	0.07600728
101	0xbda5d2ff	-0.08096885
102	0x3e59fac0	0.2128706
103	0x3e33a817	0.1754459
104	0xbe557235	-0.20844348
105	0x3c2abc54	0.0104208775
106	0x3df62d0a	0.12020309
107	0x3d82a675	0.063794054
108	0x3ea8480f	0.32867476
109	0x3e2a3b5e	0.1662421
110	0x3ad5c498	0.00163092
111	0x3ded5022	0.1158755
112	0x3e2f7edf	0.17138241
113	0x3b51425b	0.003193042
114	0x3d908aff	0.070577614
115	0x3e10ba50	0.14133573
116	0x3e9b1335	0.3028809
117	0xbeb82d67	-0.3597214
118	0xbe7cc6e5	-0.24685247
119	0xbec31227	-0.38099787
120	0xbfc1b9d6	-1.5134838
121	0x3d89e839	0.06733746
122	0x3e24e2e9	0.16102184
123	0xbd92d712	-0.07169928
124	0x3e4f892b	0.20267169
125	0xbc585d7b	-0.013205881
126	0xbddd2f2a	-0.108000115
127	0x3ba875c9	0.005140994
128	0x3e164b8f	0.14677261
129	0x3dfd46d3	0.12367024
130	0xbcadcc34	-0.021215536
131	0x3da17da7	0.078852944
132	0x3e1ed98e	0.15512678
133	0x3e252047	0.16125594
134	0x3e4343aa	0.1906878
135	0x3defc250	0.11706984
136	0x3e05fba2	0.13084272
137	0x3d01c0d3	0.031678032
138	0x3ce4a3d7	0.027910156
139	0xbcbfcdab	-0.0234135
140	0xbdbdebe8	-0.09273511
141	0x3c10d46c	0.008839708
142	0xb97a573b	-0.00023874354
143	0x3e0982f3	0.1342886
144	0x3dbb3347	0.0914064
145	0x3ca190bb	0.019722333
146	0x3b4963d7	0.0030729675
147	0x3c644917	0.013933442
148	0xbe2c1bf5	-0.1680754
149	0x3dd55285	0.1041613
150	0xbc1259fb	-0.008932586
151	0x3e1ec0d1	0.15503241
152	0xbcbcdf52	-0.023055706
153	0xbe93cbda	-0.28866464
154	0xbe57ddda	-0.21080723
155	0xbdda61ed	-0.10663209
156	0x3e18add9	0.14910068
157	0xbe39b072	-0.18133715
158	0xbd6e53ee	-0.05818551
159	0xbd60f983	-0.054925453
160	0xbd68c7dd	-0.05683123
161	0x3dbdec6b	0.09273609
162	0x3d78356a	0.060597815
163	0xbc0ab76e	-0.008466585
164	0xbc5e7009	-0.013576516
165	0xbd3c1e75	-0.045927484
166	0xbe4cdf0f	-0.20006965
167	0x3dd3b368	0.103369534
168	0xbd921271	-0.07132424
169	0xbe28baa5	-0.16477449
170	0xbe3d5908	-0.18490994
171	0x3d81d20c	0.063388914
172	0xbcb05129	-0.021523075
173	0xbd24a31d	-0.04019462
174	0x3e09bdc4	0.13451296
175	0x3d9d8963	0.0769222
176	0x3e16a9df	0.14713238
177	0x3d2c66a7	0.042090084
178	0xbe97afc0	-0.29626274
179	0x3dc74a17	0.097309284
180	0xbe6af095	-0.22943337
181	0x3e8f013e	0.27930635
182	0xbea6b5a3	-0.32560453
183	0xbdca9474	-0.098915964
184	0xbda2c2dc	-0.07947323
185	0x3d4d54ec	0.050129816
186	0xbe6ffbca	-0.23435894
187	0x3d2c53c9	0.04207209
188	0x3d14f437	0.036365714
189	0xbdad3b33	-0.08458557
190	0x3dae217e	0.08502482
191	0xbda1055a	-0.07862349
192	0xbd3eecf0	-0.04661268
193	0x3db080b6	0.086183
194	0xbd4f1939	-0.050561164
195	0x3e02a2ae	0.1275737
196	0xbdd7f07a	-0.10543914
197	0x3d50e810	0.051002562
198	0x3ddf9b7e	0.1091833
199	0xbe927d96	-0.2861144
200	0xbd8949d8	-0.06703538
201	0xbe21cf16	-0.15801653
202	0x3e645ac0	0.22300243
203	0x3e2a25fa	0.1661605
204	0x3e4786d5	0.19485028
205	0x3d94a1e8	0.07257444
206	0x3ca2c306	0.019868385
207	0xbdcdb34f	-0.10043966
208	0x3d8799c1	0.06621123
209	0xbdc49f8b	-0.09600743
210	0x3e1a0b29	0.1504332
211	0x3d238ac9	0.039927278
212	0xbe2bf02b	-0.16790836
213	0xbe109271	-0.14118363
214	0xbe979517	-0.29605934
215	0x3d81f5e3	0.06345727
216	0x3cf0c370	0.029390067
217	0x3d4ff841	0.050773863
218	0x3dbd7bf7	0.0925216
219	0x3e052af1	0.13004662
220	0xbdb64552	-0.088999406
221	0x3d14cfb9	0.036330912
222	0x3d30f5d2	0.043203183
223	0xbde00bcd	-0.10939751
224	0x3d7bc2d6	0.061465107
225	0xbe82462d	-0.25444165
226	0xbe3dcee0	-0.18535948
227	0xbd32ff54	-0.04370053
228	0x3e2aad90	0.16667771
229	0x3e98f53e	0.29874605
230	0x3daafa43	0.08348515
231	0x3df256cf	0.11832964
232	0x3e7fd8ba	0.24985018
233	0xbd64568a	-0.055746593
234	0xbca99b53	-0.020703947
235	0xbe4bb5fe	-0.19893643
236	0xbe77ec2c	-0.24211186
237	0x3e0787dd	0.13235421
238	0x3d387f4a	0.045043267
239	0xbd97e14e	-0.0741602
240	0xbddb235f	-0.10700106
241	0xbda94df4	-0.082668215
242	0x3e69cb57	0.22831474
243	0xbd192f06	-0.03739836
244	0xbe671118	-0.22565114
245	0xbee37ce4	-0.4443122
246	0xbf450e08	-0.76974535
247	0xbdf17d6c	-0.117915004
248	0xbd949dda	-0.0725667
249	0x3e2f0d8e	0.17095014
250	0x3df8be5f	0.121456854
251	0x3db3fb99	0.08788223
252	0xbdcdfa22	-0.10057475
253	0x3db2c3d6	0.08728759
254	0x3e89e901	0.2693558
255	0xbdd196e2	-0.10233857

fc1.bias f4 [69]
0	0x3d9d9ac1	0.076955326
1	0x3dcbdc67	0.09954148
2	0x3de9d442	0.11417438
3	0xbb5de6af	-0.0033859422
4	0xbe2b8d36	-0.16753086
5	0x3c5d596b	0.013510088
6	0x3d8ce500	0.06879616
7	0x3e059c21	0.1304784
8	0xbde0f03f	-0.10983323
9	0xbb8d0fc0	-0.004304856
10	0xbe01357e	-0.12618062
11	0xbe298d4f	-0.16557811
12	0xbe1aca55	-0.15116246
13	0xbe1e7c8d	-0.154772
14	0xbdfba963	-0.12288167
15	0x3e05ff5f	0.13085698
16	0xbd2e9f1d	-0.04263221
17	0x3d266386	0.040622257
18	0x3e546132	0.20740202
19	0xbe4518bc	-0.19247717
20	0x3d1083f6	0.035282098
21	0x3b53d867	0.003232503
22	0xbdc2e58f	-0.09516441
23	0xbd8eccc6	-0.06972651
24	0x3dac5c9d	0.08416102
25	0xbdf2beb4	-0.1185278
26	0x3dbb0b50	0.09133017
27	0xbb33d62b	-0.0027440886
28	0xbcbb720a	-0.022881526
29	0x3dbf5d26	0.093439385
30	0xbe020a1b	-0.12699167
31	0x3e65d3f7	0.2244414
32	0xbe587dec	-0.21141785
33	0x3c77b7b7	0.015119485
34	0x3cfdc3ef	0.030977217
35	0x3e74fe12	0.23925045
36	0xbd96213d	-0.073305584
37	0xbe6a5972	-0.22885683
38	0x3d54e3ab	0.051974934
39	0x3e35877b	0.17727463
40	0xbd25626b	-0.04037706
41	0xbde9d7ad	-0.1141809
42	0xbd7dd075	-0.06196638
43	0x3c3f9bfa	0.011694903
44	0xbb6b3136	-0.0035887486
45	0x3e035cdd	0.12828393
46	0x3d029a75	0.031885583
47	0xbc91efca	-0.017814536
48	0xbd263b18	-0.0405837
49	0x3db39fde	0.087707266
50	0x3d5c858a	0.05383829
51	0x3d8ba26d	0.0681809
52	0xbcbe7711	-0.023250135
53	0x3c9d4299	0.019196795
54	0x3d9f3c5b	0.07775184
55	0x3914e275	0.00014198742
56	0xbe4c5d95	-0.19957574
57	0x3d339fb7	0.043853488
58	0x3e3e6104	0.18591696
59	0xbd3d209a	-0.04617367
60	0x3d5f041a	0.05444727
61	0xbddc4446	-0.107552096
62	0xbdb47232	-0.088108435
63	0x3de67a16	0.11253755
64	0xbda22728	-0.07917625
65	0xbd4649bd	-0.048410166
66	0xbdce5c49	-0.10076196
67	0xbd5a4a77	-0.05329367
68	0xbd4108bc	-0.04712747

fc2.weight f4 [49, 69]
0	0x3d00ec56	0.031475388
1	0xbda062a3	-0.078313135
2	0xbe73e0ef	-0.23816274
3	0x3dce5606	0.100750014
4	0xbe357da9	-0.17723717
5	0xbc032bf7	-0.0080060875
6	0x3e22af1c	0.15887111
7	0x3d8342f3	0.06409254
8	0x3db49d97	0.088191204
9	0xbd3c5905	-0.045983333
10	0xbd8ace5c	-0.06777641
11	0x3de868e2	0.1134813
12	0xbe167fd1	-0.14697196
13	0xbe74e8e7	-0.2391697
14	0xbda8482c	-0.08216891
15	0x3e25d53a	0.1619462
16	0x3e79aab2	0.24381521
17	0x3dc1ed19	0.09469051
18	0xbe26548b	-0.16243188
19	0x3b9018ae	0.0043974733
20	0xbd3e9d59	-0.046536777
21	0xbd81a2f2	-0.063299075
22	0x3da6e40a	0.08148964
23	0xbdcf579a	-0.101241305
24	0xbc628e97	-0.013827941
25	0x3e2051c2	0.15656188
26	0xbd9dcfd1	-0.077056535
27	0x3dedc119	0.11609096
28	0x3e5441a5	0.20728166
29	0xbd5c0f27	-0.053725388
30	0xbc95e73c	-0.018298738
31	0xbd8c8419	-0.06861133
32	0x3c5c3b41	0.013441862
33	0xbda1fbb8	-0.0790934
34	0xbdb26fd5	-0.087127365
35	0xbe41f763	-0.18942027
36	0x3d451dc9	0.04812411
37	0x3e279b40	0.16367817
38	0x3e3472a8	0.17621863
39	0x3dae15ca	0.0850025
40	0x3d5bf129	0.053696785
41	0x3d405e0f	0.0469647
42	0x3e0aa98c	0.1354124
43	0x3d521aee	0.051295213
44	0xbd7ca29f	-0.061678525
45	0xbd04b85b	-0.032402378
46	0x3d169c96	0.036770426
47	0xbd29e0eb	-0.041474264
48	0x3d6866c9	0.05673865
49	0x3e257f3a	0.16161814
50	0xbe241a4c	-0.16025656
51	0xbe213a01	-0.15744783
52	0x3d678a2a	0.056528248
53	0xbdb11f54	-0.086485535
54	0x3d3a6e95	0.045515615
55	0x3d62c047	0.05535915
56	0xbe4c6729	-0.19961227
57	0x3cad2676	0.021136504
58	0x3d359945	0.044335622
59	0x3dfad543	0.12247708
60	0x3d5c4680	0.05377817
61	0xbc812a4f	-0.015767245
62	0x3df61b5b	0.120169364
63	0xbdd1923f	-0.10232972
64	0xbd04ae33	-0.03239269
65	0xbd51219d	-0.051057447
66	0x3c5993cf	0.013279869
67	0x3da6c6ea	0.081434086
68	0x3dfc8140	0.1232934
69	0xbe680aa4	-0.22660309
70	0xbe3e5a96	-0.18589243
71	0xbe042268	-0.1290375
72	0xbdd66679	-0.10468764
73	0x3ca6fb0d	0.020383382
74	0x3e234f8e	0.15948316
75	0x3e44ade4	0.19206959
76	0x3ce9d259	0.028542684
77	0x3d4b309b	0.0496069
78	0x3c6e4f3d	0.014545259
79	0xbda9233b	-0.08258673
80	0x3da35216	0.07974641
81	0xbeb11cc2	-0.34592253
82	0x3c89baa4	0.01681263
83	0x3d6c2f40	0.05766225
84	0x3ded289a	0.1158001
85	0x3e116d04	0.14201742
86	0x3e17a454	0.1480878
87	0x3ef8a254	0.48561347
88	0x3cc2a626	0.023760866
89	0xbd79a159	-0.06094489
90	0x3d22ea04	0.039773956
91	0xbd854bf1	-0.06508625
92	0xbcf0abd1	-0.029378803
93	0xbe6d6d5d	-0.2318625
94	0x3d568d2e	0.052380733
95	0xbb9e41f6	-0.0048296405
96	0xbe1264bc	-0.1429624
97	0x3ab6611d	0.001391444
98	0xbe4181fa	-0.18897238
99	0x3e34c0cb	0.1765167
100	0x3ddd7044	0.108124286
101	0xbc5eb2e4	-0.013592456
102	0xbe249abd	-0.16074653
103	0x3df7c919	0.12098903
104	0xbdcdf332	-0.100561514
105	0xbd21127e	-0.039324276
106	0xbdd3d0de	-0.10342573
107	0xbe195a05	-0.14975746
108	0x3eb5e0f7	0.35523197
109	0x3ce901de	0.028443273
110	0xbcdc9504	-0.026926525
111	0x3dc4b650	0.09605086
112	0xbdf34f67	-0.11880379
113	0xbe19f649	-0.15035357
114	0xbd3b27a9	-0.04569212
115	0x3e246571	0.16054322
116	0xbe07a4c9	-0.13246454
117	0xbe44e9af	-0.19229768
118	0xbd4cbc88	-0.049984485
119	0x3d45bcd1	0.048275772
120	0x3da6acb3	0.081384085
121	0x3d0d4177	0.03448626
122	0xbe0fee5a	-0.14055768
123	0x3d1a9ef4	0.037749246
124	0x3e8ec291	0.27882817
125	0xbdc4f65f	-0.09617304
126	0xbd26b22e	-0.04069727
127	0x3e2dbfaa	0.16967645
128	0x3e3b4786	0.18289003
129	0xbe75d96c	-0.24008721
130	0x3cb05417	0.021524472
131	0xbd445208	-0.047929794
132	0x3d8cc725	0.06873921
133	0xbcd9ed6b	-0.026602468
134	0xbd64676d	-0.055762697
135	0x3d9cf02c	0.07662997
136	0xbc0e9784	-0.008703116
137	0xbda037d4	-0.07823148
138	0x3dba4834	0.09095803
139	0xbe9af6b4	-0.30266345
140	0x3ddcdd2c	0.10784373
141	0xbd6f86d1	-0.05847818
142	0x3e5cf327	0.2157713
143	0xbc0d837c	-0.008637305
144	0xbbe4fab2	-0.006987893
145	0x3d4fb2f5	0.050707776
146	0x3da772fa	0.08176227
147	0x3d872ff6	0.06600945
148	0xbb27c570	-0.002559986
149	0xbd8f04f4	-0.069833666
150	0x3cad82e0	0.02118057
151	0x3ddbe4b5	0.10736982
152	0xbdd6f617	-0.10496157
153	0x3dd21b2c	0.10259089
154	0xbdf2215a	-0.118227676
155	0xbcb3b4b5	-0.021936754
156	0xbecb0a00	-0.39656067
157	0xbd1f6b95	-0.038920958
158	0xbcd9525a	-0.026528526
159	0xbd8d2fad	-0.06893859
160	0xb8cd050b	-9.776101e-05
161	0x3daafc55	0.0834891
162	0x3dcc0380	0.09961605
163	0x3d366e8c	0.04453902
164	0xbdcb8619	-0.099376865
165	0x3dda25c7	0.10651737
166	0x3dd714e9	0.10502035
167	0x3e3bbfb5	0.18334849
168	0xbcfecf2e	-0.03110465
169	0xbdb246ef	-0.08704936
170	0xbe069c3e	-0.13145539
171	0x3e38c834	0.18045121
172	0xbe11768c	-0.14205378
173	0xbea8f5df	-0.33000085
174	0x3dd795cd	0.10526619
175	0x3e0ceeeb	0.13763015
176	0x3d7e6b50	0.06211406
177	0xbdb49b38	-0.08818668
178	0x3bd7a682	0.0065811286
179	0x3dab1ddc	0.083553046
180	0x3d10926f	0.0352959
181	0xbe4fed09	-0.20305265
182	0x3e09cdf2	0.13457468
183	0xbe035f28	-0.12829268
184	0xbda2b445	-0.0794454
185	0x3e3d886f	0.18509077
186	0x3de669af	0.11250626
187	0xbdd8293b	-0.10554739
188	0xbc31c688	-0.010850556
189	0x3c8b8e38	0.017035589
190	0xbdbdb14f	-0.092623346
191	0xbda8baa0	-0.08238721
192	0x3d183602	0.03716088
193	0xbd16d855	-0.036827404
194	0x3c79b921	0.015241892
195	0x3da9af04	0.08285335
196	0x3d139530	0.03603095
197	0x3d19484c	0.037422463
198	0x3e26dadf	0.1629443
199	0xbcc20e8f	-0.023688583
200	0xbe23fbc5	-0.16014011
201	0x3d8b02c4	0.06787637
202	0x3e24709b	0.1605858
203	0xbe55835c	-0.20850891
204	0x3e2edfb5	0.17077525
205	0xbdfcf4ba	-0.123513654
206	0xbe796901	-0.24356462
207	0x3c1e2414	0.009652156
208	0xbe21b43f	-0.15791415
209	0xbd852743	-0.06501629
210	0xbe3de34a	-0.18543735
211	0xbd3f2327	-0.046664383
212	0xbd940e4d	-0.0722929
213	0x3da442b5	0.08020536
214	0x3ddb4db4	0.1070818
215	0xbdb1df84	-0.0868521
216	0xbe5e174a	-0.21688572
217	0xbe17b96b	-0.14816825
218	0x3c76d70f	0.015065922
219	0xbbdc8c1d	-0.00673057
220	0xbe18c76a	-0.1491982
221	0xbde4f9de	-0.11180471
222	0xbdf19db3	-0.11797657
223	0xbe4403ff	-0.1914215
224	0x3d3c6e3a	0.046003558
225	0x3d03a144	0.032136217
226	0x3df37af3	0.11888685
227	0x3e1619f2	0.14658335
228	0xbe0813c1	-0.13288786
229	0x3dcd661d	0.10029242
230	0xbe3b457c	-0.18288225
231	0xbee24649	-0.44194248
232	0x3d5767ad	0.052589107
233	0xbd0d70af	-0.03453129
234	0x3dd046b4	0.101697356
235	0x3d26060c	0.04053311
236	0xbd2243c8	-0.039615422
237	0x3e59a4fc	0.21254343
238	0x3d63d3f7	0.055622067
239	0x3e973103	0.2952958
240	0xbe7bccaa	-0.24589792
241	0xbdedda78	-0.11613935
242	0xbe3fdc24	-0.1873632
243	0xbdcbf47b	-0.0995874
244	0xbe95e0e7	-0.2927315
245	0xbe54e6b3	-0.2079113
246	0x3e9d39c9	0.3070815
247	0x3da8b42d	0.08237491
248	0xbd600337	-0.054690566
249	0xbd911dba	-0.07085748
250	0xbe2ab28c	-0.16669673
251	0xbdfba9de	-0.12288259
252	0xbd33051b	-0.04370604
253	0x3e57d81c	0.21078533
254	0xbc422b7e	-0.01185119
255	0xbde15f1c	-0.11004469

fc2.bias f4 [49]
0	0xbd62d131	-0.05537528
1	0x3dee8adb	0.11647578
2	0xbdb357f0	-0.08757007
3	0xbdbb8d37	-0.09157794
4	0x3d108824	0.035286084
5	0x3dd5df42	0.10442974
6	0x3e1a5162	0.15070108
7	0x3d6bca38	0.057565898
8	0x3e3bcc81	0.18339731
9	0xbd866d96	-0.065638706
10	0x3d2225b4	0.039586738
11	0x3e4d9b43	0.20078759
12	0x3e35d522	0.17757085
13	0x3d4f4d82	0.050611027
14	0x3d613d6d	0.05499022
15	0x3c7ea6d7	0.015542707
16	0x3d3200f1	0.04345793
17	0x3ca0da4e	0.019635346
18	0x3ca7c9e3	0.02048201
19	0x3daa2dee	0.08309542
20	0xbc8e7d91	-0.01739386
21	0xbcba945a	-0.022775818
22	0x3dae3552	0.08506264
23	0xbce871ad	-0.028374517
24	0x3e0da998	0.13834226
25	0xbc47bae7	-0.012190557
26	0x3c37cc44	0.011218134
27	0x3ddf2152	0.10895027
28	0xbdb1c66a	-0.086804226
29	0xbe146650	-0.14492154
30	0x3e618f7d	0.22027393
31	0xbe0a668b	-0.1351568
32	0xbcb7c550	-0.022432953
33	0x3dbb79da	0.09154101
34	0x3c41e972	0.011835443
35	0x3ea5c25f	0.32374856
36	0xbd38cd3d	-0.045117605
37	0xbb97d8c3	-0.0046339943
38	0x3d8f9c12	0.0701219
39	0x3ce66938	0.028126344
40	0x3ca44da6	0.020056557
41	0x3d81ebdb	0.06343814
42	0xbe149ff5	-0.14514144
43	0x3c3d024d	0.011536193
44	0x3e71c77f	0.23611258
45	0x3d8b0a48	0.0678907
46	0xbe4ce42c	-0.20008916
47	0x3da2ae39	0.079433866
48	0x3e3bbc49	0.18333544

fc3.weight f4 [4, 49]
0	0x3cb6dfca	0.022323508
1	0x3ea074a3	0.31338987
2	0xbdf8fb9e	-0.12157367
3	0x3cf83380	0.030297995
4	0xbdcb4d52	-0.09926857
5	0x3da2bfd2	0.07946743
6	0x3e385211	0.18000056
7	0x3e4a4166	0.1975151
8	0x3d8f24a1	0.06989408
9	0xbd73eeef	-0.059554037
10	0x3d6ef65a	0.058340408
11	0x3e0d6e33	0.13811569
12	0x3e23e05b	0.16003554
13	0xbe0b2169	-0.13586964
14	0x3e0de3d2	0.13856438
15	0x3d99c97f	0.075091355
16	0xbe55e188	-0.20886815
17	0x3e06e40d	0.13172932
18	0xbcc4e34d	-0.024034167
19	0x3ef7f1da	0.48426706
20	0xbd443059	-0.04789767
21	0x3de7a2a6	0.113103196
22	0x3e4b5d0f	0.19859718
23	0xbf126dbc	-0.5719869
24	0x3e791bb4	0.24326974
25	0x3df820ab	0.12115606
26	0xbd53d536	-0.051717006
27	0x3e0cf759	0.1376623
28	0xbccde56e	-0.025133815
29	0x3d04a1ff	0.032381054
30	0x3de43461	0.11142803
31	0xbdbdd856	-0.092697784
32	0x3e1e591c	0.1546368
33	0x3dea03ea	0.11426528
34	0xbe834cdf	-0.25644585
35	0x3dde17af	0.10844361
36	0x3e4ff779	0.20309247
37	0x3ddc407c	0.10754487
38	0x3de06fa3	0.10958793
39	0xbdfbc285	-0.12292961
40	0x3e4b4f98	0.19854581
41	0x3e2e3eb9	0.17016114
42	0xbdd9ca7d	-0.10634325
43	0x3e0d48d8	0.13797319
44	0x3df9bd50	0.121943116
45	0x3d93e836	0.07222025
46	0xbe7704fb	-0.24122994
47	0x3dbf770a	0.09348877
48	0x3e0d8f4f	0.13824199
49	0x3d0e89d1	0.0347994
50	0x3e137cf5	0.14403136
51	0xbdb3852d	-0.08765636
52	0x3e479571	0.19490601
53	0x3eb5bf24	0.3549739
54	0x3f060a5a	0.52359545
55	0x3e0b898f	0.13626693
56	0x3e7c3376	0.24629006
57	0x3d24450b	0.040104907
58	0x3d66f38d	0.056384612
59	0x3e25335f	0.16132878
60	0x3e16e2a6	0.14734897
61	0x3e168528	0.14699233
62	0x3e4af182	0.1981869
63	0xbc142f3a	-0.009044463
64	0x3d8d5f25	0.06902913
65	0xbe23640a	-0.1595613
66	0x3e4ab8c0	0.19797039
67	0xbe0552c4	-0.13019854
68	0x3e82c1a9	0.25538376
69	0xbdf727df	-0.12068152
70	0x3e0555e7	0.1302105
71	0x3ed1e229	0.4099286
72	0xbdcee213	-0.10101714
73	0x3e05cdb0	0.13066745
74	0x3dc689e1	0.09694267
75	0x3e34c272	0.176523
76	0x3dc29bc7	0.095023684
77	0xbe08b217	-0.13349186
78	0xbe6706f9	-0.22561254
79	0x3dd96fa3	0.10616996
80	0x3e3ad8f1	0.18246819
81	0xbd687ddb	-0.05676065
82	0x3cfbb883	0.03072763
83	0xbec6377a	-0.387142
84	0x3e083764	0.1330238
85	0x3e0002a8	0.12501013
86	0xbddc2f22	-0.10751177
87	0xbdcfd4d8	-0.101480186
88	0x3cc5fe08	0.024168983
89	0x3ddd3a8a	0.10802181
90	0x3e8361de	0.25660604
91	0x3db667fd	0.08906553
92	0x3e2a69ce	0.16641924
93	0x3dd68934	0.10475388
94	0x3dff4cd2	0.12465824
95	0xbd74fbf7	-0.059810605
96	0xbd725a60	-0.05916822
97	0x3e3f0689	0.18654837
98	0x3e0bb102	0.13641742
99	0x3e2e5209	0.17023481
100	0x3d568f2d	0.052382637
101	0x3ef2376d	0.47307912
102	0x3e414c0f	0.1887667
103	0x3ebd9d39	0.37034014
104	0x3da9a872	0.082840815
105	0xbabd88cd	-0.0014460325
106	0x3d8d0478	0.06885618
107	0xbe7776e3	-0.24166445
108	0xbdecc932	-0.115618125
109	0x3e25480e	0.16140768
110	0x3e7dc264	0.24781185
111	0xbe52bdd2	-0.20580223
112	0x3d7b132e	0.061297588
113	0x3ea0e1ec	0.31422365
114	0x3e0bc6f6	0.13650116
115	0x3ebac366	0.36477202
116	0x3e3744e3	0.17897372
117	0x3f0b1402	0.54327404
118	0xbdedaa29	-0.11604721
119	0x3dbe252b	0.09284433
120	0x3cfb2947	0.030659331
121	0xbe5102cd	-0.20411225
122	0x3db3552a	0.08756478
123	0x3e01a1ec	0.12659425
124	0xbe9e5731	-0.30925897
125	0x3cc1612e	0.02360591
126	0xbd853f4b	-0.06506213
127	0xb9d627ed	-0.00040847008
128	0x3d9590cf	0.07303011
129	0x3e891f76	0.26781815
130	0xbe2a7850	-0.16647458
131	0x3c393e95	0.011306425
132	0xbeba0ad9	-0.363364
133	0x3d96a5a3	0.073558114
134	0xbda23cc2	-0.07921745
135	0x3c421769	0.011846402
136	0xbc9d72d4	-0.019219793
137	0xbd6a9a8c	-0.057276294
138	0x3e93f792	0.2889982
139	0x3db3f8e4	0.087877065
140	0x3e185442	0.14875892
141	0x3d2edb97	0.042689886
142	0x3df3cdfe	0.11904524
143	0x3e449334	0.19196779
144	0xbc06a2da	-0.008217538
145	0xbe1bdf53	-0.1522191
146	0x3dfd0b57	0.123556785
147	0x3e165d55	0.14684041
148	0x3e808a10	0.25105333
149	0xbd96ea17	-0.07368868
150	0x3d8be255	0.06830279
151	0xbe85dcd7	-0.2614505
152	0xbde6fb08	-0.11278349
153	0x3e5e8639	0.2173089
154	0xbe0d224b	-0.13782613
155	0x3e1e6eb5	0.15471919
156	0x3d813e9d	0.06310771
157	0xbd7104c9	-0.058842454
158	0x3c013a59	0.007887446
159	0x3dc06bf7	0.09395593
160	0xbbfffb5a	-0.007811946
161	0x3e0ad5a4	0.1355806
162	0x3ba1c408	0.004936699
163	0xbdbba60c	-0.0916253
164	0xbd89974b	-0.0671831
165	0x3e5a12ad	0.21296187
166	0x3e29e02b	0.1658942
167	0xbe3c8745	-0.18410976
168	0x3dd7b9e8	0.10533506
169	0xbe0e38e0	-0.13888884
170	0xbe302e38	-0.17205131
171	0x3e578e43	0.21050362
172	0x3b69bb5c	0.0035664653
173	0x3dbf9f6a	0.09356578
174	0x3e0c8867	0.13723908
175	0xbddc9ecc	-0.107724756
176	0xbdb1e562	-0.086863294
177	0x3a6ee144	0.00091125467
178	0x3edb7b2a	0.42867404
179	0xbe48c9d0	-0.19608235
180	0x3e9f4c7c	0.3111304
181	0x3e11f731	0.14254452
182	0x3dd7b309	0.10532195
183	0xbddeda16	-0.1088144
184	0xbe53f0ff	-0.20697401
185	0x3e342ac2	0.17594436
186	0xbe7c6859	-0.2464918
187	0x3d093c00	0.033504486
188	0x3ec3b8fc	0.3822707
189	0x3d47f0ff	0.048813816
190	0x3e2ea644	0.17055613
191	0x3d39dbef	0.04537576
192	0x3e53ce9f	0.20684288
193	0x3e2eed9f	0.17082833
194	0x3da9090c	0.08253679
195	0x3e070c67	0.13188325

fc3.bias f4 [4]
0	0x3e2ad8bb	0.16684239
1	0x3e299314	0.16560012
2	0x3e6459f8	0.22299945
3	0x3e449f27	0.19201337
