checkpoint6.pth (torch_old, 89795 bytes, 6 tensors)

fc1.weight f4 [193, 37]
00000000: de6d fe3d b213 f8bd 9e58 12bd b4f5 173e
00000010: 5635 413d f9bf 933d ee73 a23d a98c 543e
00000020: fa75 68be 2495 f6bd cf5a 113c 7f12 123e
00000030: c0ae 943d 2cba 6cbe 46b6 06be 0950 143e
00000040: b65b fcbd c77e 1abe d0c1 5f3e 26fa 843e
00000050: 0c58 81bd 8e79 953c 4594 d83a bca1 b0be
00000060: 1586 05be 22e2 003e c9f7 113e e21a e5bd
00000070: 52f3 76be f1a9 003f 4ab8 ae3d 82a9 453e
00000080: 922b a53d 79cf 2abe 2443 00bf c8b7 f7bd
00000090: 58bc 703d 5f7a 1c3d 0ce0 903d 9a7b 0dbd
000000a0: 98df 0e3e f528 043d 09ad 813e 037a 3bbe
000000b0: def8 343d 4213 2d3b 041b e9be 91a4 c93d
000000c0: 4b71 7abd 54f9 1e3e 1663 a2be b226 063c
000000d0: 9f36 753d ee49 12bd 3082 793e 68ab 403e
000000e0: f127 febd 5b82 70be 9453 073e 52a4 5b3e
000000f0: c2c5 44bb da75 303d aac6 2b3e 7e35 303e
00000100: bf9b 05be cabf 313c f120 c5bc 713d 4c3c
00000110: 5ddb 46be 3651 163e 0132 e53c a884 b8bd
00000120: e28d 013e df1c 8cbc be3a 263d a3dd 99bd
00000130: 95ae 4abd 6f40 563e 3b39 8abd ede0 1e3e
00000140: d0f4 48bd bd36 94be 9e0b 60bd 50d0 88bb
00000150: 7f5e 1a3e c2a0 96be a8fb 75bc 60a8 e03d
00000160: b412 203e cf3d 0f3e ec51 233c e3db a43c
00000170: 77ce 51be b3df 7f3d 5946 e0bd 50a2 45be
00000180: ac33 d93d bcb8 b6bb 4a10 aabd ace7 ed3b
00000190: 2aa6 563e 032e 64be e66a 493d ea7e 053e
000001a0: 672c 0cbe 259a 08bf 28c5 9d3e 1f5d 343d
000001b0: 9885 bb3e 9f96 bc3d 6519 0b3d facb 8a3d
000001c0: 758b 4b3e 41f5 49be 7a8e 083e fd1a ca3d
000001d0: 9ca9 393e 9294 cb3b 2ac0 adbe 6835 ddbe
000001e0: 162b 79bf f061 a0bd 06a6 3c3e 942a 7abd
000001f0: 45f6 4d3e 2bfc 5dbe c9b7 9ebe cd78 c93c
00000200: 7bd8 313e 3092 3c3e 137d 59be 7889 123d
00000210: 9188 1c3e 157c d93d 0bcb 843e 0cd0 963c
00000220: 3f8f 58bd 9288 273e ff4a bfbd ca2b d53b
00000230: 55e3 4abc d203 503b 5831 26be 7047 503e
00000240: 8bc8 6fbd 2cbb 4f3d 2439 893d a38f a53b
00000250: 04e7 23bd e46e 453e a338 2cbe 6bcc 7d3e
00000260: bf34 363e f283 193e b511 6bbe 33c3 8dbe
00000270: 073b 73be f514 d4be 8fe6 153d f5a3 0abe
00000280: aa30 03be 2952 b63e cf19 0fbe a480 073e
00000290: 8b61 a4be 2275 553e ac7e 82bd edc1 79bd
000002a0: 6af9 19be 9415 acbd eeda 78bd 15de 9a3d
000002b0: 2015 c13d 8d52 2e3c 7c06 753e cd9a 4b3e
000002c0: cb05 49bd fa98 963d 18a7 00be 7a85 8f3d
000002d0: badc 543d dcf1 b7bd 173b 3dbe 9c5d 9c3d
000002e0: 112f 46bc cd71 363e 1a8d 63be 7fa6 a1bd
000002f0: 865b 563d 2301 bcbe 78c5 5e3e 4909 43bd
00000300: 69fd d8bd 21a2 87be 61f2 603e a476 ba3d
00000310: 9535 e1bd 897b f13d 7156 6b3e 4cac 88be
00000320: 1b60 0abd 1db2 0c3a 509f 863d c579 b93c
00000330: fc3b 503e 2292 2abe b3a5 e8bd 2112 b03e
00000340: 8e4b 3ebd 1caf 22bd 0316 f33d cd08 543e
00000350: ca11 d3be c936 053d 98ff d23c 8469 c23d
00000360: d12b 9e3c 3319 a6bc c50c 25bc 7a5e b63e
00000370: af88 58bd 49f9 913d 7d22 1ebe d26b b1bd
00000380: 90d9 0f3e 84cd c1be c844 bebc e311 183e
00000390: ff93 1f3d bf74 883e add2 09bf d15b 54be
000003a0: b834 983e 0cb1 65be 45ea 39be 2f08 22be
000003b0: 4250 873c be65 163e 86cc 2f3e 1a7e b1be
000003c0: 0465 adbe 979c dcbe c523 af3d c10d 43be
000003d0: c70b 30be f244 863d a978 a4be a460 a4be
000003e0: 7d22 62bc 95b0 593e a1c1 473d 9e2c f6bd
000003f0: 36d9 553c 68c1 763d 266f 0b3d 28de b4be
0.12423299 -0.121131316 -0.035729043 0.14839822 0.047170006 0.0721435 0.07932268 0.20756783
-0.22701254 -0.12040165 0.008871748 0.14264868 0.072598934 -0.23117894 -0.1315547 0.14483656
-0.1232218 -0.15087424 0.21851277 0.25972098 -0.06315622 0.018246438 0.001652368 -0.34498394
-0.1303943 0.12586263 0.14254679 -0.11186768 -0.24116257 0.5025931 0.08531244 0.19302943
0.08064951 -0.16680707 -0.5010245 -0.120956 0.05877337 0.03820264 0.070739836 -0.034541704
0.13952482 0.032265622 0.25327328 -0.18308263 0.04418265 0.0026409184 -0.45528424 0.09845842
-0.0611432 0.15524799 -0.31716222 0.008187937 0.059866544 -0.035715036 0.24366069 0.18815386
-0.12409962 -0.23487227 0.13215476 0.21449402 -0.00300251 0.043081142 0.16775003 0.17207906
-0.13047694 0.010848949 -0.02406356 0.012465821 -0.19419618 0.14679417 0.027977945 -0.09009677
0.1265178 -0.01710361 0.040583365 -0.07512977 -0.0494829 0.20923017 -0.06749197 0.1551549
-0.049061596 -0.28948012 -0.05469858 -0.0041752234 0.1507511 -0.29419523 -0.015013613 0.10969615
0.15632135 0.13988422 0.009968262 0.020124381 -0.20488916 0.062469196 -0.10950918 -0.19300199
0.10605559 -0.0055762213 -0.08303888 0.0072602835 0.20961824 -0.22283177 0.049174212 0.13036695
-0.13688813 -0.53360206 0.3081448 0.04403412 0.3662536 0.09208416 0.033959765 0.06777187
0.19877417 -0.19722463 0.133356 0.09868429 0.18131107 0.0062127793 -0.33935672 -0.43204808
-0.9733137 -0.0783118 0.18422708 -0.061075762 0.20113476 -0.21678226 -0.30999592 0.024593735
0.17367737 0.18415141 -0.21239118 0.03577563 0.15286471 0.1061937 0.2593616 0.018409751
-0.052870985 0.16360691 -0.09340476 0.006505464 -0.012383302 0.0031740558 -0.1622976 0.20339751
-0.058540862 0.05071561 0.06700352 0.005052523 -0.040015236 0.19280583 -0.1681848 0.2478501
0.17793559 0.1499174 -0.22955973 -0.27687988 -0.23752986 -0.4142224 0.03659683 -0.13539107
-0.12811533 0.35609558 -0.13974689 0.13232666 -0.3210567 0.20845464 -0.06371817 -0.060975958
-0.1503655 -0.08402553 -0.060755663 0.0756189 0.094278574 0.010639799 0.23928255 0.1988327
-0.04907779 0.07353397 -0.12563741 0.070078805 0.051968314 -0.08981678 -0.18479572 0.07635042
-0.012096182 0.17816849 -0.22221795 -0.07893085 0.052333377 -0.36719617 0.21755016 -0.047616277
-0.10595209 -0.26490882 0.2196746 0.0910466 -0.10996548 0.117911406 0.22982194 -0.26693952
-0.03378306 0.0005367117 0.06573355 0.022641072 0.20335382 -0.16657308 -0.113597296 0.3438883
-0.046458773 -0.03971778 0.11869433 0.20706482 -0.4122451 0.03252295 0.025756642 0.09492782
0.019308003 -0.020275688 -0.010073845 0.35618955 -0.052864727 0.071276255 -0.15442844 -0.08663143
0.14047837 -0.37852108 -0.023226157 0.14850573 0.0389595 0.2665157 -0.5383709 -0.2073815
0.2972772 -0.2243082 -0.18155773 -0.15823434 0.016517762 0.14687249 0.17167863 -0.3466652
-0.3386613 -0.4308822 0.08551744 -0.19048215 -0.17191993 0.06556119 -0.32123306 -0.3210498
-0.013802168 0.21258767 0.048768643 -0.12020229 0.013052275 0.06024304 0.034041546 -0.35325742

fc1.bias f4 [193]
00000000: 65ef bdbd b7d6 54bd e258 ed3c 2dc0 163b
00000010: b91e f9bc 740e f53d 0d27 edbd 3bc4 06be
00000020: a89f 933c ec77 1b3e cb72 fa3c a89f 5f3e
00000030: eb18 aebd ac9f c4bd 4cd3 ec3d 560a 283e
00000040: f352 fdbd ed19 16be 4a7d cb3d 11ca dd3b
00000050: d980 b2bd d150 89bd 6dfa 413d 403a b9bd
00000060: 279c 543d 570a 023c 3f43 a4bd 2e87 633c
00000070: 49e7 2e3d fd5a 4a3d 4930 06bd 57d4 80bd
00000080: c377 13be 2c7d 803d bd81 a23d 7942 233e
00000090: 37fd cebb 4e54 47be f66b 0abb 4f48 41bd
000000a0: 0de5 f8bd e625 f23d 6d78 47bd 5f4f f5bb
000000b0: f80f b93d 8996 00be 39ef 063d d7f7 a0bd
000000c0: 0c6a a33d cb9e 4c3e 22e2 b53b a2ec 24be
000000d0: 02d8 a63c 5eb6 f1bd 292f 653d aaf3 ad3c
000000e0: 32f7 e3bb 9dd1 3bbe 6047 0abe 6604 8ebd
000000f0: 8cfe 0a3e bb00 393d 05eb 483d 267f c23d
00000100: a20b 87bc 6fc3 f5bd 406b 3e3d 2e88 69be
00000110: f2e7 a7bc 1c9a 033e 06f2 bebd 8230 283e
00000120: 9bd8 e8bd bb98 1f3e 6dbf 5abe 05d0 a23d
00000130: 7855 dc3c a5f7 08be 6208 59bd 14e9 c33d
00000140: bb4a afbd 40f2 92bb 43b1 6abd 10f5 433c
00000150: 9000 a43d f441 dcbd 7172 08bd 0205 8a3d
00000160: 131f 50bc e5f8 c1bd ffd1 5ebe b393 013d
00000170: c20a c03d ec50 863d 8d3f 28be 93bf 76bd
00000180: b6ce afbd 3e85 2d3d a088 643c 8c6f 22be
00000190: 81cd 20bd 6263 0dbc e1d5 bb3d 8d70 c8bd
000001a0: b9b3 13be fcb6 653d 0d63 a0bd e1c8 a4bd
000001b0: 83a6 05bd 8aab 95bd 8128 15be 70f5 533d
000001c0: e3ef 03be a56d d53d dc78 d33d 23cb 6abe
000001d0: 211b 823d b40b b43d 76fc 5c3d 1119 f33d
000001e0: 2b67 d6bc 15ac d8bd 7ff2 d13c ba78 e73b
000001f0: a959 2b3e fc8a 013e 7665 583e b53e 18be
00000200: 4870 4f3e 05bd f8ba 48e8 ffbd a4f9 edbd
00000210: 323c 353e 4a6a 0fbe 0e95 053a 5c91 febd
00000220: f90b 2dbe 25aa 6b3d eb0c 2abe 299a ac3c
00000230: 3a40 af3d 6d25 db3c 4686 80bc 036b acbd
00000240: 85fd 7bbe 59b3 21be 0793 113b 43ea 0a3e
00000250: f63d d1bd 6c35 31be 9fa6 d73c 7171 0cbe
00000260: 9afe 3d3d 3640 d6bd 34bc 033d 7900 2abd
00000270: 1c9b ffbc 0d3b 523e aecb 143e 626f 483c
00000280: f470 0bbe 39bf 0b3e 9237 b83d 4019 ba3d
00000290: 1ab1 f2bd be0d 5ebe aeca 29be 3155 1fbe
000002a0: 6395 cf3d 8458 cdbd a0a5 02bd 9636 4b3e
000002b0: f1a7 ee3c c9c2 cdbd d4cd cfbd 775c 713d
000002c0: 02f9 b5bc 8f51 dfbd b29b 323e 8c23 40be
000002d0: 0dca 303c c61c 123d 3828 133d 4ce2 07be
000002e0: f460 23be c021 91bd dcd1 d0bd 526a 8f3d
000002f0: 5f28 e9bd ebce aabd 18ca 943d d062 f8bc
00000300: b048 60be
-0.092741765 -0.05196258 0.028973047 0.002300273 -0.030410158 0.11965647 -0.11579714 -0.13160793
0.018020466 0.15182465 0.030572316 0.21838248 -0.085008465 -0.096007675 0.11563739 0.16410193
-0.12369337 -0.14658327 0.09936006 0.006768473 -0.08715982 -0.06704868 0.047357965 -0.090443134
0.05190673 0.0079370355 -0.08020639 0.01388721 0.04270104 0.04940318 -0.032760892 -0.062905006
-0.14401154 0.06273875 0.07934902 0.15943326 -0.0063168067 -0.19465753 -0.0021121479 -0.0471881
-0.12153063 0.11823635 -0.04869883 -0.0074862684 0.09036249 -0.12557425 0.032942984 -0.07859772
0.07979211 0.1998245 0.005550639 -0.16105893 0.020366672 -0.11802362 0.05595318 0.021234352
-0.006956958 -0.1834168 -0.1350379 -0.06934433 0.13573664 0.045166712 0.049052257 0.09496908
-0.01648504 -0.120001666 0.046489 -0.22805855 -0.020496342 0.12851757 -0.09323506 0.16424754
-0.11369439 0.15585606 -0.21362086 0.07949833 0.026896223 -0.13375719 -0.05298651 0.095659405
-0.085591756 -0.004484445 -0.057297956 0.011960283 0.0800792 -0.10754767 -0.033312265 0.067392364
-0.012702721 -0.09471301 -0.21759795 0.031634998 0.09377052 0.065584034 -0.16430493 -0.060241293
-0.08584349 0.042363398 0.01394859 -0.15862864 -0.039258484 -0.008629652 0.091716535 -0.09787092
-0.14424028 0.05608271 -0.078313924 -0.08046127 -0.0326295 -0.07308109 -0.14566232 0.05174774
-0.12884478 0.10421304 0.103257865 -0.22929053 0.06352831 0.08791295 0.053951703 0.118700154
-0.026172241 -0.10579697 0.025628326 0.0070639523 0.16733421 0.12650675 0.21132454 -0.14867671
0.20257676 -0.0018977231 -0.12495476 -0.11619881 0.17698744 -0.1400539 0.0005095758 -0.12430069
-0.16899098 0.05753531 -0.1660649 0.021069603 0.08557172 0.026751244 -0.015689027 -0.08418848
-0.24608429 -0.15791072 0.002221288 0.13565926 -0.10216896 -0.17305535 0.026324568 -0.1371515
0.046385385 -0.10461466 0.032161906 -0.041504357 -0.031201892 0.20530339 0.14530823 0.012233587
-0.13617307 0.13647164 0.08994974 0.09086847 -0.11850186 -0.2168493 -0.16581222 -0.15559842
0.10135915 -0.10026649 -0.031896234 0.19845042 0.029132815 -0.10046918 -0.101466805 0.058926072
-0.022213463 -0.10904228 0.17442206 -0.1876356 0.01079036 0.03567197 0.035927027 -0.13269919
-0.15954953 -0.070865154 -0.101962775 0.07002701 -0.11384653 -0.08340248 0.07265109 -0.030320555
-0.21902728

fc2.weight f4 [75, 193]
00000000: 5b94 e5bd af3b 59bd 30ad 15be e4bb 6d3d
00000010: fad2 39be 2d61 31bd 94d4 443d ad7e 11bd
00000020: 807f acbd a3e2 f83c cf77 e5bd df7d 8abd
00000030: 6eca 103e c77c 74bd e0f6 67bc d363 81be
00000040: 09d0 2ebd bcc5 a7bd aca6 263e ad44 91be
00000050: 5220 a23d 35d4 a5be b570 dcbb 0f33 743d
00000060: 33b3 87be c8f4 353d 583d 66be e8d2 0f3e
00000070: f45b b83d 77d6 293d 745c 8abd a1a4 8e3e
00000080: 532a 853c db2e 993a 79c2 51bd 9a59 91bc
00000090: fedb 8cbe 7447 9cbd e070 94bd 0159 e6bd
000000a0: 5a54 453e 82f1 9bbd d3c1 1d3c d494 c1bd
000000b0: 3fe6 2cbd 2329 32be 0a3e b9bd fc91 93bd
000000c0: a2b7 a03d 37c1 01be 3012 583c d189 9abe
000000d0: cb6d c5bc dcca 303e aee7 383d 8fe9 e4bd
000000e0: 6e96 debd f4a3 f4bd 400e aebd ac75 05be
000000f0: 8f7f eb3d 959d 413e 7503 023d 4cdf 2a3e
00000100: 6033 05be 024b bdbe 2c05 c03c c441 90bc
00000110: 9c37 c6bd 2480 0d3e 3aeb 9a3d df1a edbc
00000120: e7bd 5bbc 2eef 3f3d be5e 8bbe e988 2abd
00000130: 17ac 87bc c400 3e3e e73a c53d 0d26 3abe
00000140: 9b84 11be 523c 35bb b916 6abd ad5b b83d
00000150: aa5c bc3d c917 0ebd 4c7d b7bd c6e4 bdbe
00000160: 178e 44be 83d7 09bd 5dfc 8cbe 1703 8a3d
00000170: edc8 ad3d 6135 b23b 4c64 d73d 75d8 2ebe
00000180: 6bd7 a3bd 81cb 62bd 4d52 863c 25fd b9be
00000190: 9fd0 85be 0bd9 8fbb b497 35bd fc21 b8bd
000001a0: 0be7 c1bd 54c9 553e 8d7e 113e 3d40 71bd
000001b0: c624 173d 493d a6bd 3bfa 4cbe cbf6 81bc
000001c0: 121c 46be 37dd 8fbd 4fee dd3c c0f1 e0bd
000001d0: b1b5 d8bd 1d92 6cbe 29a8 83bc 0503 31bd
000001e0: aec1 5bbe 0f85 c4bd f06f 28be fc43 1bbe
000001f0: f674 a23d 1c9e 3dbc 9a16 633d ae88 643c
00000200: 3cbd 2fbe 17a3 3bbb fa9a 1fbc 4ff8 e8bc
00000210: ca99 083d 59b4 01be 67ab 39be b30b aebc
00000220: fc99 863d ffb2 00bd 1b5f e5bd ae5a fe3d
00000230: d030 183d 582b 89bd 443d 3abe 74b1 80bd
00000240: c1fd 8f3d a1b2 62be 4930 e2bd 7219 3a3d
00000250: 6bd3 58be 525d a5be fee2 9c3d bb6d 3dbe
00000260: a1b8 b53d dc66 a43d 4eac 0dbc e62a 70bd
00000270: 5bb2 22bc 6e17 75bd 0281 063c f034 fbbd
00000280: 7aaf 1abe a8a5 18bc 2b92 f3bd d4e4 c4bc
00000290: 3895 d2bd 7464 0cbe 8cf8 98bd fa9c 1e3e
000002a0: 92cb 39be 4d43 72be 5140 473d 2ea6 1ebd
000002b0: 365f 273d 7ebb b7bc f3f4 023d 5768 25bd
000002c0: b86e 653d dcb9 6dbe 03e3 873c 24b7 18be
000002d0: 2601 233e 0253 e63d f120 c2bd 0063 01be
000002e0: 521d 1a3d 8e33 603e 869e 183d b861 2b3e
000002f0: e814 56be 57e3 e5bd 9700 053d 1304 37be
00000300: 0498 483d 68be b4be aacb 06bd b221 41be
00000310: d5ad 8cbd 0b78 1ebd cd96 44bc 64bc 383c
00000320: 80ae 123c 8c89 69be ee79 25bd a77e 3a3d
00000330: 9769 e13d bede 89bc daa3 81bd 82dd e93d
00000340: 869e 12be 862c 58bc f28f 03be 49e3 243e
00000350: 1a30 7ebd 8f06 033e c9ef afbe ec0d b33d
00000360: 3520 c5bd 20cb c3be 3fbc e0bd 355c 66be
00000370: 6fc2 2f3d 3172 b83d 6e4b 793c 2d9a df3c
00000380: 994e ccbd 3ca8 083e 84df 94bd cb89 c2bc
00000390: fe0f a5bd 93c9 24be c386 cfbc c778 8bbe
000003a0: 6060 ebbd 530c 023e dd06 a1bd e355 693c
000003b0: 7610 90bd 07ff 5d3e 77e2 f9bd a03b 3b3d
000003c0: 43d9 a23c 747a 123e 96e2 213e d9fa 043d
000003d0: 69ce 5ebe b7a9 813c 570b 8abc 9567 073e
000003e0: 6856 1ebd 1be7 d3bc 9451 09be 8941 efbc
000003f0: c72c 56bc 4a3a e43c 816f 95bc 5e30 b3bd
-0.11209937 -0.053035434 -0.14616847 0.058040515 -0.18146887 -0.043305565 0.048054293 -0.035521198
-0.08422756 0.030381506 -0.11204492 -0.06762289 0.14139721 -0.05968931 -0.014157981 -0.25271472
-0.042678867 -0.08192012 0.16274518 -0.28372708 0.07916321 -0.32388464 -0.006727303 0.059619006
-0.26503906 0.044422895 -0.22484338 0.14045298 0.09001914 0.041464295 -0.06755915 0.27859977
0.016255533 0.0011686938 -0.051210854 -0.01774292 -0.2751159 -0.07630816 -0.07248092 -0.11247445
0.19270459 -0.07614423 0.009628731 -0.09452215 -0.042211767 -0.17398505 -0.09045036 -0.07205579
0.07847525 -0.12671362 0.01318793 -0.3018327 -0.024100205 0.17264885 0.045142822 -0.1117736
-0.10868536 -0.11945334 -0.08498812 -0.1303317 0.11498939 0.18907769 0.031741578 0.16686743
-0.1300788 -0.3697129 0.023439966 -0.017609484 -0.096785754 0.13818413 0.07564397 -0.028943477
-0.0134119755 0.04685896 -0.2722072 -0.041634474 -0.016561551 0.1855498 0.09630375 -0.18178578
-0.14210741 -0.0027654362 -0.057150576 0.09001861 0.09197362 -0.034690652 -0.08959445 -0.37088603
-0.19194828 -0.033652794 -0.27536288 0.067388706 0.08485589 0.005438492 0.10517177 -0.1707476
-0.08000072 -0.055369858 0.016396666 -0.36325946 -0.26135728 -0.004389887 -0.04433413 -0.08990857
-0.09467896 0.20877582 0.14208432 -0.058899153 0.036900304 -0.08117158 -0.2001733 -0.01586475
-0.19346645 -0.07024615 0.027091173 -0.1098361 -0.1058153 -0.23102613 -0.016071396 -0.04321577
-0.21460602 -0.095956914 -0.16448951 -0.15162653 0.07932465 -0.011573341 0.055441476 0.013948603
-0.17162031 -0.0028631145 -0.009741539 -0.028438715 0.03334979 -0.12666453 -0.18131791 -0.021245813
0.06572339 -0.031420704 -0.111997806 0.124196395 0.037155926 -0.0669772 -0.18187433 -0.062838465
0.070308216 -0.22138454 -0.11044366 0.045434423 -0.211744 -0.3229776 0.07660483 -0.1849889
0.08873106 0.08027431 -0.008647038 -0.05863466 -0.009930219 -0.059836797 0.008209469 -0.122659564
-0.15106001 -0.009316839 -0.11893114 -0.024034895 -0.102823675 -0.13710195 -0.074692816 0.1548957
-0.18144062 -0.23658486 0.04864532 -0.0387327 0.040862285 -0.02242827 0.031971883 -0.04038271
0.056013793 -0.23215431 0.01658774 -0.14913613 0.15918407 0.11246301 -0.09478939 -0.12635422
0.03762562 0.21894667 0.037260555 0.16736495 -0.20906413 -0.11225002 0.032471266 -0.17872648
0.0489731 -0.35301518 -0.032909073 -0.1886051 -0.06869093 -0.0386887 -0.011998844 0.011275385
0.008952737 -0.22806376 -0.040399484 0.04553094 0.11006468 -0.016829845 -0.0633008 0.114192024
-0.14318284 -0.013194209 -0.1284788 0.16102327 -0.062057592 0.1279547 -0.3436263 0.0874289
-0.09625284 -0.3824091 -0.10973405 -0.22496112 0.042910036 0.09006155 0.015215738 0.027295196
-0.09975929 0.13345426 -0.07269195 -0.023747345 -0.08059691 -0.1609252 -0.025332814 -0.27240583
-0.114929914 0.12700014 -0.07862637 0.014241668 -0.0703439 0.21679316 -0.12201398 0.04571116
0.01987899 0.14304525 0.15809092 0.03246579 -0.21758427 0.015827997 -0.01685111 0.13223107
-0.038656622 -0.025867036 -0.13410026 -0.029206054 -0.013072199 0.027859826 -0.018241646 -0.0874946

fc2.bias f4 [75]
00000000: 9b52 32bc 9154 4b3d af0c ff3c 9f3c 33bd
00000010: c2a7 1a3d 3119 4ebd 2e33 bfbc e2a6 bebc
00000020: dbc7 033d cde1 d73c f970 d13c 46b3 9c3d
00000030: 4832 973d 0fad a2bd db3a 933c afc9 c8bd
00000040: 9a1c bcbd 2862 ebbc f2ba 0d3d a8ce bebb
00000050: 887b 20bd 42b1 f3bb f554 163d 196c 54bd
00000060: 60fd c0bd 6f61 953d b00e 903e aa14 90bd
00000070: 9cd8 ffbc 4064 50bd 489f 68bd 1bae 233e
00000080: c0c3 87bd 93a0 423c cba4 703d b733 723d
00000090: 5d52 753d ff26 9dbd b2e0 e53d a4a1 ca3c
000000a0: 857d 36bd fe3a 6abd 84cb f7bb 188d 9abc
000000b0: 6a5b 95bd cd6e c6bc cb3a bbbd 958a c1bd
000000c0: 1a73 d53d 96b4 a0bc cc2c debd 9c7c bebc
000000d0: 506a 5a3e 236e 293d 8159 ae3a 7bcf a0bd
000000e0: 248c 12bb 335f 48bd 986f 0a3d ea1e d83c
000000f0: 91d4 3abd c091 b7bd 3ac8 de3c 2da4 39bd
00000100: 0d8e 203d 99d4 313c c09d 9a3d b60a 1bbd
00000110: 5b6d 32bd 2814 0bbd 0e75 19bd 3150 a7bc
00000120: fe82 05bd b794 78bd be30 10bc
-0.0108839525 0.049641196 0.031133978 -0.043758985 0.037757643 -0.050316993 -0.023339834 -0.023272935
0.03217302 0.026352787 0.025566565 0.07651381 0.07382637 -0.079431646 0.0179724 -0.09804093
-0.09185143 -0.028733328 0.034602113 -0.005822975 -0.03918031 -0.0074369023 0.036702115 -0.051860902
-0.094233274 0.072939746 0.28136206 -0.07035191 -0.031231217 -0.050876856 -0.056792527 0.15984385
-0.06629133 0.011879104 0.05875091 0.05913135 0.059893 -0.076734535 0.11224498 0.02473528
-0.0445533 -0.057185166 -0.0075621027 -0.018866107 -0.072928265 -0.024222756 -0.09142073 -0.094502605
0.104223445 -0.01961736 -0.10848388 -0.023252778 0.21329618 0.0413648 0.0013301821 -0.07852074
-0.0022361362 -0.048918914 0.03379783 0.026381928 -0.045612875 -0.089633465 0.027195085 -0.045322586
0.03919797 0.01085391 0.0754962 -0.03785201 -0.04356132 -0.03395477 -0.037465148 -0.02042398
-0.032595627 -0.0606887 -0.008800684

fc3.weight f4 [4, 75]
00000000: 8a6a 9bbe a8f6 2f3e b9d5 aabe e6b7 eb3d
00000010: a56c 9d3c a797 f73a a853 fabb 91a9 a73e
00000020: 28ac b5bd 02f9 0f3e c043 9bbd 7093 e43c
00000030: 9d9c 943e b831 3b3e 8824 7dbc f310 26be
00000040: 4397 ce3d 4bcc 61be 7b2d ab3d 4de2 1fbe
00000050: d6f7 b83c 35eb 613e 8139 593d ec11 053e
00000060: 7abd e13b 2e16 9e3d 723b 0f3e f0db 903b
00000070: 92eb cfbd 9b87 18bf 6e36 8c3e 919b b43d
00000080: 11c5 cebc 7411 dcbc 4c61 2dbe 64e8 783e
00000090: 2a2b dbbd 14bf 023e 249f 543d 02b6 33be
000000a0: 7013 9b3d 9c02 4b3c 998b 333e 6be9 183e
000000b0: 4727 953d 1c00 0cbe 9436 983e 6a20 b4be
000000c0: af51 6d3e 8b8d 24bb 9213 be3c 13f0 113e
000000d0: 1990 f93d 512e 8a3d 8067 c23c 243c 663e
000000e0: fbde 55bd afee 553e ce49 d5bd 6686 aa3b
000000f0: e3fa ea3d b2d6 3ebd 4b14 86bb cf72 563e
00000100: 105b 373e f0e2 0bbe ae98 e5bd f41f 25bd
00000110: ad77 e13d 2e52 393e aee9 413e a767 6f3d
00000120: b9dd 6e3e e871 95bd 7408 783d aec4 2a3d
00000130: 0c3b e03e 3796 a03e 7901 d93c 355e 863d
00000140: 0a15 10bf 10d9 cfbc 2552 af3e 2623 98be
00000150: fcc7 33bd 802d a63e b976 ca3d dc39 be3e
00000160: 41cc cebc cb8b a0be 0724 5ebe 604d e0be
00000170: b681 8a3d dc73 27be 2110 263e 74a0 053d
00000180: 8e5a 3d3c 3193 803e 75f8 833e 7ba3 3b3e
00000190: 2da6 383e f8ac e83d 98e5 62be 7d16 21bd
000001a0: 1805 b0be d908 963e 63d6 a93d 64c1 853c
000001b0: bb47 8fbe 52fe 043e 8689 733e c543 c1bd
000001c0: b312 703e 4927 283d 9ea2 97be 6d51 a43d
000001d0: 5274 12be 400e 933e 579c a73d 3853 a83a
000001e0: 82b5 f83e 723b 11bf a99f 5abe 5869 033e
000001f0: 0aa8 103f b678 60bd 1358 c93e 0536 0d3e
00000200: a822 9d3e a216 01be 8380 babe d74d df3e
00000210: 7222 67be bb98 b43e 1ceb da3e ffbd 0c3f
00000220: 91a6 bf3d 0cab 09bf 6510 ad3d 9939 1f3e
00000230: 01fb 9fbe bada 833d 241a 83bd 3aa5 62be
00000240: 0f35 a33e 19b2 cc3e 00a0 c83e f120 283d
00000250: 253c 76be 5743 4e3e 8eb8 ce3e 67c0 7e3e
00000260: 8428 903e c028 9dbd 64cf c8bd 2391 b23e
00000270: 63db 123e 3084 033f 57ce b93e b24a 603e
00000280: 735a ff3a 6ba0 163e 95d6 7f3b 33ce ca3a
00000290: ef24 8f3e 903f a3bd 182b d3bd 9868 52be
000002a0: a988 8bbe d258 a0bd e6a3 88be 6086 88be
000002b0: 04f0 ba3d b8e6 8b3e 0c77 88be 2f83 513e
000002c0: d666 453e a18b 26be 59a2 a1be c25c 293e
000002d0: f1f4 c93d 63a4 af3c 802f 20bc 0a0e 62be
000002e0: 002c 83be c924 7a3e 3cf8 8d3d ea74 3abe
000002f0: f68c c4bd 0d7f 48be 841f 9f3d c9a9 ed3d
00000300: dfe8 09be 29fa e83e 62b3 df3d a15c 01be
00000310: 7548 d63e b22f 96bc cfb7 6c3d cabe 71bd
00000320: e664 543e 8c94 32be fa00 b83d 3831 0d3e
00000330: 6275 ebbe 9b87 943d 8f0a 473e e681 9abe
00000340: 396b 66bd 8537 a83e 7e86 70bd 364c 473d
00000350: cd86 fbbe 1f58 cf3b 56e6 95bd 1569 90be
00000360: 0d5a b2bb 10a5 8a3e 682c c9bc a1f9 a4bd
00000370: 2a14 18be f666 7d3e 7840 32be 7c3a 12be
00000380: 374b 12be 7d4a 003b 4594 fa3d 88f3 03bd
00000390: 1c5f ccbd 6e8e e6bd 3d6c 47bd 6bb2 23be
000003a0: c6c4 273e 5bc3 3ebe fb45 8ebd eb3a 673e
000003b0: e3c1 8f3d 48ac bf3e f111 6c3e 6d1c 9abe
000003c0: caa6 37be 9da9 9ebd 7940 c33d 5216 d4bd
000003d0: 4b73 88be 1f13 b2be ec8f 143d 2ef9 40be
000003e0: 5448 3e3e 09d3 483e 690f 1abe fac8 593e
000003f0: c467 7b3e 9e56 6b3e 6a73 573d 14e2 a73e
-0.3035472 0.17183936 -0.33366182 0.11509685 0.019216845 0.00188898 -0.007639367 0.32746556
-0.08870727 0.14059833 -0.07581282 0.027902335 0.29025736 0.18280685 -0.015450604 -0.16217403
0.10087445 -0.22050588 0.08358284 -0.1561367 0.022579115 0.2206238 0.053033356 0.12995118
0.0068890424 0.07719074 0.1398752 0.00442075 -0.10152353 -0.5958192 0.27385277 0.088187344
-0.025240453 -0.026863791 -0.16931647 0.243074 -0.10701592 0.12768203 0.05190958 -0.17549899
0.07572067 0.012390759 0.17533721 0.14932792 0.07282882 -0.13671917 0.2972914 -0.3518098
0.23175691 -0.002510878 0.023202691 0.14251737 0.121856876 0.067471154 0.023730993 0.2248388
-0.052214604 0.20891832 -0.10414468 0.00520401 0.11473634 -0.04659147 -0.0040917746 0.20942234
0.17905831 -0.13660789 -0.11210762 -0.040313676 0.110091545 0.18097755 0.18936798 0.05844846
0.23326768 -0.072971165 0.060554937 0.041691475 0.4379505 0.31364605 0.02648996 0.06560937
-0.56282103 -0.025372058 0.3424236 -0.29714316 -0.04389189 0.3245659 0.09885926 0.37153518
-0.02524388 -0.31356654 -0.21693431 -0.43809032 0.06763022 -0.1635279 0.1621709 0.032623723
0.011557234 0.25112298 0.25775495 0.18324082 0.18032141 0.11361116 -0.22157896 -0.039328087
-0.34378886 0.29303625 0.08292844 0.016327567 -0.27984414 0.1298764 0.2378293 -0.09436754
0.23444633 0.04105309 -0.29616255 0.08023343 -0.14302185 0.2872181 0.08184116 0.0012842184
0.4857598 -0.5673133 -0.21349968 0.12833154 0.5650641 -0.05480262 0.39325008 0.13790138
0.30690503 -0.1260629 -0.36426172 0.43614075 -0.22571734 0.35272774 0.427575 0.5497741
0.09357942 -0.5377662 0.08450393 0.15549316 -0.31246188 0.06438203 -0.0640147 -0.22133341
0.31876418 0.39979628 0.3918457 0.04104704 -0.24046381 0.20142876 0.4037518 0.24878083
0.2815591 -0.07673788 -0.098051816 0.34876356 0.14341502 0.5137358 0.36290237 0.21903494
0.0019481912 0.14709632 0.0039037813 0.0015472829 0.27957866 -0.07971108 -0.10310954 -0.20547712
-0.272527 -0.07829441 -0.26687545 -0.2666502 0.091278106 0.27324462 -0.26653326 0.20460199
0.1927751 -0.16264202 -0.31569174 0.1653929 0.09861172 0.02144069 -0.00977695 -0.22075668
-0.25619507 0.24428095 0.069321126 -0.18208662 -0.09597199 -0.19579716 0.07769683 0.116046496
-0.1346774 0.45503357 0.109228864 -0.12632991 0.41852155 -0.01833329 0.05779248 -0.05901984
0.20741615 -0.17439479 0.08984561 0.13788307 -0.45987993 0.07252427 0.19437622 -0.3017723
-0.0562546 0.32854858 -0.05872201 0.048656665 -0.49126282 0.0063276435 -0.07319324 -0.2820517
-0.005442864 0.27079058 -0.024557307 -0.080554254 -0.14851442 0.24746308 -0.17407405 -0.14280123
-0.14286505 0.0019575648 0.122353114 -0.03221467 -0.09979078 -0.11257635 -0.04868721 -0.1598603
0.16383657 -0.1862921 -0.069469415 0.22581069 0.07019403 0.37436128 0.23053719 -0.30099812
-0.17934719 -0.07747195 0.095337816 -0.1035582 -0.26650462 -0.34780213 0.036270067 -0.18845055
0.18582278 0.19611754 -0.15044941 0.21268073 0.24551302 0.2298226 0.0526003 0.3278967

fc3.bias f4 [4]
00000000: 0a1f 833e 7655 4f3e d3e1 703e 2db7 433e
0.25609618 0.20247445 0.23523645 0.19112845
