checkpoint.pth (torch_old, 54563 bytes, 6 tensors)

fc1.weight f4 [128, 37]
0	0x3c87dfc0	0.016586185
1	0xbbb8ff19	-0.0056456444
2	0xbd6c3c99	-0.057674978
3	0x3d6c36a7	0.057669308
4	0x3e0cef35	0.13763125
5	0xbe0f1fe6	-0.13977012
6	0x3e09e699	0.13466872
7	0x3e004a9c	0.12528461
8	0x3e493f2f	0.19653009
9	0x3ec64296	0.38722676
10	0x3c7bd1e4	0.015369866
11	0x3d9e4221	0.07727457
12	0xbdd2e2ec	-0.10297188
13	0x3d2e75c2	0.04259277
14	0x3e0512ea	0.12995496
15	0x3cfaed12	0.030630622
16	0xbcfefe76	-0.031127196
17	0x3d1d654a	0.038426675
18	0x3e4ea705	0.201809
19	0x3d363044	0.044479623
20	0x3e74c148	0.23901856
21	0xbf0e8d1e	-0.5568408
22	0xbe9f14c3	-0.31070527
23	0xbf8eaacc	-1.1145873
24	0xc038bae2	-2.8864064
25	0xbdd80145	-0.10547117
26	0x3e176aa1	0.1478677
27	0xbd0e2384	-0.03470184
28	0x3dda287d	0.10652254
29	0x3e923fea	0.28564388
30	0x3e08bfbb	0.1335439
31	0xbd06dd1c	-0.03292571
32	0x3d0acc27	0.0338861
33	0xbcbea0cf	-0.023270039
34	0x3dbfd3f3	0.09366598
35	0xbce2eea1	-0.027701678
36	0xbba36dd4	-0.0049874578
37	0x3bff57e5	0.0077924603
38	0x3daf4b63	0.08559301
39	0x3e134f65	0.14385755
40	0x3e1c7a98	0.15281141
41	0xbe0cc94f	-0.13748668
42	0x3cf2a39f	0.029619036
43	0x3e157a15	0.14597352
44	0x3ce80d9e	0.028326806
45	0xbe18fb37	-0.14939581
46	0xbdb1bd91	-0.08678735
47	0x3ef2465f	0.47319314
48	0xbed95e30	-0.42454672
49	0xbea5b3c5	-0.32363716
50	0xbf3dcfa7	-0.7414498
51	0xc0091c84	-2.1423655
52	0x3e412fb9	0.18865861
53	0x3d745d0c	0.05965905
54	0x3de7e8ea	0.11323722
55	0x3e1531b8	0.14569747
56	0x3d0943dc	0.03351198
57	0xbd5cb113	-0.05387981
58	0x3d8441f4	0.06457892
59	0x3db54843	0.088516735
60	0x3dfb0703	0.12257197
61	0x3e62f841	0.22165014
62	0x3e189229	0.14899506
63	0x3d7ed024	0.062210217
64	0x3e37aebe	0.17937753
65	0x3e5c7a54	0.2153104
66	0xbcd633c9	-0.02614774
67	0xbc9e65b9	-0.019335615
68	0xbdb6c7f7	-0.08924859
69	0xbd25e541	-0.040501837
70	0x3d106337	0.03525087
71	0xbdb778b3	-0.089585684
72	0x3c3766ff	0.01119399
73	0xbab56dff	-0.0013841985
74	0x3e0f30a8	0.13983405
75	0xbca55d8b	-0.020186206
76	0x3dce6e45	0.10079626
77	0xbd006789	-0.03134874
78	0xbe063b48	-0.13108552
79	0x3d9b492f	0.07582318
80	0xbe04496e	-0.12918636
81	0xbce228ce	-0.027607348
82	0x3e1cba0c	0.15305346
83	0xbe7a836f	-0.244642
84	0x3e4bd8e7	0.1990696
85	0xbe11c1ed	-0.14234133
86	0xbdd7081e	-0.10499595
87	0xbe679e2e	-0.22618935
88	0xbf5b9b37	-0.85783714
89	0x3dd7313c	0.105074376
90	0xbcf040bc	-0.029327743
91	0xbe1c3561	-0.15254737
92	0x3e8ad332	0.27114254
93	0x3e7c5751	0.24642684
94	0x3d59c749	0.05316857
95	0xbe64853c	-0.2231645
96	0xbe3b109b	-0.18268053
97	0xbab62c85	-0.0013898766
98	0xbeb57399	-0.35439757
99	0xbe2153eb	-0.15754668
100	0x3e6247bc	0.22097677
101	0x3d546fb4	0.05186434
102	0x3e104326	0.14088115
103	0x3eb0b416	0.34512395
104	0x3e31c9d6	0.1736215
105	0xbe0bb9a9	-0.13645042
106	0xbe907f73	-0.28222236
107	0x3e3ce30f	0.18445991
108	0x3e9bbf1b	0.3041924
109	0x3b901aa0	0.004397705
110	0x3c919f18	0.017776057
111	0x3dc10853	0.09425416
112	0x3e4bac86	0.19890031
113	0xbd38c689	-0.045111213
114	0xbd686b9d	-0.056743253
115	0x3ddf797e	0.10911845
116	0x3db100d9	0.0864274
117	0x3e2e3bf3	0.17015056
118	0xbe106d59	-0.14104213
119	0x3ddbbd5b	0.10729476
120	0xbf0baea7	-0.54563373
121	0x3cc4a7d0	0.0240058
122	0x3e2ae86e	0.16690227
123	0x3cd5cbdf	0.02609819
124	0x3cfe4f7d	0.031043762
125	0xbdb1a5d9	-0.08674211
126	0x3d99dfaa	0.07513364
127	0xbe25bce3	-0.16185336
128	0x3e2ec840	0.17068577
129	0xbe552483	-0.2081471
130	0x3dc6a0f3	0.096986674
131	0xbd702cd6	-0.05863651
132	0x3d627a0a	0.055292167
133	0x3e4be54d	0.1991169
134	0x3f0a502a	0.5402857
135	0x3db56e7c	0.08858964
136	0xbeaaa308	-0.33327508
137	0xbcd506e0	-0.026004255
138	0x3e0bdec9	0.13659205
139	0x3ed2f085	0.41199127
140	0x3e00a57f	0.12563132
141	0x3e7ff5b3	0.2499607
142	0xbe3acb3d	-0.18241592
143	0x3c8a95a3	0.016917055
144	0xbebf719b	-0.37391362
145	0xbe269633	-0.16268234
146	0xbc97f4a0	-0.018549263
147	0xbdebc18e	-0.11511527
148	0x3e746a63	0.23868708
149	0xbf150c53	-0.5822193
150	0xbe55beab	-0.20873515
151	0xbeda4f40	-0.42638588
152	0xbf90c614	-1.1310449
153	0x3ca2edf0	0.019888848
154	0xbe3c6eeb	-0.18401687
155	0xbf02d0d8	-0.5109992
156	0xbeb78400	-0.35842896
157	0x3e3712bc	0.1787824
158	0xbd356337	-0.04428407
159	0x3e576adf	0.21036862
160	0xbf2145d8	-0.629972
161	0xbe89833d	-0.2685794
162	0x3f139851	0.5765429
163	0x3e676d10	0.22600198
164	0xbf021c36	-0.50824296
165	0xbe9700ea	-0.29492885
166	0xbf035100	-0.5129547
167	0xbe0dfd0b	-0.1386606
168	0xbef7d133	-0.48401794
169	0x3de61434	0.11234322
170	0x3d2dc292	0.042421885
171	0xbed9fde8	-0.42576528
172	0xbd968112	-0.07348837
173	0x3e478265	0.19483335
174	0xbf30d358	-0.69072485
175	0x3e4ad6f7	0.19808565
176	0xbdb41366	-0.087927625
177	0xbe91bc99	-0.284642
178	0xbdab930d	-0.08377657
179	0x3e174fd7	0.1477655
180	0xbe626865	-0.22110136
181	0xbedfdb0b	-0.43721804
182	0xbf515493	-0.81769675
183	0x3d512d25	0.051068444
184	0xbd151909	-0.03640083
185	0xbed8ffa0	-0.42382526
186	0x3e493039	0.19647302
187	0xbeb3f615	-0.35148683
188	0xbf2b80f0	-0.6699362
189	0xbcd5d585	-0.02610279
190	0xbec96c9c	-0.39340675
191	0xbe8bcc6f	-0.27304408
192	0x3db30138	0.08740467
193	0xbe82298f	-0.25422332
194	0x3e04aa5e	0.12955615
195	0xbebca9f1	-0.36848405
196	0xbead371e	-0.33831114
197	0x3e811273	0.25209388
198	0xbe92cdba	-0.28672582
199	0xbf6310d2	-0.8869754
200	0xbf0eb091	-0.5573817
201	0xbecd03b0	-0.40041876
202	0x3e8aefaf	0.2713599
203	0xbe7ad742	-0.24496177
204	0x3d29d3ee	0.041461878
205	0xbe64aa71	-0.22330643
206	0xbea9ec0e	-0.33187908
207	0x3e04ef61	0.12981941
208	0xbf3e7046	-0.74390066
209	0xbf0d8772	-0.552848
210	0xbde657d4	-0.11247221
211	0xbf46e674	-0.77695394
212	0xbe82b431	-0.255281
213	0x3e02c498	0.12770307
214	0x3e11054f	0.14162181
215	0xbe3f405b	-0.18676893
216	0x3d867706	0.06565671
217	0xbe0d396a	-0.13791433
218	0xbef5d960	-0.48017406
219	0x3eae78f6	0.3407666
220	0x3d12eb60	0.035869002
221	0xbd34b24a	-0.044115342
222	0xbd9942bc	-0.07483432
223	0xbda2f4ae	-0.07956825
224	0xbea65984	-0.3249017
225	0xbe3c0a7e	-0.18363377
226	0xbf0d5e1d	-0.5522173
227	0xbe5b9c9a	-0.21446458
228	0x3e32c6ed	0.17458697
229	0x3ef6eb39	0.48226336
230	0xbe93e421	-0.28884986
231	0xbf619bce	-0.88128364
232	0x3ce3679b	0.027759364
233	0x3dd961f5	0.10614387
234	0xbf15d963	-0.5853483
235	0xbdc39d67	-0.095515065
236	0xbe384a8a	-0.17997184
237	0xbf036ae6	-0.5133499
238	0x3ec82666	0.39091796
239	0xbeed8c95	-0.46396318
240	0x3d824e6a	0.063626125
241	0xbef9df50	-0.48803186
242	0x3da19fec	0.07891831
243	0x3e1a1aaa	0.15049234
244	0xbe28acb4	-0.16472131
245	0x3c491466	0.01227293
246	0xbea03a8b	-0.31294665
247	0xbcdda313	-0.027055299
248	0x3da58795	0.08082501
249	0xbe09a3c9	-0.13441385
250	0xbeba76cd	-0.36418763
251	0xbf00d4ee	-0.50324905
252	0xbed4a252	-0.4153009
253	0xbe242fdd	-0.16033883
254	0x3aeb3e69	0.0017947677
255	0x3efddac7	0.49580976

fc1.bias f4 [128]
0	0x3dbba8c6	0.0916305
1	0xbbd85df5	-0.0066029974
2	0xbdf7e01c	-0.12103292
3	0x3d714e08	0.058912307
4	0xbca9b9d6	-0.020718496
5	0xbeb493cf	-0.3526902
6	0xbdc7fd7c	-0.09765145
7	0xbc85cb78	-0.016332373
8	0xbd95113b	-0.07278677
9	0x3d710d09	0.058850322
10	0xbe66e2fa	-0.22547522
11	0xbc843103	-0.016136652
12	0xbe300391	-0.1718886
13	0x3e0cfcd4	0.13768321
14	0x3d95f551	0.07322181
15	0x3e71883d	0.23587127
16	0xbd849f4b	-0.06475695
17	0xbd6ca750	-0.05777675
18	0xbdb8efc1	-0.090301044
19	0xbe40657d	-0.18788715
20	0xbc43af4a	-0.011943648
21	0xbccf6db9	-0.025320875
22	0xbe569ea4	-0.20958954
23	0x3ca7d8f2	0.02048919
24	0x3e3345ce	0.17507097
25	0xbdb0aa4f	-0.08626234
26	0xbe419440	-0.18904209
27	0x3e3d1cea	0.18468061
28	0x3d238c0d	0.039928485
29	0x3da19f93	0.078917645
30	0xbd8530aa	-0.065034226
31	0x3e349baf	0.17637514
32	0x3eb65f7c	0.35619724
33	0xbd2056de	-0.039145343
34	0x3d9fb022	0.077972665
35	0x3e0674b4	0.13130456
36	0x3d58f4cd	0.052967835
37	0xbd3ffea2	-0.046873696
38	0x3bfd348b	0.007727211
39	0xbcb979d0	-0.022641093
40	0xbe06266f	-0.13100599
41	0x3dfbd9bb	0.12297388
42	0xbd89f17c	-0.067355126
43	0xbe9a3162	-0.301158
44	0xbd41a743	-0.047278654
45	0xbe470ade	-0.19437739
46	0xbd24e5f3	-0.04025836
47	0xbd45353d	-0.048146475
48	0x3dab951b	0.08378049
49	0xbdf572a3	-0.11984756
50	0x3cdea244	0.027176984
51	0xbdbb8f65	-0.0915821
52	0x3e2ea2d6	0.17054304
53	0xbd1c5965	-0.03817119
54	0xbd8683d2	-0.065681115
55	0x3e153cf2	0.1457403
56	0xbd02cbb9	-0.031932566
57	0xbe6b5579	-0.22981824
58	0x3d1c9a2b	0.038232964
59	0xbdfc3563	-0.1231487
60	0xbd90e4e4	-0.070749074
61	0x3e4e1e33	0.20128708
62	0xbe177c68	-0.14793551
63	0x3b1b6cae	0.0023715901
64	0x3dd9cd7f	0.106348984
65	0x3c1bbbc4	0.009505216
66	0x3cda06d2	0.02661458
67	0xbd86a59d	-0.06574557
68	0xbe54d68e	-0.20784971
69	0x3df61a71	0.12016762
70	0xbd1fdaa0	-0.039026856
71	0x3e4ca923	0.19986396
72	0x3ed81e64	0.42210686
73	0x3e180714	0.1484645
74	0xbd7f69fa	-0.062356927
75	0xbe440e3b	-0.19146053
76	0xbd8b5b7d	-0.068045594
77	0xbce7bdf5	-0.02828882
78	0xbe3bd46b	-0.1834275
79	0x3e2ee084	0.17077833
80	0x3cc9c97b	0.024632206
81	0xbe36c166	-0.17847213
82	0x3dcad338	0.09903568
83	0xbdf6d396	-0.120520756
84	0x3dce0195	0.100588955
85	0xbd0aaf9e	-0.033858888
86	0x3e20bc1a	0.15696755
87	0xbd8218a2	-0.063523546
88	0xbdbcfddb	-0.092281066
89	0x3e3aee87	0.18255053
90	0xbdc293e5	-0.09500865
91	0x3e10102f	0.14068674
92	0xbc3c39df	-0.011488407
93	0xbbc9441a	-0.0061421515
94	0x3d2eb1f4	0.042650178
95	0x3c6abc0e	0.014327062
96	0xbe126cc6	-0.14299306
97	0x3e058fd3	0.13043146
98	0xbdf96243	-0.12176945
99	0xbd8b50c2	-0.06802513
100	0xbe1cb8cb	-0.15304868
101	0x3e00a669	0.1256348
102	0xbc5e25a8	-0.013558783
103	0x3ca68914	0.020329036
104	0x3db12004	0.086486846
105	0xbdf43e0e	-0.119258985
106	0xbdb9de4b	-0.09075602
107	0x3e180ec7	0.14849387
108	0x3d488a89	0.048960242
109	0xbe5c1322	-0.21491674
110	0xbe1752cf	-0.14777683
111	0xbe8f6e20	-0.28013706
112	0xbcb19090	-0.021675378
113	0x3c9076d1	0.017634781
114	0x3cee340c	0.029077552
115	0x3da998fe	0.08281134
116	0xbe151e34	-0.14562303
117	0x3ee3ecac	0.44516504
118	0x3c6d444f	0.014481618
119	0xbc924019	-0.01785283
120	0x3dcb8a7d	0.09938524
121	0xbdc8a606	-0.097972915
122	0x3dd41ae7	0.10356694
123	0xbd11eb68	-0.03562489
124	0xbdb3c4d7	-0.087777786
125	0x3d43793e	0.047723047
126	0x3e22d95e	0.15903232
127	0x3c53f8f2	0.012937771

fc2.weight f4 [64, 128]
0	0x3e831d54	0.25608313
1	0xbeb10c8a	-0.3457988
2	0x3e199f40	0.15002155
3	0xbb4ef513	-0.003157918
4	0x3ee02bdf	0.4378347
5	0x3e9cebf2	0.30648762
6	0xbe04f014	-0.12982208
7	0x3e597d99	0.21239318
8	0xbd4160c6	-0.04721143
9	0x3e417883	0.18893628
10	0xbdd7865d	-0.10523675
11	0x3d5f8cf3	0.05457778
12	0x3daafe5a	0.08349295
13	0x3c048072	0.008087264
14	0x3e91dfeb	0.28491148
15	0x3e41b476	0.18916497
16	0xbc8254c1	-0.015909554
17	0x3e84d0d9	0.25940588
18	0xbe5ce68f	-0.21572326
19	0xbe67ae31	-0.22625042
20	0xbc8b4892	-0.017002378
21	0xbe80e745	-0.25176445
22	0x3e8e3366	0.2777359
23	0xbe1902c5	-0.14942463
24	0xbe5d954f	-0.21638988
25	0xbe62f5c6	-0.22164068
26	0xbeb66fc6	-0.3563215
27	0xbefae031	-0.4899917
28	0x3e16b00e	0.14715597
29	0xbe76c902	-0.24100116
30	0x3df148ad	0.1178144
31	0x3e760b4b	0.24027745
32	0x3df677bb	0.120345555
33	0xbc7b1977	-0.0153258955
34	0x3e44c8f6	0.19217286
35	0xbdb1ab9d	-0.08675311
36	0xbed3a0ce	-0.41333622
37	0xbea0488e	-0.31305355
38	0xbf1f82dc	-0.6230905
39	0x3d774a69	0.060373697
40	0xbd1143c3	-0.035465013
41	0xbdaf506f	-0.08560263
42	0xbe3d6aa1	-0.18497707
43	0x3e3c9b83	0.18418698
44	0xbe76a59b	-0.24086611
45	0x3e3974ad	0.18110915
46	0xbd747660	-0.059683204
47	0x3d0f0d8a	0.03492502
48	0x3c5307c4	0.012880269
49	0x3d871cde	0.06597303
50	0x3ce46a41	0.027882697
51	0xbe9b19f7	-0.30293247
52	0x3e09533b	0.13410656
53	0x3e532500	0.20619583
54	0xbe9d0584	-0.3066827
55	0xbd841d7a	-0.06450935
56	0x3e3aaa0f	0.18228935
57	0x3ddafe7d	0.10693071
58	0x3df7be06	0.12096791
59	0x3c811e4f	0.015761523
60	0x3e030aea	0.12797132
61	0x3f12a43e	0.57281864
62	0xbd97da6c	-0.074147075
63	0xbe321036	-0.17388996
64	0x3eb21347	0.34780332
65	0xbe67c307	-0.22632991
66	0x3b564af0	0.0032698475
67	0x3e4ae419	0.19813575
68	0x3e8e4ccd	0.2779297
69	0xbd5f3c65	-0.054500956
70	0x3dd9922f	0.106235854
71	0x3e210755	0.15725453
72	0xbe0005b8	-0.12502182
73	0x3ec8854c	0.39164197
74	0x3d7d6830	0.06186694
75	0x3e5740c1	0.21020795
76	0x3e40d4ac	0.18831128
77	0xbd9d79b6	-0.0768923
78	0x3ea22eca	0.31676322
79	0xbe9e82c8	-0.30959153
80	0xbe9fe1bf	-0.31226918
81	0x3b1ecc71	0.0024230743
82	0xbf1abb99	-0.604425
83	0xbd8812d4	-0.06644216
84	0xbd8a67d4	-0.06758085
85	0x3de06d16	0.109583065
86	0xbeb5eaa3	-0.35530576
87	0xbe799983	-0.24374966
88	0x3e151068	0.1455704
89	0xbd234220	-0.039857984
90	0x3d16b3eb	0.036792677
91	0xbd46c67f	-0.048529144
92	0xbf0633ea	-0.52422965
93	0x3e843f77	0.2582967
94	0xbcab0b34	-0.020879366
95	0x3cc4f996	0.024044793
96	0x3d8064c2	0.06269218
97	0x3e74c881	0.23904611
98	0x3e4a7832	0.19772413
99	0xbc411f61	-0.0117872665
100	0xbebab393	-0.3646513
101	0xbe99403e	-0.29931825
102	0xbe24ef54	-0.16106921
103	0xbe8acbc3	-0.27108583
104	0x3e1439f1	0.14475228
105	0xbe2a3324	-0.16621071
106	0x3f174092	0.590829
107	0x3e75113e	0.23932359
108	0x3ddab86e	0.106797084
109	0x3e8b1c51	0.2717004
110	0x3e09e6e3	0.13466983
111	0x3e227ca9	0.15867867
112	0xbd4275ef	-0.04747575
113	0xbe13c9aa	-0.14432397
114	0x3ea676c7	0.32512495
115	0xbddf01ce	-0.10889016
116	0x3d9b9b6e	0.07598005
117	0xbdb47504	-0.088113815
118	0x3d6ca327	0.05777278
119	0xbda3c5bd	-0.079967
120	0xbdca2868	-0.09870988
121	0x3dab9ec5	0.08379892
122	0x3e496ace	0.19669649
123	0x3d9798ed	0.07402215
124	0xbf2b5d15	-0.66938907
125	0xbd3b18ac	-0.045677826
126	0xbf33c07e	-0.70215595
127	0xbe1f47e5	-0.1555477
128	0xbe626d1e	-0.22111937
129	0xbecc4a1b	-0.39900288
130	0x3dadf58f	0.08494102
131	0x3d643bc8	0.055721074
132	0x3eb1015d	0.34571353
133	0xbe9b150d	-0.30289498
134	0xbe33e300	-0.17567062
135	0xbee6484f	-0.44977042
136	0xbe6385dd	-0.22219034
137	0xbe1a0082	-0.15039256
138	0xbe6473ce	-0.22309801
139	0x3e6b9101	0.23004533
140	0xbeb39921	-0.35077766
141	0x3e7231cd	0.2365181
142	0x3b879942	0.004138143
143	0x3ca59297	0.020211501
144	0xbe497af8	-0.19675815
145	0x3ea2d663	0.3180419
146	0x3deee34a	0.11664446
147	0xbe885b99	-0.26632383
148	0xbeb17bc1	-0.3466473
149	0xbe130e4b	-0.14360921
150	0xbea1926b	-0.3155702
151	0xbe76ee86	-0.24114427
152	0xbe048fd1	-0.12945487
153	0xbe8094d3	-0.25113544
154	0xbe342baf	-0.17594789
155	0xbe856c7e	-0.26059335
156	0x3e432520	0.19057131
157	0x3eac78e8	0.33685994
158	0xbdee4c7c	-0.11635682
159	0xbcc668d7	-0.024219913
160	0x3d80a85d	0.06282113
161	0x3da76900	0.08174324
162	0xbdabda9c	-0.08391306
163	0xbed38485	-0.41312042
164	0xbec24b91	-0.37948278
165	0x3e3499c9	0.1763679
166	0xbeb35e64	-0.35032952
167	0xbde3ca52	-0.11122574
168	0x3e051c99	0.1299919
169	0xbf0442e4	-0.51664567
170	0xbeebe481	-0.46072772
171	0xbf4f1f72	-0.80907357
172	0xbe16d8bd	-0.14731117
173	0x3e53090b	0.20608918
174	0x3ec6538f	0.38735625
175	0xbd8e7d97	-0.06957548
176	0x3e52e430	0.20594859
177	0xbe573a8f	-0.21018432
178	0xbe0c7446	-0.1371623
179	0x3eaf8c01	0.34286502
180	0xbe17962c	-0.1480338
181	0x3e877338	0.26455092
182	0xbe0c97ae	-0.13729736
183	0xbd3a8756	-0.045539223
184	0x3e5c6a31	0.21524884
185	0xbe6d1ef8	-0.23156345
186	0x3e00d982	0.12582973
187	0xbdd4e062	-0.1039436
188	0xbdb3122d	-0.08743701
189	0xbd42e274	-0.047579244
190	0xbe6f9f70	-0.23400664
191	0xbe1be7c7	-0.15225135
192	0xbd3baa36	-0.045816623
193	0xbd6af1ef	-0.057359632
194	0xbf1ef63d	-0.6209448
195	0x3d024153	0.03180058
196	0xbea36c1e	-0.31918424
197	0xbe0ce44d	-0.13758965
198	0xbe977b15	-0.29586092
199	0x3e28a514	0.16469222
200	0x3e087674	0.13326436
201	0xbe3f381c	-0.18673748
202	0xbe1c969f	-0.15291832
203	0x3e711202	0.23542026
204	0xbeccb139	-0.3997896
205	0xbe6d00d1	-0.23144843
206	0x3e5d7a09	0.21628584
207	0xbf811a04	-1.0086064
208	0x3e4ca0a1	0.1998315
209	0xbcfc4692	-0.03079537
210	0x3eae490d	0.34040108
211	0x3eb5515a	0.3541363
212	0xbf2427e6	-0.6412338
213	0xbf0c3d40	-0.5478096
214	0xbe20077c	-0.15627855
215	0xbd1cd3b1	-0.038287822
216	0x3dc46a66	0.095906064
217	0x3e82b9bb	0.25532326
218	0x3e6fcd68	0.234182
219	0xbf0400e7	-0.51563877
220	0xbf4a354e	-0.78987586
221	0xbdba6295	-0.09100834
222	0xbd22fcb7	-0.03979179
223	0xbed13598	-0.408612
224	0xbeb21df4	-0.34788477
225	0xbf0c2f15	-0.5475934
226	0x3dace7a9	0.08442623
227	0xbd65fad6	-0.05614742
228	0x3e842b23	0.2581416
229	0xbd89acc2	-0.06722404
230	0xbea1f205	-0.3162996
231	0x3e31932d	0.173413
232	0x3de21093	0.110383175
233	0x3c13340c	0.008984577
234	0xbf0034ec	-0.5008075
235	0x3e32a2a1	0.1744485
236	0xbd0f1880	-0.034935474
237	0xbe31d5f6	-0.17366776
238	0x3e778810	0.24172997
239	0xbe50dd24	-0.20396858
240	0x3dca366e	0.09873663
241	0xbbec79b5	-0.007216657
242	0xbeace504	-0.33768475
243	0x3df9ab6e	0.12190901
244	0x3e771b18	0.24131429
245	0x3e726c99	0.23674239
246	0x3e1cb2d3	0.15302591
247	0xbcbe1427	-0.023202969
248	0xbeebac76	-0.46030015
249	0x3db9dbf2	0.09075154
250	0x3daa57e6	0.083175465
251	0x3e89d2a7	0.26918527
252	0xbe18ed88	-0.14934361
253	0xbd848ab1	-0.06471766
254	0x3e76849a	0.24074021
255	0xbe05adad	-0.13054533

fc2.bias f4 [64]
0	0xbcc59e94	-0.024123468
1	0xbe30b776	-0.17257485
2	0xbca485d2	-0.020083342
3	0x3d37ef3a	0.04490588
4	0x3d05d642	0.032675035
5	0x3d852982	0.065020576
6	0xbd47e781	-0.048804764
7	0x3f137d8a	0.5761343
8	0xbe876da1	-0.26450828
9	0xbb7e9f68	-0.0038852338
10	0xbe428ab7	-0.18998228
11	0x3f410398	0.7539611
12	0x3e90381a	0.28167802
13	0x3dd0e725	0.10200337
14	0x3e97d3db	0.2965382
15	0x3dba8467	0.09107285
16	0xbbb6ed66	-0.0055824993
17	0x3e30b8b8	0.17257965
18	0x3e4a0093	0.19726782
19	0x3bb20f2b	0.005433937
20	0x3dd7a14e	0.10528813
21	0xbe139c65	-0.14415129
22	0xbe1f590a	-0.1556131
23	0x3f3a3651	0.7273913
24	0xbdd3c2d8	-0.10339898
25	0xbccbd776	-0.024883013
26	0xbcbdac2e	-0.02315339
27	0xbd73b74b	-0.059500974
28	0xbe0531b1	-0.13007237
29	0xbdecdd3a	-0.11565633
30	0x3d4b99b4	0.04970713
31	0xbdda6fee	-0.1066588
32	0xbdb00851	-0.08595336
33	0xbe4e54ea	-0.2014958
34	0xbe223ed0	-0.15844274
35	0xbda72142	-0.0816064
36	0x3eb7252f	0.35770556
37	0xbde70d50	-0.11281836
38	0x3d6b9772	0.057517476
39	0xbdd955b5	-0.106120504
40	0xbe159912	-0.14609173
41	0x3eb4bab9	0.35298708
42	0xbdbc8000	-0.092041016
43	0x3cf5fb6f	0.03002712
44	0x3e486621	0.19570209
45	0x3f3d1d36	0.738727
46	0x3cbdc201	0.023163797
47	0xbdfdb74d	-0.123884775
48	0x3dc9c9e7	0.09852963
49	0x3e82ee20	0.255723
50	0x3dee42a4	0.116338044
51	0xbe355fc6	-0.17712316
52	0x3c83a723	0.016070908
53	0x3e90409f	0.28174302
54	0x3dabe99b	0.08394166
55	0x3f3aa116	0.7290205
56	0xbd6f7bea	-0.058467783
57	0xbcc333c3	-0.023828393
58	0xbea23b0f	-0.31685683
59	0x3f2ed280	0.6828995
60	0x3d96b4f3	0.07358732
61	0xbda224e3	-0.07917192
62	0xbbe258ca	-0.006907557
63	0xbe648dc0	-0.22319698

fc3.weight f4 [4, 64]
0	0x3e1ad1d3	0.15119104
1	0xbe5745b5	-0.21022685
2	0x3eb8d3cf	0.36099097
3	0x3e254f23	0.1614347
4	0x3eced4ab	0.40396628
5	0x3eb6d654	0.35710394
6	0x3e4a542d	0.19758673
7	0x3da7be2a	0.08190568
8	0xbe92601d	-0.28588954
9	0x3e24c6af	0.16091417
10	0xbe06f2c7	-0.1317855
11	0x3e19b802	0.150116
12	0x3de56958	0.11201733
13	0x3d4ba669	0.049719248
14	0x3d38bd28	0.04510227
15	0x3e601944	0.21884638
16	0x3e828a59	0.25496176
17	0xbcfab2bb	-0.030602803
18	0x3e47777c	0.19479173
19	0xbf3aaa33	-0.72915953
20	0x3dbd2be8	0.0923689
21	0xbd8cd160	-0.068758726
22	0x3e9dd24a	0.308245
23	0x3e8d4770	0.27593565
24	0xbf15460e	-0.5831002
25	0xbd64df2a	-0.05587689
26	0xbb4b3d02	-0.0031011705
27	0x3e687e1e	0.2270436
28	0x3e6e5a58	0.23276651
29	0xbdd27106	-0.10275464
30	0x3e9ebb9f	0.3100252
31	0x3c8554a8	0.016275719
32	0x3ca8a806	0.020587932
33	0xbebcf6c5	-0.3690702
34	0xbe549777	-0.20760904
35	0xbef1f3d5	-0.47256342
36	0x3e2cf107	0.1688882
37	0xbdcd6a3a	-0.10030027
38	0x3e5fc161	0.21851112
39	0x3e8a8cba	0.2706049
40	0xbecb97e6	-0.39764327
41	0x3dbf7e8b	0.09350308
42	0xbe262563	-0.162252
43	0x3eb0ace6	0.3450691
44	0x3d9df636	0.07712977
45	0x3e6bd23a	0.23029414
46	0xbdc78f68	-0.097441494
47	0xbf8a4e7e	-1.0805204
48	0x3ee62b11	0.44954732
49	0x3e36869d	0.17824788
50	0xbdff572b	-0.12467798
51	0xbe589cb1	-0.21153523
52	0x3db919e8	0.09038144
53	0x3df2d911	0.118578084
54	0x3d959449	0.07303674
55	0x3e4fa272	0.20276812
56	0x3e401593	0.1875823
57	0x3d9ed3d2	0.07755245
58	0xbe4bde22	-0.19908956
59	0x3e500301	0.20313646
60	0x3deff5ee	0.11716829
61	0x3ce4d12f	0.027931778
62	0x3e8faa6d	0.28059712
63	0xbe5dd022	-0.21661428
64	0x3e6cb2f0	0.23115134
65	0x3d3354b7	0.043781962
66	0x3c5dcf61	0.0135382125
67	0x3e3d9b8c	0.18516368
68	0x3eba39e1	0.36372283
69	0x3ede1982	0.43378836
70	0x3e436653	0.19082002
71	0x3e0b995a	0.13632718
72	0xbe573089	-0.21014608
73	0x3e8324e5	0.25614086
74	0xbaf4b207	-0.0018668779
75	0x3e878e6a	0.2647584
76	0x3e7748f5	0.24148925
77	0xbce81ead	-0.02833494
78	0xbd0d6398	-0.034518808
79	0xbd5ef72d	-0.054434944
80	0x3e475281	0.19465066
81	0x3e9b4c01	0.30331424
82	0x3e79594e	0.24350473
83	0xbe252e68	-0.16130984
84	0x3e774097	0.24145733
85	0xbe5b3009	-0.21405043
86	0x3e27725b	0.16352217
87	0x3e38fb7f	0.18064688
88	0xbda535d2	-0.08066906
89	0xbe1d7dd8	-0.15380037
90	0x3e05b4ef	0.13057302
91	0x3d0404a4	0.03223099
92	0x3e85156b	0.25992903
93	0xbf02c5f4	-0.510833
94	0x3edd07ed	0.4317011
95	0x3e0371bb	0.12836353
96	0xbe8fb898	-0.2807052
97	0x3da6630b	0.0812436
98	0xbd1bca69	-0.03803483
99	0xbe781c2b	-0.24229495
100	0x3e28dc86	0.16490373
101	0x3dbbfced	0.09179101
102	0x3e1ecf6c	0.15508813
103	0x3e89639e	0.26833814
104	0xbdc688aa	-0.09694035
105	0x3dbc54a4	0.091958314
106	0x3e6e4787	0.23269473
107	0x3e318a35	0.17337878
108	0x3cdff648	0.027339116
109	0x3e832b8b	0.25619158
110	0x3ebc0870	0.36725187
111	0x3d895667	0.06705933
112	0x3debb608	0.11509329
113	0x3e3fe0f9	0.18738164
114	0xbcb166a4	-0.021655388
115	0xbc295eac	-0.010337513
116	0xbe8e7e59	-0.2783077
117	0x3df3403a	0.118774846
118	0x3e1abdb0	0.15111423
119	0x3dac7bb0	0.08422029
120	0x3da3b261	0.079930075
121	0xbc6387ef	-0.01388739
122	0xbe7dfa76	-0.24802575
123	0x3e4876df	0.19576596
124	0x3d93f441	0.07224322
125	0x3d1196c2	0.035544164
126	0x3df68211	0.12036527
127	0xbda305aa	-0.07960065
128	0xbe1de5d2	-0.154197
129	0xbd9e6580	-0.07734203
130	0x3eec8ff1	0.4620357
131	0x3ebcb0f7	0.36853763
132	0x3e4fb384	0.20283324
133	0x3e8c9696	0.27458638
134	0x3e1353d2	0.14387444
135	0x3e944598	0.28959346
136	0xbec6c475	-0.3882176
137	0xbed06625	-0.4070293
138	0xbbe50808	-0.006989483
139	0x3e266ebc	0.1625318
140	0xbcff6df2	-0.031180356
141	0x3e8fcc00	0.28085327
142	0x3d87d40b	0.06632241
143	0xbece2ef6	-0.40270203
144	0x3e26558f	0.16243576
145	0x3eb80578	0.35941672
146	0x3e2ce1c4	0.16882998
147	0xbe3e166b	-0.1856324
148	0x3d310187	0.043214347
149	0xbf179094	-0.59204984
150	0xbe0964d0	-0.13417363
151	0x3e45eaad	0.19327803
152	0x3de9e4e1	0.11420608
153	0x3c4bc148	0.012436219
154	0x3f15eb00	0.58561707
155	0x3ee30e92	0.44347054
156	0x3eb1bf7d	0.34716406
157	0x3e5b24f1	0.21400811
158	0x3f063e7d	0.524391
159	0x3d21b770	0.03948158
160	0x3e951400	0.2911682
161	0x3e2b5ab7	0.16733824
162	0x3d9313d0	0.07181513
163	0x3d9d98c2	0.07695152
164	0x3e0c0fe2	0.13677934
165	0xbcf9f481	-0.030512096
166	0x3ec58edf	0.38585564
167	0x3e511ebb	0.20421879
168	0xbf2764fc	-0.65388465
169	0x3e110070	0.14160323
170	0xbed42607	-0.41435263
171	0xbea7f9d9	-0.32807806
172	0xbf1100af	-0.5664167
173	0x3e367e9b	0.17821734
174	0x3e916ed8	0.2840488
175	0xbdda8c9e	-0.10671352
176	0x3ebb9419	0.36636427
177	0x3e0d4b56	0.1379827
178	0xbe9b675e	-0.303523
179	0x3e246c4c	0.16056937
180	0x3e89cf37	0.26915905
181	0x3e5079f3	0.2035902
182	0x3ebfe57d	0.37479773
183	0x3e4719cb	0.19443433
184	0x3e838389	0.2568629
185	0xbd33faa0	-0.043940187
186	0xbe09c6bf	-0.13454722
187	0x3e3b9bae	0.18321106
188	0x3e584bb3	0.21122627
189	0x3f059282	0.5217668
190	0xbcf00e01	-0.029303553
191	0xbe7bf515	-0.2460521
192	0x3e1e4773	0.15456943
193	0xbe004001	-0.12524416
194	0x3f0781fc	0.52932715
195	0x3d994c5a	0.07485266
196	0x3e168e78	0.14702785
197	0x3ee514ed	0.44742528
198	0xbe10e0e1	-0.14148284
199	0x3e209e3f	0.15685366
200	0xbdb2cef5	-0.0873088
201	0x3e90ce88	0.2828257
202	0x3e0441fc	0.12915796
203	0x3e99a9ac	0.30012262
204	0x3e1a22fa	0.15052405
205	0x3e8b4518	0.27201152
206	0x3e5c4502	0.215107
207	0x3eeb68cb	0.45978388
208	0x3e7eab3a	0.24870005
209	0x3e87e97b	0.2654532
210	0x3e9aa0c7	0.30200788
211	0xbf139ec6	-0.57664144
212	0x3e04d466	0.12971649
213	0xbe24ef98	-0.16107023
214	0x3ed58e0c	0.41709936
215	0x3e4613fd	0.19343562
216	0x3e31318c	0.17304057
217	0x3f02cbaa	0.51092017
218	0x3df0c950	0.11757147
219	0xbd135c15	-0.03597649
220	0xbe03b21b	-0.1286091
221	0xbe5d9d0f	-0.21641944
222	0xbe567e67	-0.20946656
223	0x3efee979	0.497875
224	0x3f00a47d	0.5025099
225	0xbe68c0e8	-0.22729838
226	0xbe2a4961	-0.16629554
227	0xbe2835b7	-0.1642674
228	0x3dc6f6d1	0.09715045
229	0xbbe05ac8	-0.0068467595
230	0x3de335d4	0.11094251
231	0x3dc36075	0.09539882
232	0xbe923b3b	-0.28560814
233	0x3dd6783e	0.10472153
234	0xbea1536b	-0.31508955
235	0xbea0f114	-0.31433928
236	0xbf154c2a	-0.5831934
237	0x3e36c7a6	0.17849597
238	0xbe82c51b	-0.25541005
239	0x3e4d3c6c	0.2004258
240	0xbea16307	-0.31520864
241	0x3e379290	0.17927003
242	0xbf0225dd	-0.50839025
243	0xbd927d49	-0.071528025
244	0x3d8a2ac1	0.06746436
245	0x3dcb976b	0.0994099
246	0xbe0d0cb8	-0.13774383
247	0x3e43c7f4	0.19119245
248	0x3e901fed	0.28149357
249	0xbe8985b6	-0.26859826
250	0xbe888f3e	-0.26671785
251	0x3db789ee	0.08961855
252	0xbeeca7b2	-0.4622169
253	0x3d27fc3a	0.041012026
254	0x3f1274c7	0.5720944
255	0x3d885c10	0.066581845

fc3.bias f4 [4]
0	0x3f167f40	0.5878792
1	0x3eeb2ed5	0.45934168
2	0x3f0b79c9	0.54482704
3	0x3f1a75a0	0.6033573
