checkpoint2.pth (torch_old, 22398 bytes, 6 tensors)

fc1.weight f4 [80, 37]
00000000: 1132 8b3c c3b2 b0bd 3da7 26bc e044 4a3e
00000010: e551 1ebe a783 203d 8546 b33b 736d 133e
00000020: ae0d ba3d 4478 503d 18fe db3d 5308 a8bd
00000030: 0dea bb3d 0e9f 1e3d 8ade e8bd 5666 b7bd
00000040: df10 ecbc 615c 273e fc2a 1c3e db76 d83d
00000050: acef 02bd e7ad 27bd 481e 36bd 24b5 dfbd
00000060: c07d 29be 8e34 4d3d 776f 313e 34eb d73b
00000070: 1559 25be db52 363e 9947 df3d 58b1 823d
00000080: f839 093e 0a3b aebd 8c9e a4be bab5 1dbd
00000090: b81c ba3d 96c7 c43c 4773 553d 775c b7bc
000000a0: a448 bf3d 53c8 9dbc 0b72 a43e eaa5 f6be
000000b0: 4251 75be 0eec 1f3d 5f3c afbf b47c fd3c
000000c0: cf5e 13bc 5e5a 263d ff1e f63b c8b7 adbd
000000d0: 5901 ed3d c855 923d 7ea1 2d3e 3b2a 2c3e
000000e0: 545f 33bd 55ce 5abc 728f 8d3d 5ab4 8f3d
000000f0: aa67 4fbd f6da 9a3d 08d3 1f3e ecd0 443e
00000100: 619c fd3c b73d aebb 8ff9 5d3b 1da9 453d
00000110: 5079 4cbb 2960 84bd e1b3 8f3d c14d 01be
00000120: b57d 8e3c 2b0f d53b 1e89 863d 5323 583d
00000130: 9e86 123e 8b18 3f3d a2d4 febd ea6b 913e
00000140: 1e7a 0dbf 6227 cdbe e9a2 8bbe c454 a3bf
00000150: d93b 933d f5f6 79bd 9be0 26bd bbb3 193e
00000160: 3c86 70bd 3208 913d d87a a43d fd8b 18bc
00000170: e994 9d3c 8f69 703d e2f8 f3bc 22e5 2fbd
00000180: f49d a43c d141 243d 4772 82bd 288b 2ebc
00000190: 54bd 003e 548b 873d 8ff9 763e 5b31 af3d
000001a0: 97fc 20be 7c5f b13d 09ef 023e 13c9 5c3d
000001b0: d7ca a43e bba1 7c3b 975d 2d3c 1ef8 cb3d
000001c0: dc85 fd3d 4c29 173c a87f 8abd d5db e63d
000001d0: 5bb2 8a3e a8c9 cc3d f48c 02bf dc40 48be
000001e0: 1065 47bf b2ff bd3c f0cf 143e 1338 efbd
000001f0: 9b72 fe3d 02b7 8fbd 9433 73bd 6d73 4cbd
00000200: 2651 cc3c 8fbc 6c3e 3437 09be 830b 6a3d
00000210: e29d a33d f49d 673e cacf d73d 8754 f83d
00000220: c882 533e 8f46 99bd cc82 56bb 50f0 72be
00000230: 3e9f 64be 9b73 9b3c bbb4 c6bd 729f fe3d
00000240: a73f 983c cdec 863c b95d 34bc 688b 7b3c
00000250: ee03 703e dc0b 5abe 2bc6 78bc 4306 1a3e
00000260: 0430 05bf c385 523d 7b4c edbd 0c8b 14be
00000270: 57f5 d7bd 1871 30be e27c d8bd 2181 cfbd
00000280: 41fc 16bd 463d 863e 1793 8fbe 8541 493e
00000290: b00a 8dbe 0155 273e 6214 8bbe a567 74be
000002a0: 6517 1bbc 3c2c 24be bdb1 89bd 9457 7fbd
000002b0: db4e 79bc 3c97 bb3d 611e 143e 9bfd 593e
000002c0: fbba b73c f883 c9bd 204a 1ebe 4ed9 8a3d
000002d0: 88a9 023e aff5 60be f83d 82be 9471 35bd
000002e0: 86ea 27bd 9038 2e3e a7b9 1cbe 678e 07be
000002f0: 6abb 27be 9627 8cbd 0718 373d dcd1 023d
00000300: b463 c7be 5021 de3d dc41 863e 102e abbd
00000310: fbbc 52bc 223e 02bd f34f 0f3e 3eff 31be
00000320: c517 073e b453 dbbd a3c4 d6bd 5e07 37be
00000330: c9a3 c93d cd99 013e 3304 e7bd 8d47 b5bd
00000340: 2a47 a0bd 1d18 b13e 06a5 743c 6efc 09bd
00000350: 30c3 36be a082 b73d 4879 453e 5aaa 513d
00000360: cea1 253e 08c0 ebbd 35d7 9ebb 9143 033f
00000370: 0583 6ebe 2467 4c3d 7c2b 92be 4ef8 e73c
00000380: 45eb dfbc 5fa0 47bd e587 edbd 0015 abbd
00000390: a162 6c3e b99e ed3c 9e5f 8f3e 8b94 403d
000003a0: 5f38 83b8 323a 2abd b2de 51bd 7ff8 8c3d
000003b0: b57a ea3d 27e1 85bc 3711 143e ec10 97bd
000003c0: 9b3d c8bd 7f15 8a3c 590a 6ebd c32e 1ebc
000003d0: a7c8 88bd a7af 223e e286 a53d 6357 2cbf
000003e0: c2ec 833c 3811 133e ff6a 843e 31ac c7be
000003f0: a90c 98bd aede 52ba cca7 80bd 6d81 273e
0.016991647 -0.08627846 -0.010171709 0.19752836 -0.15460928 0.039188053 0.005471053 0.1439722
0.090846404 0.050895944 0.10741824 -0.08204713 0.09175501 0.038725905 -0.11370571 -0.08955066
-0.028816639 0.16343834 0.15250772 0.10569545 -0.03196685 -0.04093733 -0.044462472 -0.10923222
-0.16551876 0.05009895 0.17327677 0.0065893177 -0.16147263 0.17805044 0.10902328 0.06381482
0.1340102 -0.085073546 -0.32152212 -0.038503386 0.09087509 0.024020951 0.05211189 -0.022382958
0.09340027 -0.019260561 0.32118258 -0.48173457 -0.23956779 0.03904348 -1.3690299 0.030943252
-0.008994772 0.040613525 0.0075110192 -0.08482319 0.11572523 0.07145268 0.16956136 0.16812985
-0.043792084 -0.013354857 0.06912126 0.07016821 -0.05063597 0.07561295 0.15607846 0.19220322
0.030958356 -0.0053174156 0.0033870672 0.048256982 -0.0031200238 -0.064636536 0.07016731 -0.12627317
0.017393926 0.0065020523 0.06569122 0.052768063 0.14309165 0.046654265 -0.124429 0.28402644
-0.5526446 -0.4006911 -0.27272728 -1.2760243 0.071891494 -0.061026532 -0.040741544 0.15009968
-0.058721766 0.07081641 0.08031243 -0.00931072 0.019236045 0.05869442 -0.029781763 -0.042943127
0.02009485 0.04010183 -0.06369453 -0.010653295 0.12572223 0.066183716 0.24118637 0.08554336
-0.15721355 0.0866079 0.12786497 0.053902697 0.32186005 0.0038548547 0.010581396 0.09959434
0.12379047 0.009226155 -0.0676263 0.112723984 0.270892 0.099994004 -0.5099633 -0.19555992
-0.77888584 0.023193214 0.14532447 -0.11680617 0.12424203 -0.07017328 -0.05937536 -0.049914766
0.024941038 0.23118804 -0.13399965 0.057139885 0.07989098 0.22618848 0.105376795 0.12125497
0.20655358 -0.07484161 -0.003273177 -0.23724484 -0.22326371 0.018976023 -0.0970244 0.124327555
0.01858504 0.016470337 -0.011008673 0.015353061 0.23438999 -0.21293586 -0.015183966 0.15041451
-0.5202639 0.051397096 -0.11586853 -0.14506167 -0.10544842 -0.17230642 -0.105706945 -0.10132051
-0.03686166 0.26218623 -0.28041908 0.196539 -0.27547216 0.1634102 -0.27163988 -0.23867662
-0.009466027 -0.16032499 -0.06723354 -0.06233938 -0.0152165545 0.09159705 0.14464714 0.21288149
0.022428026 -0.09839624 -0.15457964 0.06779729 0.12759984 -0.21968721 -0.25437903 -0.04429777
-0.040995143 0.17013764 -0.15305196 -0.13237916 -0.16380087 -0.06843488 0.04470065 0.03193842
-0.38943255 0.108461976 0.26222122 -0.08358395 -0.012862439 -0.031797536 0.13995342 -0.17382523
0.13192661 -0.107093245 -0.10486724 -0.17873904 0.09845693 0.12656327 -0.11280098 -0.08851538
-0.078260735 0.3458871 0.014931923 -0.033688 -0.17847896 0.089604616 0.19284546 0.05118785
0.16175005 -0.115112364 -0.004847432 0.51274973 -0.23292167 0.04990305 -0.285488 0.028316643
-0.027333865 -0.048736926 -0.115981854 -0.08353615 0.23084499 0.029006349 0.28002638 0.04701666
-6.257067e-05 -0.041559406 -0.05123777 0.06883334 0.11449186 -0.016342713 0.14459692 -0.073762745
-0.09777375 0.016855953 -0.058115337 -0.009654704 -0.066788964 0.15887319 0.080823675 -0.6732084
0.016104106 0.14362037 0.25862882 -0.3899856 -0.0742429 -0.0008044046 -0.06282005 0.16357966

fc1.bias f4 [80]
00000000: f480 fb3c 375d c4bd 49d7 b4bd be03 84bd
00000010: 4954 d23d 8290 e8bd c135 54be b8a8 10bc
00000020: 722f bdbd e272 07bd b7eb 31ba 5a4c edbd
00000030: 232f 303e 9b11 123c f7c7 673d 9fdc 8ebd
00000040: b492 9e3d ce5f e8bd a58c 38bb 0d17 963d
00000050: f5c7 73bd f3c2 95bb d849 82bc 0e8e 6fbe
00000060: 729c 13be 4498 923a 5b07 85bd 7c87 8ebd
00000070: 910a 173d 4bb9 26be 31ee 35bc b307 03bd
00000080: a150 503e 9aac fa3d 51ee 01be 1e6b 7dbd
00000090: 3a24 8f3d a2f9 103e dd66 553d e70b 23bd
000000a0: 0dde aa3d 17b8 a53b d818 653d eb1b be3d
000000b0: 1a6c 9abc 21b0 0dbb d1f6 12be 9eff 743d
000000c0: c4ea 11be 982f 4f3e 7177 ddbd 1578 b0bd
000000d0: 9426 a5bd 318f c93c d0e7 81bd d9f9 4fbb
000000e0: 09d1 083e d1d8 38be 4cff 07bd 2a7a 4bbd
000000f0: a101 0e3d 3cca 77bd eb25 7ebc 33c5 113e
00000100: 45dd dcbd 16d4 48bc 88f7 09bd a521 b6bd
00000110: c4d7 99bd 7cde a5bd 0c62 0dbe d6ac 363e
00000120: 1428 943d ccc3 10be fe12 3fbc 1824 88bd
00000130: 4f4d b9bd eedf 35be 8ee3 b8bc 0ac8 d3bd
0.030701138 -0.09588092 -0.08830125 -0.06446026 0.10269982 -0.11355688 -0.2072363 -0.008829288
-0.09237565 -0.033068545 -0.00067871384 -0.115868285 0.17205481 0.00891533 0.056587186 -0.06975674
0.07742825 -0.11346398 -0.0028160003 0.07328615 -0.059516866 -0.004570359 -0.015904352 -0.23394033
-0.14415148 0.0011184295 -0.064955436 -0.06959435 0.03687531 -0.16281621 -0.011104153 -0.031989764
0.20343257 0.122399524 -0.12688567 -0.061869733 0.069893315 0.14157727 0.05210005 -0.039806273
0.08343134 0.0050573456 0.055931896 0.09282669 -0.018850375 -0.0021619874 -0.14351965 0.059814088
-0.14249712 0.20233 -0.10813797 -0.08616654 -0.08063999 0.024604412 -0.06343043 -0.0031734614
0.1336099 -0.18051459 -0.033202454 -0.04967705 0.034669522 -0.0604956 -0.01551197 0.14235382
-0.10784391 -0.0122575965 -0.03368333 -0.08893136 -0.07511857 -0.08099076 -0.13806933 0.17839369
0.07234207 -0.1413719 -0.011662243 -0.06647509 -0.090479486 -0.17761204 -0.022569444 -0.10340889

fc2.weight f4 [27, 80]
00000000: a480 afbd 8285 383e 3f72 483e 2f26 823d
00000010: 8dc4 b93d 6d1c e0bc 845c bfbe 9e8c 0e3d
00000020: f38f ee3d 6aa1 903d 41d2 93bc 9c32 543d
00000030: 6795 0e3d 101e 4fbe 22fe 353d 456e 123e
00000040: cc0e fd3d 0212 cbbd 6da5 393e c857 90bc
00000050: d9a2 eb3d 461c 9c3e df67 e4bb 9a4c 313b
00000060: 599d 98bd 9d4a 8bbc 06ad 47bd 40ab 1f3e
00000070: fef3 01bd 2b7e 983b dfe8 b13d 9d5a 74bd
00000080: 0f37 2b3e cb8f 3dbd 043d 04bd 9e7c 3c3d
00000090: bd2b 863c d709 cf3d 266d af3d 2aed 8a3d
000000a0: 3f0b ffbb 4150 193d b86a 88bd 95e2 39bd
000000b0: 0731 ebbc d783 1abd 39d3 103d 42ee 243e
000000c0: 00e4 6e3d 80a4 b0bc 0282 1fbd 9af3 953e
000000d0: 33e5 913d 70cd 963d 16cf a53d a6e6 0e3d
000000e0: b432 fd3d 5ad6 03be 730f 87bd c775 3f3d
000000f0: 618f 61be 154c fbbd 37fe a3bc 5312 673d
00000100: 7d6b a9bc af63 c83d a750 d23d 5340 7cbd
00000110: f9af ac3d f38f 493e 72fb 90be dfec 533d
00000120: 7517 3a3d fc52 5d3d b3e8 c43c e150 9f3e
00000130: 5fc5 adbd d3ea afbd 5e99 d73b c7fe 353c
00000140: dd5c d1bd e637 393e 955e 763e 4e89 e93d
00000150: 67d6 a3bc 5503 9dbd 3648 11be 6939 fdbd
00000160: 950d 0dbe 866e 44bd db60 86bd 07dc 27bd
00000170: bd20 a7bd 7dd4 01be ba86 843b 4968 b7bd
00000180: b696 d43d 1c51 b0bd 046e d03d 8fbc 20be
00000190: 408e 86bd 239f 8d3e fb52 be3d 0a38 633d
000001a0: 57b3 0dbe e7c6 733d 2708 c13d e56b 63ba
000001b0: b7af 45bd 2d94 81be 08a2 843d 35be 9f3b
000001c0: e308 dbbd 3f20 203d 799a 19be c6d3 0a3e
000001d0: b348 9e3c 6203 e03b c672 ce3d 2cd8 76be
000001e0: 6194 cdbd 51cd afbd a015 183d 5ac8 ea3d
000001f0: e497 3b3d 8745 213d 41df 323e 1b66 b83c
00000200: 14cf 16be 87bb f2bd 20a8 8ebd 0719 23be
00000210: 2fd2 b3bc eb81 883d ebb3 89bd 732c 23bc
00000220: b637 83bd 4b1a e93d 7458 033e c83a 033e
00000230: bcd5 a1be ec80 12be c08e 3ebe ebf7 aebd
00000240: 22cb bd3c f500 bcbd 142b 28be 9928 81bc
00000250: 2228 b6bd 9428 3d3d e293 a3bc 5a3d 733e
00000260: da04 0ebd e775 a1bd a4d6 613d 555b 12bc
00000270: 87c7 14be 572e b23d 6c51 a73d 094c fd3d
00000280: 12dc bb3d a867 05be cf21 5fbe 9c1d 53be
00000290: c494 e4bd 13ff 74bd 2548 003d df09 553e
000002a0: 9393 6ebe 6ec5 9ebd bf9f 93be 42e8 a1bd
000002b0: 9022 813d 634f 41bd a6e7 5dbe 3158 a93d
000002c0: 3acd abbd bf3b c6bd ae16 d8bc e315 173e
000002d0: 8901 70be 48f7 5abe 584d a4bd c0d3 8e3d
000002e0: 4ae8 93bd 5f4b b2bd a07a 8ebd 845f 02bf
000002f0: 4bfc b4bb 5c8b 3e3e f533 7b3e 814e 593e
00000300: fcd1 863e 1fc2 7b3d cd62 ed3d 68fe ebbd
00000310: 6f54 66bc 138a fd3d a584 43be 3c61 493e
00000320: 4f37 aa3d e790 1d3e 2abb 1d3d f8c3 2c3d
00000330: 69ed 6abe 9945 063e e9a8 58be 8f88 c9be
00000340: e6bc d2bd 5fad 923d f60c 8c3e 6151 42be
00000350: a532 88bd 2145 f0bc cb7d 60bd 8b76 62bd
00000360: 2164 c13c 5e12 79be e76c 1fbf ba6a cd3c
00000370: 523f 7a3e de5f 623d 7df3 143c ad74 25bd
00000380: 9840 253d d681 69bd 6a35 babc 2218 22bc
00000390: 3264 8abe 135e e2bd 3657 ec3d 3d61 6fbe
000003a0: a1e7 42be 49c7 79bd 37de 3e3d dec6 a93d
000003b0: a8d3 82bc 896b f7bd 6a7b 51bd d03e fa3d
000003c0: 7494 303d 3a39 f13d fc72 923e d1a1 073d
000003d0: fa55 9f3d a35a ac3d 328e e93d 1f15 fb3d
000003e0: 4faf 403c a3cb 753d f053 b7bc 21f4 d53d
000003f0: 644b 2bbd f86e 803d 2ea8 033c bf83 d5bd
-0.08569458 0.18019679 0.19574831 0.06354939 0.09070692 -0.027357304 -0.3737527 0.03480207
0.1164855 0.07062037 -0.018044593 0.051806077 0.03481045 -0.20226312 0.044431813 0.14299877
0.12356338 -0.09915544 0.18129511 -0.017619982 0.1150567 0.3049032 -0.00697039 0.0027053715
-0.07451887 -0.017003352 -0.048748992 0.1559267 -0.03172683 0.0046537123 0.08686995 -0.059656728
0.16720222 -0.04627971 -0.03228475 0.04601728 0.016378278 0.10109299 0.0856574 0.06783517
-0.007783323 0.03743005 -0.0666098 -0.0453821 -0.028709901 -0.03772339 0.035357688 0.16106513
0.058322906 -0.021562815 -0.038942344 0.29287416 0.071237944 0.07363403 0.08096139 0.034887932
0.123631865 -0.12874737 -0.065947436 0.04674318 -0.22027351 -0.12270371 -0.02001868 0.05641396
-0.020681137 0.09784638 0.102692895 -0.06158478 0.084320016 0.19683819 -0.28316838 0.05173957
0.045432527 0.05403422 0.02403674 0.31116393 -0.08484911 -0.08589711 0.006579562 0.011108107
-0.102227904 0.1808773 0.24059518 0.11403142 -0.019999696 -0.07666651 -0.14187703 -0.12364466
-0.13774712 -0.047956966 -0.065614425 -0.04098132 -0.08160541 -0.12678714 0.004044381 -0.08955438
0.10380308 -0.086092204 0.10177234 -0.1569693 -0.06570101 0.27660474 0.09293171 0.055473365
-0.13837944 0.05951586 0.09425383 -0.00086754403 -0.048263278 -0.25308362 0.064762175 0.0048749694
-0.106950544 0.039093252 -0.15000333 0.13557348 0.019321775 0.0068363408 0.10080485 -0.241059
-0.10038067 -0.08584083 0.03713 0.11463995 0.04579915 0.039372947 0.17467977 0.022509625
-0.14727432 -0.11852174 -0.06965661 -0.15927516 -0.02195081 0.06665405 -0.0672377 -0.009959328
-0.064071104 0.11381968 0.12826711 0.12815392 -0.3160838 -0.14306992 -0.18609142 -0.0854338
0.02316815 -0.0917987 -0.16422683 -0.015766429 -0.088943735 0.046181276 -0.019967977 0.23753873
-0.034672596 -0.07883816 0.055136338 -0.008932908 -0.14529239 0.08700245 0.08169827 0.12368018
0.091728345 -0.13027823 -0.2179024 -0.20616764 -0.11161187 -0.05981357 0.031318802 0.20804547
-0.23298483 -0.077525005 -0.28832814 -0.07905628 0.063054204 -0.04719485 -0.21670398 0.08268774
-0.08388753 -0.096793644 -0.026378002 0.14754443 -0.23438086 -0.21383393 -0.08022565 0.06973982
-0.0722204 -0.08705782 -0.069569826 -0.50926995 -0.0055232397 0.18607849 0.24531539 0.21221353
0.2633208 0.061464425 0.115911104 -0.115231335 -0.0140582165 0.12379851 -0.19093569 0.19665998
0.083113305 0.15387307 0.03850857 0.042179078 -0.22942127 0.13112487 -0.21158184 -0.39361998
-0.10289936 0.07161974 0.27353638 -0.18976356 -0.06650285 -0.029329838 -0.054807466 -0.055288833
0.023607315 -0.24323413 -0.62275547 0.025075305 0.24438217 0.055267207 0.009091255 -0.040394474
0.040344805 -0.057008587 -0.022730548 -0.009893449 -0.27029568 -0.110530995 0.11540072 -0.23376937
-0.19033672 -0.06098107 0.04659864 0.08289884 -0.015970066 -0.120810576 -0.051143087 0.12219012
0.043110326 0.11778493 0.2860335 0.033113305 0.077800706 0.08415725 0.11404075 0.12259888
0.011760547 0.060008656 -0.022378892 0.104469545 -0.041819945 0.062711656 0.008035703 -0.10425519

fc2.bias f4 [27]
00000000: 5b21 453e 29b8 fc3d 048f ddbc 09a7 0f3e
00000010: e070 1d3d df29 8cbd 97b9 14be 2c89 7b3c
00000020: b0a8 393d 1ebf b03d f99b b13d 48d2 c9bb
00000030: f179 08bd 1fe1 3e3d e4d3 e2bd 28ab 2cbd
00000040: bd3a 13be 620e a8bd b243 cabc 035a 733e
00000050: ce7a f4bd 2184 b63c 7b9b 3c3e 86c1 54bd
00000060: 042a 1ebd 4044 6b3e 37d5 0dbe
0.19251005 0.12339813 -0.027045734 0.14028563 0.038437724 -0.06843924 -0.14523922 0.015352529
0.04532689 0.08630203 0.086723275 -0.0061591007 -0.033319417 0.04660141 -0.11075571 -0.042155415
-0.14377876 -0.08205868 -0.024690483 0.23764805 -0.11937486 0.0222798 0.18418686 -0.05194237
-0.038614288 0.22975254 -0.13850866

fc3.weight f4 [4, 27]
00000000: be7e 323e ca02 9c3e 106a 973e 3078 813e
00000010: b2e0 fa3d faef a4bc 074c debd 0f19 bdbe
00000020: 1c59 67bd e752 ecbd 0ec5 d13e 5045 0b3e
00000030: 5887 47be 1487 343e 3f68 00bd c536 a8be
00000040: 76a7 f23d 1705 943e f60c 1ebe ec80 543e
00000050: 2be0 15bd 6d27 f4be 70a7 5e3e d27b 3ebd
00000060: 148c 44bd 0bd7 4f3d 3502 3ebe 52c2 123e
00000070: 0c18 8c3e 73b8 943e 7e33 983e 2f5f 413e
00000080: d669 793e 1f6d cd3b f827 d1be 0f22 0c3e
00000090: 22c0 ac3c 0fa9 893e d43f 063e 831b cdbd
000000a0: e54c 383e c26c 8cbd 1812 11bd b495 ee3a
000000b0: c5fe e03c 8e95 1ebd 83cc 753e 35ed a7bd
000000c0: ff72 343c 8cb8 9b3d de7e b43d 1473 04be
000000d0: e830 913d 7868 b3bd 01c8 fd3c 4646 1d3e
000000e0: 65e5 fb3e 4ee4 833e 693b 8cbe f03e ec3c
000000f0: d60f 393e 009e cbbd 5e4b a63d e22b 333e
00000100: c378 573e 1acf df3d ba66 2cbe bfe0 043e
00000110: 6eb6 31be 1928 7abe 4e2a 60bd 20bd 79be
00000120: c55c ec3d 1b8f 143e b72f 0abe ca03 f03d
00000130: 5bec 133e d6c1 a43e 3852 8abe a2dd 803e
00000140: add6 5a3d 5e63 0b3e e37c 263c 5ef8 1fbd
00000150: 0e8b 4d3e 1aa2 d23e 1635 e73e b737 1cbe
00000160: 23e9 46be ecca 463e 4381 863e 6033 023e
00000170: d7fd 8bbb fe59 b5bd 36f2 8c3e b8bd 60be
00000180: 0361 e6bd 5bcd 72bb e93f 56be c5ef 413e
00000190: f3b9 9a3d 7c80 1dbe 2212 efbd eb15 433e
000001a0: b2e0 a2bd 8cd5 7bbe 6b0a 513e 5284 10be
0.17431161 0.30470878 0.29573107 0.25287008 0.122498885 -0.020133961 -0.10854345 -0.3693318
-0.056481466 -0.1153925 0.40970653 0.1360066 -0.19485223 0.17629653 -0.031349417 -0.32854286
0.11848347 0.28910133 -0.15434632 0.20752305 -0.036590736 -0.4768633 0.2174356 -0.046504803
-0.04798515 0.05074219 -0.1855553 0.1433194 0.27362096 0.29046974 0.29726785 0.18883966
0.2435678 0.0062691118 -0.40850806 0.13684867 0.02108771 0.26886794 0.13110286 -0.10015013
0.17998083 -0.068566814 -0.035417646 0.0018202574 0.027465234 -0.038716845 0.24003796 -0.081995405
0.011013745 0.07603559 0.088132605 -0.12934524 0.07089406 -0.0876016 0.030979158 0.15358838
0.49198452 0.2576012 -0.27389076 0.028838605 0.18072447 -0.099422455 0.08119844 0.17497209
0.2104216 0.10928173 -0.16836062 0.12976359 -0.17354748 -0.24429359 -0.054727845 -0.24388552
0.11541132 0.14507715 -0.13494764 0.11719473 0.14445631 0.32179135 -0.27015853 0.25169092
0.053427387 0.13612124 0.010161611 -0.03905522 0.20072576 0.411393 0.4515769 -0.15255629
-0.19424872 0.19413346 0.26270494 0.1271491 -0.0042722034 -0.08855055 0.27528542 -0.21947372
-0.11248972 -0.003704867 -0.20922817 0.18939121 0.07554998 -0.15381044 -0.116733804 0.1905133
-0.079530135 -0.2459318 0.2041413 -0.14112976

fc3.bias f4 [4]
00000000: 866a 503e bdcb e33d 663d f63c a20e f9bc
0.20353135 0.11122844 0.030058574 -0.030402485
