checkpoint1.pth (torch_old, 183563 bytes, 6 tensors)

fc1.weight f4 [244, 37]
0.21809052 -0.11045614 -0.096549205 -0.079668306 -0.5423264 -0.102386296 -0.08905746 0.33259982
0.14069831 -0.077280916 0.121645145 -0.018773843 -0.022048246 -0.12475709 0.16962788 -0.07350887
0.17646268 0.023195587 0.0123808915 0.058740273 -0.1312379 -0.14604566 0.030783523 -0.18851395
-0.12666978 -0.07408014 0.1211797 0.072238214 -0.1541712 0.12444617 -0.033191036 0.22867051
0.074473314 -0.21586956 -0.51155245 -0.07516758 0.058924977 -0.18124686 0.10325056 -0.016530277
0.21990131 -0.1517816 0.12192139 0.07855575 -0.05287668 0.10731738 -0.045299836 -0.13452372
-0.052422818 0.16561916 -0.14676125 -0.18079449 0.07789678 0.18817577 0.20173691 -0.06660701
-0.15163904 -0.25647917 0.050460324 0.20538254 -0.49140304 0.18089676 0.12832111 -0.13774623
-0.1506674 -0.03568195 -0.50993425 0.13966373 -0.13215068 -0.41237864 -0.071263276 -0.29723197
0.08824501 -0.035090473 0.1285816 -0.0026066839 0.10668746 6.880068e-05 -0.36794028 0.15779059
-0.030073406 -0.23320262 -0.24033791 -0.26548722 0.14164968 -0.17663969 -0.19156604 0.24096112
0.003090004 0.16995054 0.009683135 -0.09071863 0.01720034 -0.05608918 -0.043375988 -0.26239341
-0.046642836 0.081939526 -0.11291074 0.04200269 0.10156149 -0.032745797 0.035312276 0.112877734
-0.0413717 -0.5183143 0.2335106 0.17276578 0.40602687 0.061862532 0.0069526234 0.17664209
0.17816061 -0.14282693 0.01485398 0.06821804 0.30495572 0.03458015 -0.5192958 -0.29320168
-0.5977977 0.13582273 0.022961404 -0.053266954 0.07646586 -0.31311506 -0.23876336 0.01082732
0.077782415 0.22044373 -0.007493963 0.06312161 0.11034724 0.1926196 0.067179285 0.13161771
0.048950274 0.00063463213 0.08327752 -0.050899863 0.038635515 0.122352324 -0.08367269 -0.036788903
-0.08336173 -0.25788474 -0.059094235 0.008238081 0.13747202 0.055169575 0.0024840801 0.21799085
-0.31756335 0.09658874 -0.31401822 -0.13188812 -0.14410417 -0.051762234 0.11786934 0.009149881
-0.10753354 -0.09504282 0.17780314 0.20344706 -0.0602633 -0.026378015 -0.26334968 -0.36788112
-0.11806475 -0.09741663 -0.2565758 0.25003946 -0.04652471 -0.039739583 0.1201797 -0.020184906
0.37570047 0.08952587 -0.0054391744 0.0227048 -0.08519792 -0.04286596 -0.2962907 -0.043532226
-0.010996562 0.08824333 -0.17701113 -0.16531673 -0.14235087 -0.15863542 -0.08078034 0.0311391
-0.01719466 -0.044857536 0.48536688 -0.27549633 -0.0087522585 0.089643754 0.23675072 -0.033804186
-0.013149638 -0.19297373 0.13831688 -0.22218668 0.18734476 -0.24741894 -0.031364378 0.09562276
0.008174038 0.24357188 -0.057365656 0.018359607 -0.2609321 0.025924673 0.4217858 0.11019365
0.11117941 -0.3616107 -0.099812604 0.2878964 -0.096946195 0.034772452 -0.28192824 -0.2737454
0.19669974 -0.21329258 -0.14842927 -0.05022734 0.18715937 0.3250696 -0.27216566 -0.20569187
0.0833623 0.15952648 -0.2614442 -0.08388602 -0.28325698 0.06900317 0.07328241 -0.079330355
-0.25416446 0.06880857 -0.008246224 0.06655241 -0.20352125 0.08913067 -0.24243157 -0.20128128
-0.10148602 0.28454673 -0.025523564 -0.20015125 -0.040712718 0.04815764 0.06330628 -0.22994427
00000000: 1f53 5f3e d436 e2bd 97bb c5bd 2329 a3bd
00000010: e7d5 0abf e8af d1bd c263 b6bd 864a aa3e
00000020: 3813 103e 7545 9ebd 1721 f93d 9acb 99bc
00000030: 869e b4bc a580 ffbd eeb2 2d3e d28b 96bd
00000040: a2b2 343e ac04 be3c 39d9 4a3c a499 703d
00000050: 3a63 06be fe8c 15be ba2d fc3c cd09 41be
00000060: b9b5 01be 54b7 97bd 102d f83d a1f1 933d
00000070: 0edf 1dbe a2dd fe3d 53f3 07bd 9a28 6a3e
00000080: 7785 983d e90c 5dbe 1af5 02bf 76f1 99bd
00000090: 515b 713d c798 39be 0875 d33d 816a 87bc
000000a0: cf2d 613e a36c 1bbe ecb1 f93d d6e1 a03d
000000b0: 3895 58bd 37c9 db3d 528c 39bd 96c0 09be
000000c0: 4fb9 56bd 1298 293e 9548 16be 3122 39be
000000d0: 5988 9f3d 26b1 403e 1f94 4e3e 4269 88bd
000000e0: 4447 1bbe 3d51 83be 7caf 4e3d cd4f 523e
000000f0: 2e99 fbbe 003d 393e 9c66 033e 590d 0dbe
00000100: 8e48 1abe 3d27 12bd 0d8b 02bf 0204 0f3e
00000110: 8252 07be 4b23 d3be 7bf2 91bd ca2e 98be
00000120: cdb9 b43d 07bb 0fbd e5aa 033e e6d4 2abb
00000130: f47e da3d 1549 9038 ab62 bcbe db93 213e
00000140: 815c f6bc abcc 6ebe 241b 76be f1ed 87be
00000150: 9d0c 113e 09e1 34be e329 44be 83be 763e
00000160: aa81 4a3b 8407 2e3e 03a6 1e3c b0ca b9bd
00000170: bae7 8c3c c5bd 65bd 05ab 31bd 6e58 86be
00000180: 8f0c 3fbd e9cf a73d bf3d e7bd 030b 2c3d
00000190: 78ff cf3d 7520 06bd 9ba3 103d 712c e73d
000001a0: 5f75 29bd 3fb0 04bf 671d 6f3e 83e9 303e
000001b0: c1e2 cf3e 9163 7d3d d5d2 e33b aae1 343e
000001c0: bc6f 363e 3941 12be 1c5e 733c e6b5 8b3d
000001d0: 2823 9c3e eaa3 0d3d 92f0 04bf 881e 96be
000001e0: 4509 19bf 1d15 0b3e 8e19 bc3c 732e 5abd
000001f0: 229a 9c3d 9e50 a0be 627e 74be 1265 313c
00000200: 634c 9f3d 00bc 613e eb8f f5bb e745 813d
00000210: bcfd e13d 133e 453e 4b95 893d cbc6 063e
00000220: 1580 483d 715d 263a 688d aa3d 607c 50bd
00000230: 4640 1e3d db93 fa3d 965c abbd f6af 16bd
00000240: 8eb9 aabd 7809 84be cc0c 72bd 04f9 063c
00000250: 77c5 0c3e 7ef9 613d f3cb 223b fe38 5f3e
00000260: aa97 a2be 51d0 c53d ffc6 a0be ae0d 07be
00000270: 0b90 13be a304 54bd 7b65 f13d 62e9 153c
00000280: 8b3a dcbd cfa5 c2bd 0712 363e 6d54 503e
00000290: a6d6 76bd b516 d8bc c5d5 86be ea5a bcbe
000002a0: efcb f1bd 5f82 c7bd e75d 83be 2c05 803e
000002b0: b290 3ebd f9c5 22bd c620 f63d d15a a5bc
000002c0: d05b c03e 5759 b73d 1a3b b2bb 6bff b93c
000002d0: 3f7c aebd 3894 2fbd 6ab3 97be d94e 32bd
000002e0: ed2a 34bc ebb8 b43d 6842 35be ca48 29be
000002f0: 6dc4 11be 5371 22be 2a70 a5bd 6d17 ff3c
00000300: d1db 8cbc 89bc 37bd 0282 f83e db0d 8dbe
00000310: a265 0fbc 2597 b73d c86e 723e 4276 0abd
00000320: 9471 57bc e89a 45be f1a2 0d3e e884 63be
00000330: 4ed7 3f3e 645b 7dbe ef77 00bd ded5 c33d
00000340: 66ec 053c e86a 793e 40f8 6abd e366 963c
00000350: e498 85be fb5f d43c 4ff4 d73e 35ad e13d
00000360: 08b2 e33d 0a25 b9be 8d6a ccbd 2867 933e
00000370: ba8b c6bd 8f6d 0e3d e658 90be 5b28 8cbe
00000380: a86b 493e 5f69 5abe d8fd 17be 2fbb 4dbd
00000390: b5a6 3f3e 866f a63e 4c59 8bbe e4a0 52be
000003a0: dbb9 aa3d e95a 233e 04dc 85be 6fcc abbd
000003b0: 0f07 91be 8951 8d3d 1715 963d f477 a2bd
000003c0: d821 82be 82eb 8c3d 2c1b 07bc a14c 883d
000003d0: e067 50be 248a b63d fb3f 78be ae1c 4ebe
000003e0: e7d7 cfbd 1cb0 913e cb16 d1bc 73f4 4cbe
000003f0: 61c2 26bd f240 453d b9a6 813d 8376 6bbe

fc1.bias f4 [244]
-0.045071244 -0.15565853 0.077589996 0.0635242 -0.10553709 -0.076811805 0.0774501 -0.040279556
0.03314419 0.038561244 -0.005500042 -0.15460579 -0.057847448 -0.1802032 -0.19724052 0.122796945
0.075194135 0.11721889 -0.13893573 0.0689526 -0.19385159 -0.050479487 0.010968209 0.03501083
-0.21177146 0.0460376 -0.0401989 0.0572626 -0.052665357 0.15651268 -0.045309734 0.035440452
-0.11579673 -0.094184436 0.17676435 -0.036484063 -0.12623736 0.05603416 -0.17463537 0.05259743
0.058459062 0.15760824 -0.025886396 -0.16711636 0.0118016545 0.04734255 0.124407575 -0.21855284
-0.122541875 -0.11168863 -0.14274605 0.07238449 -0.15842614 0.025402898 -0.10167574 0.1298573
0.08056707 0.01926582 -0.091543354 0.0072251544 0.1694209 -0.10098656 -0.19068415 0.075596444
-0.08373442 -0.14812168 -0.032357883 0.026446488 -0.16122842 0.114696056 -0.014713862 0.03187596
0.1406919 -0.014406332 -0.12455076 -0.02168363 -0.08895631 -0.14479248 -0.20657274 0.13968186
-0.23368765 -0.0667512 0.11910869 -0.0284866 -0.041611526 -0.03765747 -0.07680318 -0.116210535
-0.18167676 -0.06074184 -0.0031673003 0.07224137 0.009436248 -0.19605708 0.055751633 -0.23016965
-0.025790785 0.02752578 -0.09440664 0.11747438 -0.07738993 0.0037650045 0.054298483 0.15244196
0.08247706 -0.067652114 -0.18980104 0.02824631 -0.036584295 -0.2337053 -0.052137446 -0.038115043
0.08097531 -0.20963393 0.021254718 -0.020161234 -0.12677222 -0.074768685 -0.2122635 0.07657657
0.14198074 -0.113165386 0.17496444 -0.19586612 -0.05939569 -0.098984234 -0.17213988 -0.09385641
-0.20306881 -0.005387668 -0.10080208 -0.122709475 0.122280374 -0.09558409 0.17380878 0.05647212
-0.034449976 -0.14632298 -0.0768995 -0.027176341 -0.04264673 -0.1592398 -0.06672913 0.03862431
0.10238407 -0.11796897 0.018847166 -0.10467734 -0.1285786 -0.16329034 -0.07715469 0.059551366
0.16990818 0.10176055 -0.022895688 -0.12342115 -0.00525235 0.048363023 0.022209184 -0.07192806
-0.0723442 -0.1586754 0.050688457 0.027104884 -0.14025618 0.0046311165 -0.043888815 -0.10658264
0.066436306 -0.14001828 -2.7609673e-05 -0.043522213 -0.17612626 -0.016304158 -0.062601514 -0.111466154
0.068240166 -0.24440868 -0.1018642 -0.12029354 -0.13163458 -0.06717426 -0.15676758 0.035102334
-0.06687754 0.11996338 0.105848454 -0.1276871 0.10761296 -0.06340257 0.1450617 0.015140686
0.07220716 -0.120706625 -0.0052322815 -0.11002572 0.057316426 -0.03902317 -0.14604369 0.133235
-0.025448892 0.084541924 -0.09624866 0.052105527 0.05332304 -0.1594199 -0.15562533 0.1039356
-0.16716018 0.07728278 0.047104955 -0.093903266 -0.15740888 -0.24694142 -0.1361792 0.045798667
-0.00036882417 -0.11247658 -0.2794723 0.01692088 -0.0832239 0.13134561 0.11711147 0.013817519
0.08112325 0.11404748 -0.006945337 0.12830272 0.0710348 -0.24352051 0.0662444 0.11372854
-0.1517418 -0.0010531811 0.04366738 -0.014930359 -0.2151686 0.033284333 0.05247172 0.10814647
-0.035806477 -0.085450046 -0.01530102 0.075996995
00000000: a09c 38bd f364 1fbe 81e7 9e3d fa18 823d
00000010: d423 d8bd 824f 9dbd 289e 9e3d 2dfc 24bd
00000020: 34c2 073d 65f2 1d3d b239 b4bb fb50 1ebe
00000030: 72f1 6cbd 3087 38be 6bf9 49be f77c fb3d
00000040: 62ff 993d 7510 f03d 2b45 0ebe 0537 8d3d
00000050: 0881 46be 94c3 4ebd 01b4 333c 8467 0f3d
00000060: 9eda 58be ec91 3c3d 9aa7 24bd 308c 6a3d
00000070: a1b7 57bd dc44 203e b396 39bd 022a 113d
00000080: d626 edbd c5e3 c0bd b701 353e 5070 15bd
00000090: 5e44 01be 1384 653d 9dd3 32be 6770 573d
000000a0: c572 6f3d 0e64 213e b50f d4bc 8d20 2bbe
000000b0: ba5b 413c 43ea 413d 66c9 fe3d 51cc 5fbe
000000c0: 3cf7 fabd 02bd e4bd 052c 12be 523e 943d
000000d0: 763a 22be bd19 d03c 5f3b d0bd 50f9 043e
000000e0: 5900 a53d 5ad3 9d3c 157b bbbd fdc0 ec3b
000000f0: ac7c 2d3e 0bd2 cebd b542 43be 4fd2 9a3d
00000100: f47c abbd 36ad 17be b389 04bd 4ea6 d83c
00000110: 1019 25be c4e5 ea3d 6912 71bc 5e90 023d
00000120: 8a11 103e 8908 6cbc 7814 ffbd dea1 b1bc
00000130: ba2e b6bd 7b44 14be ce87 53be c308 0f3e
00000140: d14b 6fbe dab4 88bd 42ef f33d bb5c e9bc
00000150: d970 2abd b83e 1abd fc4a 9dbd caff edbd
00000160: 7909 3abe 70cc 78bd 7b92 4fbb 49f3 933d
00000170: 7e9a 1a3c 30c3 48be d35b 643d 98b1 6bbe
00000180: 3247 d3bc bf7d e13c 4558 c1bd 6896 f03d
00000190: 9d7e 9ebd 4bbe 763b 1668 5e3d bf19 1c3e
000001a0: bce9 a83d 318d 8abd 345b 42be ce64 e73c
000001b0: 6ad9 15bd 7150 6fbe 138e 55bd 851e 1cbd
000001c0: 62d6 a53d 47aa 56be 601e ae3c 2c29 a5bc
000001d0: 94d0 01be 5320 99bd 9a5b 59be 2dd4 9c3d
000001e0: 6663 113e 41c3 e7bd e129 333e 2191 48be
000001f0: e548 73bd 3fb8 cabd 7045 30be ca37 c0bd
00000200: 45f1 4fbe 098b b0bb 5271 cebd 1b4f fbbd
00000210: 226e fa3d 97c1 c3bd eefa 313e 4f4f 673d
00000220: 6b1b 0dbd b1d5 15be 7c7d 9dbd eba0 debc
00000230: 56ae 2ebd c20f 23be 48a9 88bd 8634 1e3d
00000240: bdae d13d b799 f1bd 5f65 9a3c 1361 d6bd
00000250: 1caa 03be 9535 27be 4703 9ebd 22ec 733d
00000260: 69fc 2d3e d667 d03d bd8f bbbc 3ac4 fcbd
00000270: e81b acbb 4e18 463d 09f0 b53c 054f 93bd
00000280: 3229 94bd ce7b 22be b39e 4f3d 100b de3c
00000290: 519f 0fbe 9fc0 973b c2c4 33bd 0048 dabd
000002a0: c20f 883d f460 0fbe 529b e7b7 5944 32bd
000002b0: 715a 34be 4c90 85bc 3935 80bd 5e48 e4bd
000002c0: 80c1 8b3d 4546 7abe 2d9e d0bd 765c f6bd
000002d0: 37cb 06be a992 89bd ae87 20be 77c7 0f3d
000002e0: 17f7 88bd 5caf f53d 13c7 d83d 68c0 02be
000002f0: 2f64 dc3d 35d9 81bd 0e8b 143e a410 783c
00000300: 59e1 933d 0935 f7bd 8f73 abbb 2a55 e1bd
00000310: a1c4 6a3d c2d6 1fbd 7a8c 15be c16e 083e
00000320: 327a d0bc 5124 ad3d 041e c5bd 9b6c 553d
00000330: 4369 5a3d f83e 23be 3f5c 1fbe 30dc d43d
00000340: 0a2c 2bbe 6f46 9e3d 20f1 403d 5b50 c0bd
00000350: cb2f 21be 36de 7cbe 8f72 0bbe 6297 3b3d
00000360: be5e c1b9 1f5a e6bd fe16 8fbe a89d 8a3c
00000370: 4b71 aabd 777f 063e 23d8 ef3d e062 623c
00000380: f223 a63d ba91 e93d b695 e3bb ca61 033e
00000390: b17a 913d 715d 79be 25ab 873d 82ea e83d
000003a0: 3462 1bbe e50a 8aba 91dc 323d 779e 74bc
000003b0: 2855 5cbe 2755 083d 96ec 563d e57b dd3d
000003c0: d0a9 12bd 6f00 afbd 21b1 7abc 50a4 9b3d

fc2.weight f4 [146, 244]
-0.005491539 0.03350451 -0.10532709 -0.026310954 -0.051064704 -0.053354617 -0.29473898 -0.19121313
0.08299155 -0.29967472 -0.1210597 -0.009970375 -0.16227269 -0.18151087 -0.11352692 -0.053053334
-0.06654134 -0.031712998 0.17570154 -0.04490121 -0.16239549 -0.01935765 0.15133092 -0.045623004
-0.18810806 -0.04072616 -0.020396769 -0.067754626 -0.15148367 0.014694082 -0.035688218 0.08270846
-0.025729021 -0.1389105 -0.09469348 -0.21471757 -0.03342924 -0.1334296 -0.012923683 -0.218536
-0.051845 -0.091277145 0.0910112 0.15453754 -0.27335536 -0.10296072 -0.0070389546 -0.32699892
-0.04115245 0.0076181716 -0.12711096 0.0054906416 0.01865118 -0.067531444 -0.076197796 0.066185355
-0.010606781 0.06931796 0.0030656692 0.10099337 -3.7715494e-05 -0.031990074 0.0747761 0.10836665
-0.0059028636 -0.10066093 -0.10772048 0.09329242 -0.17317232 -0.09813537 -0.0064501874 0.13230765
-0.101418614 0.16745096 0.18136683 -0.037359662 -0.06956685 -0.09421463 0.096325 0.121199556
-0.009709198 -0.04786594 -0.041046925 0.10024228 0.07552164 -0.0925545 -0.019520048 0.18073277
-0.29115802 -0.010313982 0.07197537 -0.109468035 -0.021032136 -0.084964894 -0.102997646 -0.13734956
-0.11275987 0.05100222 -0.24954683 -0.005565899 -0.06264017 0.06556689 -0.08312422 0.072228976
-0.066852786 -0.04397178 -0.14007206 0.10478271 0.10615044 -0.2645305 0.05100131 -0.027931469
-0.056855187 0.010613966 0.020279808 -0.25163823 -0.10149413 0.10881555 0.00043699483 -0.025631698
0.0590429 -0.23656696 0.09334154 -0.09813222 0.013727153 -0.00910508 -0.03635761 -0.18035305
0.0052702283 -0.09610792 -0.04770052 0.161106 -0.059418995 -0.16167232 -0.07587301 -0.049535234
0.07963421 -0.27737087 0.0060737683 -0.22464353 0.005469124 -0.26749384 0.08032553 0.06500503
-0.20418832 -0.17215396 0.112713285 -0.09971484 -0.4313015 -0.2469889 0.006349804 -0.12248054
0.039198957 -0.13081867 -0.13940148 -0.11091125 0.12154183 0.047969446 -0.011080624 -0.029111927
-0.21751365 -0.0023254636 0.10438427 0.11022543 -0.12078714 0.09509896 -0.03763731 -0.08509717
-0.3357654 -0.08645241 -0.17061767 -0.15670934 0.009476494 -0.16282372 0.06526729 -0.26426882
0.014469111 -0.07608936 0.03508577 -0.2918293 -0.15005088 0.004651622 -0.08649044 0.102438845
-0.06508365 0.042019352 -0.056287955 -0.07762005 0.15574417 -0.13626298 -0.04641881 -0.61056536
0.017001217 -0.002503114 -0.023735443 0.11038112 0.0019810866 -0.18077588 -0.46009564 0.074281976
0.0817006 0.0125234295 0.1721461 0.09245955 -0.4206931 -0.14079116 -0.044082876 -0.06939958
-0.09045865 -0.05017454 0.048857678 -0.13112655 -0.06854252 -0.1010114 -0.016748605 0.057623
-0.23230855 -0.1470261 -0.18053374 0.011071799 -0.14092916 -0.26302716 -0.09859304 0.098071456
0.013942544 -0.38399494 -0.23153916 -0.09462088 -0.35127783 -0.08540247 0.08311439 0.08319048
-0.036863793 -0.06625969 -0.10074854 0.10650231 -0.07847263 0.11676587 0.067054845 -0.2981746
0.04823902 -0.22313973 0.060859226 0.13274382 0.29021978 -0.12592795 0.21570323 -0.02833389
-0.067963086 0.118282504 0.18914907 -0.17989358 0.06315626 -0.08111285 0.16671711 -0.057414442
00000000: 5ef2 b3bb 063c 093d bbb5 d7bd 128a d7bc
00000010: 3929 51bd 5f8a 5abd 07e8 96be 60cd 43be
00000020: 79f7 a93d f76e 99be 26ee f7bd c95a 23bc
00000030: d02a 26be fcdd 39be cd80 e8bd 744e 59bd
00000040: d346 88bd 7de5 01bd 1beb 333e 55ea 37bd
00000050: 014b 26be ef93 9ebc 7ef6 1a3e 30df 3abd
00000060: 669f 40be 79d0 26bd 2017 a7bc f0c2 8abd
00000070: 891e 1bbe 72bf 703c cf2d 12bd 0e63 a93d
00000080: abc5 d2bc 8e3e 0ebe a8ee c1bd ecde 5bbe
00000090: 19ed 08bd c5a1 08be dbbd 53bc e7c7 5fbe
000000a0: 6c5b 54bd 83ef babd 1464 ba3d 173f 1e3e
000000b0: 3cf5 8bbe 12dd d2bd 08a7 e6bb 676c a7be
000000c0: 798f 28bd dba1 f93b 6029 02be d7ea b33b
000000d0: 5cca 983c ed4d 8abd 970d 9cbd 308c 873d
000000e0: 10c8 2dbc 93f6 8d3d 65e9 483b 9dd5 ce3d
000000f0: b430 1eb8 0608 03bd 3624 993d 56ef dd3d
00000100: cf6c c1bb 5127 cebd 8e9c dcbd 1910 bf3d
00000110: 1654 31be 32fb c8bd 185c d3bb a87b 073e
00000120: 90b4 cfbd 4478 2b3e 3ab8 393e 7206 19bd
00000130: 1179 8ebd 9af3 c0bd 0b46 c53d 7937 f83d
00000140: 5413 1fbc 130f 44bd d220 28bd d34b cd3d
00000150: 17ab 9a3d 378d bdbd 82e8 9fbc 0312 393e
00000160: aa12 95be fafb 28bc d367 933d c730 e0bd
00000170: 964b acbc 1302 aebd 6ef0 d2bd 5da5 0cbe
00000180: a6ee e6bd b4e7 503d 3489 7fbe 2562 b6bb
00000190: 7d49 80bd ef47 863d 083d aabd c9ec 933d
000001a0: 1dea 88bd c11b 34bd 0d6f 0fbe 5198 d63d
000001b0: 6765 d93d 8b70 87be c0e6 503d 89d0 e4bc
000001c0: fce0 68bd 33e6 2d3c d721 a63c bad6 80be
000001d0: 28dc cfbd b0da de3d 741c e539 91f9 d1bc
000001e0: f8d6 713d 9c3e 72be d929 bf3d 8cf9 c8bd
000001f0: dae7 603c 792d 15bc b8eb 14bd 78ae 38be
00000200: e1b1 ac3b 3bd4 c4bd 9f61 43bd f9f8 243e
00000210: 5561 73bd 6e8d 25be 4f63 9bbd 75e5 4abd
00000220: 4317 a33d 8e03 8ebe 7606 c73b f408 66be
00000230: 5636 b33b f4f4 88be b681 a43d 5b21 853d
00000240: be16 51be 2149 30be 39d6 e63d 4b37 ccbd
00000250: 8dd3 dcbe a8ea 7cbe 0412 d03b 14d7 fabd
00000260: 168f 203d 54f5 05be 43bf 0ebe 7025 e3bd
00000270: ecea f83d 9c7b 443d 818b 35bc 237c eebc
00000280: e6bb 5ebe ce66 18bb 6cc7 d53d dfbd e13d
00000290: 405f f7bd 3ec3 c23d 9429 1abd 6d47 aebd
000002a0: 71e9 abbe f60d b1bd 66b6 2ebe 6a78 20be
000002b0: 4c43 1b3c 43bb 26be dbaa 853d 3e4e 87be
000002c0: da0f 6d3c bdd4 9bbd 19b6 0f3d a66a 95be
000002d0: f0a6 19be a26c 983b e621 b1bd 75cb d13d
000002e0: 944a 85bd 7c1c 2c3d 338e 66bd 43f7 9ebd
000002f0: 667b 1f3e 8688 0bbe a621 3ebd 034e 1cbf
00000300: 2346 8b3c 490b 24bb d570 c2bc 7f0f e23d
00000310: 1ed5 013b 501d 39be a891 ebbe 2621 983d
00000320: a552 a73d 122f 4d3c 1147 303e 6f5b bd3d
00000330: 1665 d7be 8f2b 10be 3f90 34bd 5e21 8ebd
00000340: 6242 b9bd d283 4dbd fd1e 483d 0a46 06be
00000350: 0560 8cbd 11df cebd 5f34 89bc 1806 6c3d
00000360: 4be2 6dbe 038e 16be d6dd 38be 7e66 353c
00000370: bc4f 10be 7fab 86be 26eb c9bd b0d9 c83d
00000380: 456f 643c fc9a c4be 9a18 6dbe 98c8 c1bd
00000390: b0da b3be 7de7 aebd e137 aa3d c55f aa3d
000003a0: 7dfe 16bd 29b3 87bd 4055 cebd e21d da3d
000003b0: 42b6 a0bd f222 ef3d 0d54 893d 57aa 98be
000003c0: 4796 453d be7e 64be 8647 793d ffed 073e
000003d0: b097 943e 42f3 00be 4fe1 5c3e 791c e8bc
000003e0: 3b30 8bbd 193e f23d 4bb0 413e 0636 38be
000003f0: 1258 813d 7e1e a6bd e4b7 2a3e 682b 6bbd

fc2.bias f4 [146]
-0.19669673 -0.030930938 -0.11706449 0.10234469 0.068300344 -0.06897252 -0.076815106 0.0022388825
-0.036620874 -0.062141106 -0.020715026 -0.04218042 -0.0012869366 -0.0110524995 0.11443149 0.12380082
0.008420789 0.18474102 -0.06709713 -0.09350776 -0.068550296 0.011338429 0.0022962918 0.48699513
-0.03638633 -0.044515144 0.10632156 -0.017214203 0.095842436 0.059700705 -0.0705017 0.013206799
0.078053616 -0.06950433 -0.0885924 0.056306336 -0.06666608 -0.033148736 0.00842035 -0.0104938075
-0.044976488 -0.034703147 0.10473085 -0.0065846574 -0.016929843 -0.00449638 -0.08503099 0.3391445
-0.12473948 -0.014081198 0.00087910227 0.04535307 0.022211967 -0.011226763 -0.029661166 -0.06173058
-0.0068401312 0.27504763 0.010111335 -0.073050655 -0.07113495 -0.010966931 -0.0324353 0.06184841
0.08060328 -0.11899071 -0.09172959 0.11920099 -0.116617866 -0.022603367 0.14935942 -0.03868308
-0.04521414 -0.030973934 0.0049901153 -0.0997694 0.013985297 -0.0150241805 0.10329262 -0.001704308
0.006578747 0.009884647 0.020880044 0.00038353333 0.014627651 -0.07953315 0.00060909183 0.14146326
-0.06349107 0.03360846 0.012300688 -0.017872486 -0.03318598 -0.08236312 -0.03786001 -0.039037228
-0.0024554105 -0.07647959 0.060341135 0.019781083 -0.043565262 0.044202894 -0.017967181 -0.05155074
0.017495176 0.005656326 -0.07093722 -0.0023200482 -0.07806454 -0.039804835 0.0024777076 -0.07520793
0.16254881 -0.027946832 -0.113187835 0.026964368 -0.041108094 0.03191072 -0.07397179 0.105802216
-0.02931514 -0.0602057 0.22287951 -0.070992194 0.019610535 0.00154148 -0.03799488 -0.025759187
-0.0021641734 -0.07387517 0.031795982 -0.12445973 -0.017120836 -0.04201733 0.0074668294 -0.0111311935
0.032747675 -0.06062038 0.17122583 0.025027288 0.04911508 -0.014935503 -0.008570588 0.11300077
-0.035775382 -0.05469906
00000000: de6a 49be e162 fdbc 82bf efbd 189a d13d
00000010: 0de1 8b3d 7741 8dbd 3d51 9dbd 37ba 123b
00000020: c5ff 15bd ac87 7ebd 8fb2 a9bc 60c5 2cbd
00000030: 6dae a8ba 8b15 35bc 0f5b ea3d 498b fd3d
00000040: 59f7 093c c02c 3d3e 386a 89bd ff80 bfbd
00000050: 1964 8cbd d1c4 393c 627d 163b 6d57 f93e
00000060: d509 15bd 8355 36bd 1ebf d93d cd04 8dbc
00000070: 0a49 c43d ba88 743d 3263 90bd 5461 583c
00000080: 93da 9f3d 4958 8ebd ef6f b5bd 79a1 663d
00000090: 3a88 88bd f8c6 07bd 82f5 093c 38ee 2bbc
000000a0: 4439 38bd e324 0ebd 217d d63d 1cc4 d7bb
000000b0: 74b0 8abc 5f56 93bb ba24 aebd 59a4 ad3e
000000c0: 6a77 ffbd d3b4 66bc 8e73 663a 24c4 393d
000000d0: dff5 b53c 75f0 37bc f9fb f2bc 34d9 7cbd
000000e0: 2e23 e0bb 0bd3 8c3e 03aa 253c 959b 95bd
000000f0: 33af 91bd a4ae 33bc e1da 04bd c254 7d3d
00000100: 5513 a53d 67b1 f3bd b9dc bbbd a61f f43d
00000110: 59d5 eebd b22a b9bc adf1 183e 2672 1ebd
00000120: 7632 39bd 0cbd fdbc 1f84 a33b e653 ccbd
00000130: 9622 653c fb27 76bc 158b d33d 1663 dfba
00000140: 8892 d73b 37f3 213c a00c ab3c f914 c939
00000150: d1a8 6f3c 47e2 a2bd 76ab 1f3a bfdb 103e
00000160: 9b07 82bd 06a9 093d d388 493c 5269 92bc
00000170: 06ee 07bd ffad a8bd 1913 1bbd 80e5 1fbd
00000180: f4ea 20bb 55a1 9cbd 4428 773d f00b a23c
00000190: 7d71 32bd 180e 353d e92f 93bc de26 53bd
000001a0: 0b52 8f3c b458 b93b 8847 91bd f30b 18bb
000001b0: 4de0 9fbd 650a 23bd 0961 223b 9d06 9abd
000001c0: 3273 263e c1f0 e4bc 06cf e7bd 61e4 dc3c
000001d0: f660 28bd d1b4 023d 867e 97bd d5ae d83d
000001e0: 4e26 f0bc 419a 76bd 873a 643e 5b64 91bd
000001f0: 46a6 a03c 7c0b ca3a 85a0 1bbd ee04 d3bc
00000200: ced4 0dbb dd4b 97bd 813c 023d bee4 febd
00000210: ff40 8cbc 5d1a 2cbd 4eac f43b 9c5f 36bc
00000220: 6d22 063d 134d 78bd d355 2f3e 0706 cd3c
00000230: e52c 493d 0ab4 74bc a76b 0cbc f36c e73d
00000240: 3589 12bd 1f0c 60bd

fc3.weight f4 [4, 146]
-0.07230867 0.29721382 -0.021453418 0.051736817 0.19096322 -0.025329752 0.23702902 0.12545171
0.17199968 0.1426539 -0.081686474 -0.107549 -0.046548285 0.3333998 0.072928004 -0.054117322
0.043033045 0.04168336 -0.032512102 0.0390207 0.07711845 -0.09393316 0.10312881 0.13827865
0.1449409 0.02363956 0.09186292 -0.17105526 0.14179973 0.045656197 0.074126534 0.055884834
0.46361402 -0.12351733 -0.031080885 0.0038409843 0.020389041 -0.050687343 -0.061163303 0.050498687
-0.05417966 0.14838713 0.19235812 -0.07083802 0.066162124 0.077889144 -0.009418369 0.10449343
-0.07102221 0.09262347 0.018060403 -0.17465211 -0.060083695 0.089704946 0.1168617 -0.04900074
-0.04175359 0.09825763 0.1605123 -0.020720907 0.0761845 0.11380126 -0.06514519 0.08168777
0.077809736 -0.1444676 0.14381066 0.2010143 -0.10692182 0.15473707 0.03167243 0.061408114
-0.1160745 0.0670948 0.0699063 -0.0807143 0.044269327 -0.022390343 0.18238941 -0.04425645
-0.008627799 0.12388478 0.014667886 0.016747667 -0.11292646 -0.20618148 -0.06631965 0.01728116
0.24366488 0.101078905 -0.1373286 0.036840998 -0.102344245 0.12491446 -0.06681916 0.032063656
0.071083516 0.030614052 -0.09649303 -0.1784262 -0.22783585 0.06527317 0.21207717 -0.2050931
0.13433842 -0.013666003 -0.09033166 0.31986815 -0.11186776 0.0258216 0.0880048 0.0060671186
0.11373831 -0.032731783 -0.10095603 0.13142839 0.0325921 0.42775664 -0.112642854 0.15693581
0.08534486 -0.46942824 0.10545143 -0.23014186 0.10910979 -0.007224262 -0.16994901 0.04681133
0.13237916 0.05939135 0.041450303 -0.36232483 0.06379863 -0.026478862 0.049430963 -0.16467729
0.050810438 0.17377251 0.1066853 -0.07782684 0.08542263 -0.19875886 0.16715159 0.0809144
-0.004343409 0.03916413 -0.028839977 0.33241066 0.033377793 0.07882269 0.33810702 0.19573505
0.40322068 -0.5410281 0.3321944 0.2706422 -0.08625241 0.3355248 -0.3369872 0.13870782
0.03604243 0.08692928 0.14279427 0.07747152 -0.090138115 -0.0643969 0.13908173 -0.19448301
-0.21108358 0.1585857 0.4545341 0.2803456 0.076748855 -0.12452839 0.10752723 -0.15547584
-0.23318256 0.23353446 0.23465891 -0.06415786 -0.20689492 0.30637273 -0.0693233 0.034362476
-0.11223059 -0.0019153663 -0.38083825 -0.22191815 0.16373724 0.13693248 0.10300409 0.0506268
0.19428298 0.12113468 -0.20023015 0.35908923 0.033034097 0.16476405 -0.17200756 0.116010316
0.23716365 -0.072354876 -0.082767546 0.107852705 0.22150639 0.14271337 -0.20417234 -0.27567446
-0.13410994 0.10238895 0.12244233 -0.19224182 -0.07073343 -0.044554174 -0.050377402 0.2948795
0.033570148 0.0776564 0.15604784 0.14226411 0.13950817 -0.064749435 0.070492014 0.0032251463
-0.21670339 -0.107956566 0.13414125 -0.38981065 0.062640205 -0.01635836 -0.34289804 -0.036736522
-0.013574437 0.10249577 0.30428153 0.16455112 -0.40697277 -0.12702471 -0.2819353 -0.30607313
0.18869825 0.0069455616 -0.05020315 0.04420928 0.39292896 -0.07367072 0.06315879 0.22392163
0.2759293 0.12027725 0.13732147 0.084194206 0.18395928 0.27994534 -0.054194666 0.25242722
00000000: 9116 94bd 692c 983e 14bf afbc fce9 533d
00000010: dd8b 433e 5780 cfbc bcb7 723e 6a76 003e
00000020: af20 303e dd13 123e 3d4b a7bd a642 dcbd
00000030: 6aa9 3ebd 61b3 aa3e 475b 953d 20aa 5dbd
00000040: 6b43 303d 2cbc 2a3d 692b 05bd 2bd4 1f3d
00000050: 47f0 9d3d 0760 c0bd 3335 d33d eb98 0d3e
00000060: 636b 143e c0a7 c13c a022 bc3d 1c29 2fbe
00000070: f333 113e fe01 3b3d a7cf 973d 7fe7 643d
00000080: d15e ed3e a7f6 fcbd 579d febc 06b9 7b3b
00000090: eb06 a73c 889d 4fbd 5f86 7abd b6d7 4e3d
000000a0: 7eeb 5dbd ccf2 173e 87f9 443e 8613 91bd
000000b0: 0280 873d 5884 9f3d 814f 1abc a700 d63d
000000c0: 1874 91bd 60b1 bd3d 69f3 933c 01d8 32be
000000d0: 521a 76bd 3ab7 b73d 3055 ef3d 00b5 48bd
000000e0: d005 2bbd 4c3b c93d 565d 243e e4be a9bc
000000f0: 9e06 9c3d a310 e93d d76a 85bd eb4b a73d
00000100: b65a 9f3d 51ef 13be 1a43 133e b1d6 4d3e
00000110: d4f9 dabd 6573 1e3e f3ba 013d 1387 7b3d
00000120: 78b8 edbd 0069 893d 092b 8f3d 8a4d a5bd
00000130: c153 353d f46b b7bc 4ac4 3a3e 4046 35bd
00000140: 9d5b 0dbc 4eb7 fd3d 9351 703c 6732 893c
00000150: fd45 e7bd 3d21 53be 99d2 87bd 3891 8d3c
00000160: 4983 793e 7502 cf3d de9f 0cbe 96e6 163d
00000170: dc99 d1bd 27d3 ff3d 7cd8 88bd 2e55 033d
00000180: 3c94 913d 52ca fa3c 239e c5bd 5cb5 36be
00000190: cd4d 69be f1ad 853d c22a 593e ed03 52be
000001a0: 0390 093e 5fe7 5fbc ceff b8bd c2c5 a33e
000001b0: ed1a e5bd d287 d33c dc3b b43d aece c63b
000001c0: a2ef e83d c311 06bd 09c2 cebd 2a95 063e
000001d0: 4b7f 053d eb02 db3e 4cb1 e6bd c8b3 203e
000001e0: 49c9 ae3d e658 f0be ebf6 d73d 4faa 6bbe
000001f0: f474 df3d 81b9 ecbb 1d07 2ebe 3dbd 3f3d
00000200: 678e 073e 5844 733d cbc7 293d a482 b9be
00000210: dba8 823d 33ea d8bc 1f78 4a3d 2aa1 28be
00000220: 9b1e 503d 6cf1 313e d37d da3d ae63 9fbd
00000230: 0ff2 ae3d 7187 4bbe c929 2b3e 73b6 a53d
00000240: 2853 8ebb 916a 203d d141 ecbc bb31 aa3e
00000250: 27b7 083d ca6d a13d 5d1c ad3e c56e 483e
00000260: f172 ce3e d180 0abf 6215 aa3e 9d91 8a3e
00000270: 1ba5 b0bd e8c9 ab3e 9689 acbe 6c09 0e3e
00000280: 3aa1 133d fa07 b23d a938 123e 63a9 9e3d
00000290: 559a b8bd 86e2 83bd 716b 0e3e 8e26 47be
000002a0: 4b26 58be 4a64 223e b2b8 e83e 7589 8f3e
000002b0: 812e 9d3d be08 ffbd 3d37 dc3d 0f35 1fbe
000002c0: 69c7 6ebe a823 6f3e 6d4a 703e 3265 83bd
000002d0: 43dc 53be e3dc 9c3e 60f9 8dbd abbf 0c3d
000002e0: 27d9 e5bd 070d fbba 3bfd c2be 833e 63be
000002f0: bcaa 273e 0738 0c3e cff3 d23d 0c5e 4f3d
00000300: 1ef2 463e 7615 f83d 2209 4dbe 8bda b73e
00000310: c34e 073d e8b7 283e c022 30be d196 ed3d
00000320: 07db 723e cb2e 94bd 0882 a9bd e1e1 dc3d
00000330: 92d2 623e 7423 123e 8e12 51be 3425 8dbe
00000340: 1e54 09be 4cb1 d13d 0bc3 fa3d 0adb 44be
00000350: b0dc 90bd 707e 36bd 8958 4ebd 72fa 963e
00000360: da80 093d 520a 9f3d 01cb 1f3e afad 113e
00000370: 3bdb 0e3e 5a9b 84bd 1e5e 903d fa5c 533b
00000380: 7ee7 5dbe 5518 ddbd 535c 093e 4395 c7be
00000390: 8249 803d f801 86bc 5590 afbe 0979 16bd
000003a0: 5167 5ebc 4de9 d13d caca 9b3e 1780 283e
000003b0: bc5e d0be c412 02be d359 90be 9eb5 9cbe
000003c0: 1d3a 413e 9897 e33b d1a1 4dbd ca14 353d
000003d0: fc2d c93e ade0 96bd 6559 813d b64b 653e
000003e0: 9b46 8d3e eb53 f63d 009e 0c3e 036e ac3d
000003f0: d25f 3c3e ff54 8f3e 3afb 5dbd 243e 813e

fc3.bias f4 [4]
0.30889285 0.21480842 0.27246833 0.29702613
00000000: 3427 9e3e bdf6 5b3e f880 8b3e cf13 983e
