checkpoint0.pth (torch_old, 37107 bytes, 6 tensors)

fc1.weight f4 [81, 37]
0.07036426 0.00059805973 0.008213546 -0.08219166 -0.29653782 0.09850079 -0.11945774 0.12501773
-0.022461943 -0.26689726 -0.03855955 0.07220797 0.079448655 -0.053272672 -0.14558432 0.05701427
-0.0031687364 -0.00038865805 -0.029516023 -0.18600266 -0.16620868 -0.11285097 0.12573855 -0.1283008
0.24136026 -0.052440505 0.081757024 0.18897574 -0.15113303 -0.07113184 -0.07041813 0.12892272
0.1971487 0.01864837 0.28866228 -0.25295335 0.068328336 -0.12573273 0.16561434 -0.11193695
0.114826374 0.06095595 -0.082483135 0.14313558 -0.0030872568 0.072743736 -0.038023956 0.06505676
-0.16026476 -0.0012218801 -0.07792442 -0.073276274 0.047257613 0.00779436 0.091009505 0.13961722
0.14588895 -0.23450127 0.15067896 0.16474862 0.00059699913 0.24580193 0.035861023 0.15762188
-0.06348607 -0.0007681202 -0.10233211 0.18302786 -0.2869179 -0.38494715 -0.0840274 -0.9039712
0.02553963 0.0031811444 0.030470327 -0.0017826098 0.03410959 0.1468719 -0.19312677 -0.012292683
0.005757339 -0.07198654 -0.005038895 0.11526527 0.19393939 -0.1492526 -0.10148328 -0.007256574
-0.009146369 -0.0008829762 0.06219996 -0.050298005 0.08019327 0.06388569 -0.01046177 -0.16306895
-0.0057392144 0.014474215 -0.3790815 -0.10564124 0.29763323 -0.14652269 0.1040371 0.15026711
-0.20936905 -0.13294719 0.27685425 -0.06433219 0.64127797 0.01619966 0.017770646 0.2512906
0.0018563613 -0.06416804 0.015400171 0.022032041 0.15690756 0.07998587 -0.118568555 -0.1718235
-0.2680753 0.032093547 0.13052565 0.036302 0.02154877 -0.025759384 -0.18179473 0.028817011
0.07190018 0.17653023 0.058705516 0.053221 0.009931045 0.23086746 0.25784394 0.15762174
0.26449314 -0.029264353 -0.15501782 -0.24117465 -0.3218424 -0.005878594 -0.10745746 0.052046742
0.08688321 0.2006748 -0.008301964 0.02874401 0.14210139 0.03432028 0.099806555 0.02926295
-0.027158849 -0.0835595 -0.14004347 -0.059752468 -0.19307885 0.0046537025 0.32502475 -0.34770986
-0.24300691 -0.27628946 -1.0717499 -0.03715043 0.02362123 -0.021772502 -0.018488042 0.11255527
0.014446879 0.07773879 0.0010734887 -0.14209788 -0.19423056 0.0881471 0.19049297 0.08349255
0.063882254 0.16312756 -0.20670123 0.04056851 -0.039339118 0.14295751 0.021999255 -0.03240915
-0.019077139 0.22817937 -0.21275812 -0.15901354 -0.07584654 -0.1530044 -0.027137429 -0.0745724
-0.006015335 -0.045473088 0.66965806 -0.055027474 -0.02258109 0.120030195 0.06377993 -0.10652437
0.09086292 -0.1121053 0.026012277 -0.19109383 -0.13850509 -0.013764464 -0.10237552 0.09930212
-0.007848143 -0.16905391 -0.098534696 0.021029387 -0.08888213 0.22802263 0.065691106 0.17736891
0.043372143 -0.18513927 -0.3863159 -0.23825024 -0.12073378 0.09001012 -0.12153474 -0.05511719
-0.047561426 -0.1026462 -0.019847207 -0.38204587 0.31789365 0.2568155 -0.10442878 -0.6447734
-0.013487624 0.035183 0.0020178452 0.051591296 -0.11985722 -0.1851024 0.1656108 0.021957304
-0.021415813 0.024854703 -0.10881754 0.08520011 -0.008855352 -0.18948554 -0.17346624 -0.5245491
0.106053255 0.14536257 -0.07145152 -0.35166356 -0.38762516 0.20591639 0.12987013 -0.13024479
00000000: 231b 903d 1cc7 1c3a 1c92 063c 1a54 a8bd
00000010: ced3 97be c8ba c93d 42a6 f4bd a604 003e
00000020: 1c02 b8bc c2a6 88be 9ef0 1dbd c6e1 933d
00000030: fab5 a23d 7234 5abd 0e14 15be cc87 693d
00000040: 93aa 4fbb cdc4 cbb9 96cb f1bc 7b77 3ebe
00000050: 9c32 2abe 691e e7bd 9bc1 003e 4961 03be
00000060: 2527 773e dbcb 56bd 3a70 a73d db82 413e
00000070: 9ec2 1abe 92ad 91bd 6137 90bd 5104 043e
00000080: 59e1 493e 77c4 983c 8bcb 933e 1a83 81be
00000090: baef 8b3d 15c0 00be ce96 293e 333f e5bd
000000a0: 172a eb3d f2ac 793d ebec a8bd 2292 123e
000000b0: 9353 4abb abfa 943d 02bf 1bbd 7b3c 853d
000000c0: 721c 24be 7e27 a0ba d796 9fbd df11 96bd
000000d0: 3391 413d d567 ff3b 3163 ba3d d1f7 0e3e
000000e0: ea63 153e 1a21 70be 964b 1a3e ddb3 283e
000000f0: ef7f 1c3a 80b3 7b3e 02e3 123d a167 213e
00000100: fc04 82bd ad5b 49ba 7f93 d1bd a86b 3b3e
00000110: e7e6 92be cb17 c5be 8f16 acbd a86a 67bf
00000120: 7c38 d13c bf7a 503b e89c f93c 76a6 e9ba
00000130: 7fb6 0b3d 9665 163e 06c3 45be 4067 49bc
00000140: 0fa8 bc3b ae6d 93bd 511d a5bb 3310 ec3d
00000150: 0c98 463e acd5 18be 77d6 cfbd 8ec8 edbb
00000160: a7da 15bc 8877 67ba 63c5 7e3d 4805 4ebd
00000170: 5f3c a43d 80d6 823d d867 2bbc 8cfb 26be
00000180: 0510 bcbb 4225 6d3c f816 c2be 6f5a d8bd
00000190: 6263 983e 0b0a 16be 6711 d53d 9fdf 193e
000001a0: d764 56be 4f23 08be d7bf 8d3e 98c0 83bd
000001b0: cb2a 243f 26b5 843c bf93 913c 29a9 803e
000001c0: 2651 f33a 896a 83bd 0051 7c3c 8a7c b43c
000001d0: 60ac 203e a2cf a33d 12d4 f2bd 80f2 2fbe
000001e0: 2a41 89be 8674 033d 84a8 053e 68b1 143d
000001f0: 0c87 b03c 5805 d3bc 6628 3abe a711 ec3c
00000200: 6740 933d 57c4 343e 3275 703d 43fe 593d
00000210: d2b5 223c 8568 6c3e 1f04 843e 9867 213e
00000220: a56b 873e ccbb efbc febc 1ebe 7df6 76be
00000230: 87c8 a4be 38a1 c0bb a812 dcbd f72e 553d
00000240: d3ef b13d b27d 4d3e f604 08bc 8f78 eb3c
00000250: 0783 113e 6c93 0c3d 6167 cc3d dbb8 ef3c
00000260: 3c7c debc 3e21 abbd 8e67 0fbe 01bf 74bd
00000270: 76b6 45be 167e 983b a569 a63e 0707 b2be
00000280: ced6 78be d075 8dbe 1a2f 89bf 0d2b 18bd
00000290: 4f81 c13c 3f5c b2bc 3c74 97bc 6183 e63d
000002a0: 9ab2 6c3c 8435 9f3d 4eb4 8c3a 1b82 11be
000002b0: 60e4 46be 7786 b43d 9710 433e 24fe aa3d
000002c0: b3d4 823d e90a 273e 7da9 53be 2a2b 263d
000002d0: 0e22 21bd 7463 123e c837 b43c 75bf 04bd
000002e0: a947 9cbc daa7 693e 44dd 59be 72d4 22be
000002f0: 6e55 9bbd 2fad 1cbe 504f debc 6ab9 98bd
00000300: 4a1c c5bb fd41 3abd b66e 2b3f 7d64 61bd
00000310: fafb b8bc 64d2 f53d 0d9f 823d 7329 dabd
00000320: 5716 ba3d 7797 e5bd b317 d53c 1aae 43be
00000330: 47d4 0dbe 5984 61bc 42aa d1bd e95e cb3d
00000340: 7f95 00bc 781c 2dbe 8fcc c9bd d245 ac3c
00000350: d607 b6bd c47e 693e 0f89 863d 32a0 353e
00000360: fda6 313d 2695 3dbe 33cb c5be dff7 73be
00000370: 4643 f7bd 3a57 b83d 35e7 f8bd 90c2 61bd
00000380: c5cf 42bd 2c38 d2bd 9c96 a2bc 849b c3be
00000390: f5c2 a23e 527d 833e c2de d5bd df0f 25bf
000003a0: 32fb 5cbc 0d1c 103d d33d 043b 6551 533d
000003b0: b477 f5bd 7c8b 3dbe e195 293e cedf b33c
000003c0: 3770 afbc 179c cb3c bbdb debd 657d ae3d
000003d0: 0a16 11bc 7f08 42be 22a1 31be da48 06bf
000003e0: 7332 d93d edd9 143e 2d55 92bd 3f0d b4be
000003f0: ce76 c6be bfdb 523e adfc 043e e45e 05be

fc1.bias f4 [81]
0.14593191 0.056579813 -0.10009768 0.08185753 -0.006000052 0.088021785 0.07977893 -0.068078674
0.12065398 -0.15633744 -0.0344647 -0.11667266 0.16233237 -0.06538438 -0.18112761 -0.17577553
-0.04035372 0.013886238 6.419924e-05 0.009250995 -0.17125216 -0.06329143 0.003869969 -0.019133743
-0.05942291 0.11809034 0.1392822 0.02302746 0.029832631 -0.07394859 0.05058916 -0.06051525
-0.008678916 -0.083033115 0.20017569 0.17709441 -0.1435965 -0.003968973 -0.09175371 -0.018606536
-0.1838188 -0.004925756 -0.046625257 -0.056696787 0.08471918 0.017615123 0.16070142 0.013921843
0.05861178 -0.086678945 0.108491994 0.15062469 0.036660388 -0.09213741 0.07958575 -0.004858042
-0.06229091 0.072824195 0.10732502 0.15544592 0.2175438 0.13722773 -0.20820418 0.083563715
0.14855245 -0.13941161 -0.023818465 -0.09662965 0.07475784 0.120118275 -0.020230994 -0.09732089
-0.0009430586 0.05860168 -0.11806568 0.10273354 -0.16480593 -0.07154615 -0.0030073312 0.062910594
0.114006296
00000000: 2d6f 153e 3cc0 673d 0300 cdbd eca4 a73d
00000010: 169c c4bb c444 b43d 2363 a33d d56c 8bbd
00000020: 6f19 f73d ec16 20be db2a 0dbd 13f2 eebd
00000030: 753a 263e 3fe8 85bd 8479 39be 80fe 33be
00000040: f149 25bd 1b83 633c b4a2 8638 7c91 173c
00000050: ba5c 2fbe f09e 81bd 4e9f 7d3b 5ebe 9cbc
00000060: 7065 73bd 59d9 f13d fe9f 0e3e 15a4 bc3c
00000070: 9063 f43c 5c72 97bd 9436 4f3d d7de 77bd
00000080: 0332 0ebc 440d aabd dbfa 4c3e 3d58 353e
00000090: f60a 13be 290e 82bb 5ee9 bbbd bc6c 98bc
000000a0: ff3a 3cbe 3c68 a1bb 20fa 3ebd e43a 68bd
000000b0: 4081 ad3d 974d 903c ea8e 243e 7118 643c
000000c0: e812 703d bb84 b1bd 0d31 de3d 5c3d 1a3e
000000d0: 3429 163d 8ab2 bcbd dbfd a23d 3630 9fbb
000000e0: c124 7fbd da24 953d 38cd db3d 372d 1f3e
000000f0: cdc3 5e3e 6d85 0c3e 7a33 55be 7423 ab3d
00000100: 221e 183e ebc1 0ebe f11e c3bc c4e5 c5bd
00000110: a31a 993d 9200 f63d 78bb a5bc 2d50 c7bd
00000120: 9737 77ba 5108 703d 6bcc f1bd f665 d23d
00000130: e3c2 28be ca86 92bd a516 45bb 45d7 803d
00000140: 227c e93d

fc2.weight f4 [69, 81]
0.12110852 0.012380247 0.044143584 0.13954876 0.029929103 -0.019614113 0.0722467 0.01910459
0.059595402 0.31751 0.052264076 -0.018156929 -0.020476684 0.048248734 -0.0009743213 0.05633641
0.051045906 0.16169707 0.12650144 -0.09575838 0.042478066 0.08694534 -0.03427667 0.0017254318
-0.20681235 0.19011892 0.055623107 0.19351915 0.15707372 -0.033602346 0.13294934 0.12195628
0.014161385 0.035210166 0.02773444 0.12267461 0.0003505463 0.06518755 -0.08299172 0.07566737
-0.045018625 0.119535044 -0.03421355 0.14633399 -0.07627609 0.087623596 0.065784834 -0.076659516
0.002261249 -0.072866224 0.004825909 0.17643943 0.112082034 -0.050406147 -0.06523536 0.13049747
0.06493014 0.13650036 -0.016675564 -0.049393993 0.18205936 -0.0072077536 0.091570064 0.05277161
0.10388356 0.04282633 0.05179105 -0.032944396 -0.22173497 0.01868153 -0.03898861 -0.0984631
0.21154103 0.012196326 0.054834794 0.23585762 0.09992502 0.11895985 0.017205661 0.11824401
0.09340404 -0.029701948 -0.07567316 0.004122322 -0.08246577 0.17570005 -0.22181982 -0.14719859
0.11595669 -0.07879179 -0.258395 -0.065065175 -0.25297573 -0.024653891 0.015526222 0.04525917
-0.35393366 0.051443357 0.08739479 0.059925195 0.015957309 0.20869198 -0.066686936 -0.03724064
-0.019127037 -0.0015348892 -0.01238251 -0.01593324 0.13960466 0.052091826 -0.061104644 -0.046762265
-0.15300845 0.017971136 0.18175091 -0.05015166 -0.0053879893 0.12645906 -0.0770718 0.099768616
0.03260723 -0.0046244003 0.09231777 0.04219775 0.17286234 -0.043250877 -0.1400057 -0.11460302
-0.104214646 0.17010495 -0.09973932 0.10303555 -0.020210698 0.016205756 -0.024343625 -0.27700627
0.103454195 -0.045528725 -0.07323377 -0.045898747 -0.03131282 0.06375985 -0.03286333 0.03410591
-0.08070151 -0.15924676 0.13918863 -0.011608863 -0.12573546 -0.1782399 0.08664416 0.15340137
-0.2586583 0.0017736125 0.14294955 -0.08831838 0.11103434 -0.1278293 -0.07708968 0.12749515
0.1598589 -0.1944601 0.011064661 -0.041324105 -0.10864335 0.029487982 -0.14057244 0.10150733
-0.14451835 0.18934083 -0.14479834 0.10940635 -0.11062922 0.013109703 0.03991826 -0.049135227
-0.29242438 0.026016215 0.08283389 -0.42231917 0.109621264 -0.125753 0.16169107 -0.119132966
0.0058683557 -0.03019873 -0.10554456 -0.17578778 0.08112552 -0.065212205 0.120764896 -0.08676982
-0.2872274 -0.16477707 0.05092488 -0.13438268 0.13522506 -0.029555513 -0.00013406524 -0.014365672
0.006131739 0.121537246 0.032928634 0.11120997 7.8842466e-05 -0.13852316 0.10978567 0.18222608
0.0884332 0.076210834 0.047478467 0.032364376 -0.06260024 0.02933958 -0.059876747 0.009256215
-0.18850818 -0.033293515 -0.11695217 -0.14296226 -0.13969678 0.08853242 -0.11553046 0.104123175
-0.005627568 -0.08721833 -0.021256067 -0.16191112 -0.16707897 0.073431775 0.21353637 0.04937244
-0.01305695 0.0029922484 0.01476412 -0.053991724 -0.13447434 -0.08823729 0.04949359 0.17211694
-0.029752187 -0.1313413 -0.04607177 0.023888623 -0.1360902 0.019645942 0.059167165 -0.12967768
-0.030425986 -0.12875009 0.10586451 0.08489506 -0.34300265 0.05578437 0.008168979 0.066353105
00000000: be07 f83d 85d6 4a3c e7cf 343d dfe5 0e3e
00000010: e12d f53c c7ad a0bc 14f6 933d 3b81 9c3c
00000020: 4f1a 743d ac90 a23e db12 563d d7bd 94bc
00000030: b8be a7bc 77a0 453d 9869 7fba 02c1 663d
00000040: 8315 513d eb93 253e 9889 013e f81c c4bd
00000050: 7bfd 2d3d 6610 b23d b265 0cbd e227 e23a
00000060: 9ec6 53be 89ae 423e 0ed5 633d e229 463e
00000070: efd7 203e 9da2 09bd df23 083e 37c4 f93d
00000080: 2705 683c 8938 103d 5633 e33c d33c fb3d
00000090: 87c9 b739 0d81 853d 90f7 a9bd 7ef7 9a3d
000000a0: 7365 38bd cace f43d 8223 0cbd 94d8 153e
000000b0: a436 9cbd 0074 b33d 33ba 863d aaff 9cbd
000000c0: 7731 143b e33a 95bd a922 9e3b 8aac 343e
000000d0: 448b e53d ad76 4ebd 1e9a 85bd 21a1 053e
000000e0: 18fa 843d c0c6 0b3e 319b 88bc 5b51 4abd
000000f0: c56d 3a3e 052f ecbb 1689 bb3d 0b27 583d
00000100: e7c0 d43d a96a 2f3d da22 543d b4f0 06bd
00000110: 7e0e 63be 020a 993c 85b2 1fbd 06a7 c9bd
00000120: 369e 583e 19d3 473c 739a 603d a984 713e
00000130: 7da5 cc3d 39a1 f33d e3f2 8c3c ea29 f23d
00000140: 9e4a bf3d 8051 f3bc 88fa 9abd 8b14 873b
00000150: d0e3 a8bd b7ea 333e bc24 63be 3abb 16be
00000160: b37a ed3d 975d a1bd 594c 84be e440 85bd
00000170: 0986 81be f5f6 c9bc b261 7e3c ae61 393d
00000180: cb36 b5be 45b6 523d 0afc b23d 1f74 753d
00000190: e7b8 823c 5ab3 553e 2993 88bd a489 18bd
000001a0: 4eb0 9cbc 562e c9ba 03e0 4abc 6d86 82bc
000001b0: 86f4 0e3e 3d5e 553d dd48 7abd ca89 3fbd
000001c0: 3fae 1cbe 3438 933c e91c 3a3e d46b 4dbd
000001d0: bb8d b0bb 7c7e 013e d2d7 9dbd 7d53 cc3d
000001e0: 298f 053d 4888 97bb 1911 bd3d 8cd7 2c3d
000001f0: d302 313e d527 31bd a75d 0fbe fdb4 eabd
00000200: 7d6e d5bd fe2f 2e3e 2144 ccbd 4d04 d33d
00000210: e890 a5bc efc1 843c 486c c7bc c4d3 8dbe
00000220: cbdf d33d 547c 3abd 96fb 95bd 5300 3cbd
00000230: df41 00bd 8694 823d b39b 06bd a4b2 0b3d
00000240: d546 a5bd 9511 23be 7787 0e3e 1a33 3ebc
00000250: ccc0 00be 8584 36be 7e72 b13d 4015 1d3e
00000260: dc6e 84be 8f78 e83a 5e61 123e 44e0 b4bd
00000270: f965 e33d afe5 02be 32e1 9dbd 178e 023e
00000280: 0db2 233e 8c20 47be 8d48 353c 7743 29bd
00000290: 6880 debd c890 f13c 39f2 0fbe 13e3 cf3d
000002a0: 9efc 13be 90e2 413e 0446 14be 7010 e03d
000002b0: 9391 e2bd 14ca 563c 5481 233d 0542 49bd
000002c0: a6b8 95be f51f d53c d1a4 a93d 383a d8be
000002d0: 1d81 e03d 65c5 00be 5892 253e fcfb f3bd
000002e0: 564b c03b 5463 f7bc bf27 d8bd b601 34be
000002f0: 2325 a63d fa8d 85bd 9653 f73d 60b4 b1bd
00000300: 780f 93be 52bb 28be 9b96 503d 9d9b 09be
00000310: 7078 0a3e 671e f2bc dd93 0cb9 ff5d 6bbc
00000320: c1ec c83b 85e8 f83d 2de0 063d 0ec2 e33d
00000330: 3a58 a538 04d9 0dbe 4fd7 e03d 7999 3a3e
00000340: 771c b53d 6d14 9c3d c878 423d 8290 043d
00000350: 8e34 80bd 8f59 f03c 5241 75bd 61a7 173c
00000360: 4a08 41be c85e 08bd 9f84 efbd b364 12be
00000370: ac0c 0fbe 7c50 b53d 3c9b ecbd 883e d53d
00000380: 7667 b8bb 869f b2bd 3421 aebc 07cc 25be
00000390: c016 2bbe 6663 963d 47a9 5a3e c13a 4a3d
000003a0: d1ec 55bc 9919 443b 35e5 713c 6d26 5dbd
000003b0: a4b3 09be c1b5 b4bd cab9 4a3d 6c3f 303e
000003c0: dcba f3bc 557e 06be c1b5 3cbd 13b2 c33c
000003d0: 3b5b 0bbe 87f0 a03c 4559 723d 3aca 04be
000003e0: eb3f f9bc 10d7 03be 7ecf d83d 76dd ad3d
000003f0: 0b9e afbe 277e 643d 2ed7 053c 23e4 873d

fc2.bias f4 [69]
0.20813882 -0.053048845 -0.098310165 0.15500689 0.09367672 0.028937671 -0.090351805 -0.09437673
0.022695323 0.07652074 0.17280921 -0.12490428 -0.07945101 0.04919906 0.0817485 0.035742752
-0.04429619 -0.019348212 -0.028633099 -0.07630264 -0.0048438176 0.059697155 -0.0036993634 -0.01755559
-0.09021519 0.15753084 -0.079142 -0.028202493 0.004468755 -0.069063865 -0.0110915275 -0.049008165
-0.020233644 0.07358062 -0.07346839 -0.06080645 0.020896167 0.09374316 -0.06837793 0.25627542
0.000525281 0.069345616 -0.14078961 0.07916631 -0.09209073 -0.11534626 0.1263332 0.026496604
0.22698057 -0.020232448 -0.063998334 -0.035702597 -0.007678992 0.04239351 0.021648262 -0.0006361702
0.09509744 -0.09485817 0.015709221 -0.0406611 -0.070424646 0.0059720427 0.13346383 0.06963847
-0.012124375 0.14948323 0.096197486 0.12602027 0.03081202
00000000: 5822 553e bf49 59bd d756 c9bd 20ba 1e3e
00000010: 95d9 bf3d b20e ed3c 5e0a b9bd 9648 c1bd
00000020: 8beb b93c e8b6 9c3d e6f4 303e d1cd ffbd
00000030: 36b7 a2bd f484 493d c26b a73d fe66 123d
00000040: ec6f 35bd 2480 9ebc f68f eabc 8f44 9cbd
00000050: e3b8 9ebb 0185 743d 0571 72bb bed0 8fbc
00000060: bec2 b8bd c44f 213e 3315 a2bd ea08 e7bc
00000070: a26e 923b 5b71 8dbd 3db9 35bc c9bc 48bd
00000080: 07c1 a5bc 70b1 963d 9876 96bd 2f10 79bd
00000090: 702e ab3c 6afc bf3d ba09 8cbd 8836 833e
000000a0: 03b3 093a 1305 8e3d 272b 10be f221 a23d
000000b0: 119a bcbd a93a ecbd 7e5d 013e 680f d93c
000000c0: 986d 683e 85be a5bc 8f11 83bd e33c 12bd
000000d0: 0ea0 fbbb d1a4 2d3d b257 b13c a9c4 26ba
000000e0: 72c2 c23d 0045 c2bd a0b0 803c 418c 26bd
000000f0: cc3a 90bd 20b1 c33b beaa 083e 9d9e 8e3d
00000100: 51a5 46bc 2212 193e 3003 c53d 750b 013e
00000110: 7d69 fc3c

fc3.weight f4 [4, 69]
0.059421122 0.105546646 -0.1566611 0.34942585 -0.03491766 0.1144125 -0.20235741 0.06425101
0.20061888 0.4551754 0.08707564 -0.06913443 0.11265539 0.24862699 0.016718185 -0.15790892
0.3440675 -0.29066527 0.37208447 0.034472715 -0.107614055 0.10610234 -0.011595019 -0.1489255
0.2917991 0.10987448 -0.09248578 0.04015648 0.021872537 0.24815398 0.15039368 0.18468253
-0.10809714 0.083949514 -0.00614986 0.1925464 -0.35477424 0.20555623 -0.16811776 0.12515838
-0.14826721 0.14529145 0.016260039 0.0455351 -0.02465775 -0.17886773 0.0994583 0.02136996
0.12230568 0.22234641 0.25246328 0.002023553 0.06954914 -0.006036636 0.09749288 0.038407
0.08830003 0.09182069 -0.23831257 0.050181516 0.016489046 -0.055612866 0.30856842 0.23082222
0.009131761 0.23040633 0.018838005 0.17020556 -0.050691716 0.17274797 0.094215065 -0.030337647
0.14342913 0.0892261 0.15652102 0.40058294 0.122423984 0.08883992 0.073343545 0.0747121
0.033497754 0.2682054 0.34934363 0.16103214 -0.2558039 0.09213052 -0.019052973 -0.036277663
0.052958675 0.015971474 0.2091272 0.043193743 -0.058781315 0.29727182 0.10568384 -0.05477652
0.15752815 -0.18259063 0.09013877 -0.044267233 0.36358792 0.05160158 0.020385206 -0.18360816
-0.30548128 -0.0024236308 0.09501401 0.11542797 0.045031957 0.0005386112 0.042869102 -0.08625145
0.047530252 -0.08968772 -0.033686686 0.15259278 -0.45325947 0.054776467 0.06881353 0.09984527
0.1084863 0.07324151 0.20403197 0.054283127 0.17073303 -0.39427087 -0.21958968 -0.2952539
0.18242674 -0.2596298 0.15318619 0.23401174 0.19564623 -0.24249586 0.29230356 0.03577646
0.14547485 -0.1184084 0.05693595 0.12522328 -0.1559852 0.058360036 0.14093983 0.15438712
-0.22903952 0.1365424 0.10303012 0.03622211 0.10073253 -0.09516044 0.32099438 0.08997708
0.1384254 -0.021330915 0.043793567 -0.2879045 0.14777839 -0.012779308 0.018879715 0.24489526
-0.20505978 0.032948337 0.32644784 0.038333148 -0.23805551 0.23292728 -0.22370733 -0.17210746
-0.15834661 0.5240318 0.16553582 -0.018625906 0.06487714 -0.08805046 -0.08904673 0.11518152
0.071624726 0.13786249 -0.016326977 0.25571704 -0.059668478 0.13796273 -0.12059437 -0.1828361
-0.004169442 -0.04462795 0.11718397 0.26065165 0.006822555 0.091041975 0.102359414 0.2109026
-0.12870255 -0.017038435 0.14166458 -0.29932734 -0.19694714 0.011652134 0.19703786 0.3060804
0.2515731 0.09975754 -0.45954835 0.00064276834 0.15548053 0.2435274 0.14480633 0.15012614
-0.06534719 -0.14500405 0.1600171 0.22149111 0.10774554 -0.11164587 0.13785213 0.19171996
-0.058421507 0.024131605 -0.31846645 0.117470585 0.6109032 0.008279946 0.121974416 0.5267725
-0.46652845 0.23782875 0.17672233 0.23053046 0.06057261 0.17291461 -0.16972366 -0.0698235
0.14354722 -0.068467446 -0.16608864 -0.10718343 -0.074000545 -0.3314404 0.09676594 -0.08594934
0.22021961 -0.2711928 -0.054567184 -0.10711263 0.13765234 0.12943569 0.06879378 0.07499002
0.07364523 0.05558625 0.068863764 0.27617612 0.11476543 -0.03862756 -0.15100056 0.14629368
00000000: 9063 733d d728 d83d c46b 20be f2e7 b23e
00000010: d205 0fbd 1a51 ea3d c836 4fbe 0996 833d
00000020: 096f 4d3e c00c e93e b754 b23d 5a96 8dbd
00000030: deb7 e63d 1398 7e3e 93f4 883c e0b2 21be
00000040: 9e29 b03e 14d2 94be db81 be3e 4333 0d3d
00000050: c264 dcbd 2f4c d93d 09f9 3dbc ed7f 18be
00000060: b166 953e df05 e13d 2f69 bdbd 1f7b 243d
00000070: 092e b33c 141c 7e3e cd00 1a3e 6b1d 3d3e
00000080: 0962 ddbd b9ed ab3d c484 c9bb e22a 453e
00000090: f8a4 b5be 557d 523e 1027 2cbe 8529 003e
000000a0: 5cd3 17be 48c7 143e c633 853c 0383 3a3d
000000b0: 0dff c9bc 1a29 37be cbb0 cb3d 0e10 af3c
000000c0: 667b fa3d c7ae 633e de42 813e 969d 043b
000000d0: c86f 8e3d f9ce c5bb 59aa c73d a950 1d3d
000000e0: a5d6 b43d 7c0c bc3d 3608 74be 228b 4d3d
000000f0: 0914 873c 51ca 63bd aefc 9d3e a95c 6c3e
00000100: 629d 153c a3ef 6b3e 2952 9a3c 5e4a 2e3e
00000110: 1ea2 4fbd d8e4 303e d4f3 c03d a886 f8bc
00000120: 16df 123e 2cbc b63d 0c47 203e 3519 cd3e
00000130: 6db9 fa3d b4f1 b53d 2435 963d a802 993d
00000140: f134 093d 3852 893e 2bdd b23e 9ce5 243e
00000150: bbf8 82be edae bc3d fb14 9cbc e397 14bd
00000160: 32eb 583d 9cd6 823c 7125 563e eceb 303d
00000170: adc4 70bd 0334 983e c570 d83d 585d 60bd
00000180: 0f4f 213e 0af9 3abe ad9a b83d 8f51 35bd
00000190: 3228 ba3e 2e5c 533d e0fe a63c c703 3cbe
000001a0: 0b68 9cbe c7d5 1ebb b596 c23d 8065 ec3d
000001b0: 6e73 383d 9631 0d3a 8397 2f3d 9aa4 b0bd
000001c0: 15af 423d 32ae b7bd 0dfb 09bd 4841 1c3e
000001d0: a011 e8be 4a5d 603d 1cee 8c3d ad7b cc3d
000001e0: 112e de3d a5ff 953d c2ed 503e fc57 5e3d
000001f0: a4d4 2e3e dfdd c9be 1edc 60be 852b 97be
00000200: 13ce 3a3e 32ee 84be d7dc 1c3e c6a0 6f3e
00000210: 7c57 483e d650 78be d0a8 953e 568a 123d
00000220: 5cf7 143e 1a80 f2bd ac35 693d 883a 003e
00000230: 96ba 1fbe ef0a 6f3d 8852 103e a817 1e3e
00000240: 5689 6abe c5d1 0b3e 7501 d33d a35d 143d
00000250: db4c ce3d 7ae3 c2bd 6059 a43e e745 b83d
00000260: 63bf 0d3e 2cbe aebc e260 333d 3868 93be
00000270: 3853 173e 4d60 51bc a2a9 9a3c d3c5 7a3e
00000280: 31fb 51be d6f4 063d 2c24 a73e 3803 1d3d
00000290: d3c4 73be 7d84 6e3e 8913 65be f03c 30be
000002a0: 9d25 22be f326 063f 3982 293e 5b95 98bc
000002b0: 4ede 843d cd53 b4bd 225e b6bd 4ae4 eb3d
000002c0: fcaf 923d d32b 0d3e 27c0 85bc 58ed 823e
000002d0: ef66 74bd 1a46 0d3e 2efa f6bd 6339 3bbe
000002e0: d19f 88bb cccb 36bd 26fe ef3d 2274 853e
000002f0: bd8f df3b 3774 ba3d d0a1 d13d daf6 573e
00000300: 9aca 03be 3094 8bbc 8510 113e 6f41 99be
00000310: 83ac 49be 98e8 3e3c 4bc4 493e 92b6 9c3e
00000320: 30ce 803e ae4d cc3d ec49 ebbe 747f 283a
00000330: 4a36 1f3e 3f5f 793e 1c48 143e abba 193e
00000340: bfd4 85bd f17b 14be 86db 233e 91ce 623e
00000350: b2a9 dc3d 97a6 e4bd 1c29 0d3e 3d52 443e
00000360: 644b 6fbd a5af c53c 090e a3be 6b94 f03d
00000370: 2764 1c3f 9ca8 073c b9cd f93d 90da 063f
00000380: d1dc eebe 6189 733e b3f6 343e 2d10 6c3e
00000390: fc1a 783d 8710 313e 0acc 2dbe a0ff 8ebd
000003a0: 0bfe 123e a938 8cbd 2413 2abe fc82 dbbd
000003b0: 998d 97bd 8eb2 a9be 392d c63d 3506 b0bd
000003c0: 4081 613e c8d9 8abe d781 5fbd de5d dbbd
000003d0: bcf4 0c3e ca8a 043e c1e3 8c3d 5e94 993d
000003e0: 4fd3 963d 68ae 633d 7208 8d3d f566 8d3e
000003f0: 230a eb3d ef37 1ebd e49f 1abe 03ce 153e

fc3.bias f4 [4]
0.24407516 0.20318912 0.17542396 0.20158458
00000000: d7ee 793e cf10 503e 57a2 333e 306c 4e3e
