checkpoint7.pth (torch_old, 57022 bytes, 6 tensors)

fc1.weight f4 [158, 37]
0.28868887 -0.13057621 -0.12981507 -0.15852715 -0.35285246 0.13817772 0.070985414 0.059008244
-0.030248055 0.3798681 0.107355565 0.08421783 -0.045662582 -0.090026915 -0.12347044 -0.027271127
0.0950751 -0.018028798 0.06491917 0.10475265 -0.2109406 0.13477978 0.077572875 -0.1290079
-0.41100213 -0.10884221 0.110084414 0.14517315 -0.023348607 -0.052689113 0.15975459 0.19630024
0.0018776476 -0.49247724 -0.668953 0.009382565 0.04082898 0.06575775 -0.033541467 0.046055578
0.1363662 0.023523519 0.40056938 -0.5125596 -0.33563682 -0.17868547 -1.4105448 0.0696953
0.022904344 -0.14730513 0.0276741 -0.09481103 0.087099895 -0.04593868 0.20588802 0.13805847
-0.099831074 -0.0034399682 0.09828224 0.039190456 -0.105387226 0.11599409 0.20922142 0.13946138
-0.1249035 0.045002706 0.18687548 -0.003497433 -0.0048099705 0.015231121 0.07054811 0.018046945
0.012857974 0.0042632394 0.09555995 0.18011245 -0.010120502 -0.022446498 -0.083048314 -0.006648012
0.0583673 -0.045245536 0.20175132 0.21029538 0.18832447 -0.35356346 -0.11390919 0.31434467
-0.063468516 0.10986534 0.25348166 -0.18475033 -0.032015234 0.13502805 0.11543356 -0.19903389
0.18200952 -0.05924356 0.38966578 -0.041938383 0.24101761 -0.13200593 0.28479216 0.23178118
-0.04478699 -0.10267729 0.061638184 0.122292176 0.35390452 -0.006595132 0.029423587 0.1500116
0.15978706 -0.08925195 0.055917293 0.1328472 0.223466 0.10185069 -0.16573638 -0.2489034
-0.5894889 0.101318255 0.072982885 -0.12365727 0.17932658 -0.38079488 -0.0060079447 -0.11959584
0.118394256 0.0488661 -0.2187091 -0.003923332 0.050817534 0.21980466 0.2910571 0.01751501
0.14030871 -0.02492436 -0.1761416 0.14319721 -0.26937312 0.051914185 -0.14188783 0.13292557
0.03701031 -0.11214509 0.08932509 0.019186448 -0.04083248 -0.13355309 0.031250175 0.21277374
-0.2755645 -0.054615706 -0.14669082 -0.16829276 -0.24452475 -0.12582496 0.073884346 -0.124080606
-0.07796533 -0.02347387 0.10337907 0.032470487 -0.45350426 0.1503281 -0.3683536 0.15171942
-0.12767276 -0.4323789 -0.028488675 0.05245389 -0.1883249 -0.31177658 0.2656055 0.24799381
-0.2140075 0.093842454 -0.13448906 0.06942786 -0.12473045 -0.0824752 -0.2951239 0.10278586
-0.058133125 0.2504338 -0.3624284 -0.21952242 0.0061686654 -0.42514157 0.048402667 -0.26284483
0.064151086 -0.6668047 0.3943242 -0.03322898 0.023074297 0.13416524 -0.28942093 -0.12186807
-0.08267307 -0.031590287 0.21319418 -0.21376726 0.19918355 0.060459968 0.08634862 -0.27911505
0.09414435 0.0017408215 0.066850595 -0.14131999 -0.23960605 0.27457023 0.18883078 0.14308886
0.059694257 -0.052220147 -0.429826 0.20650491 -0.091408074 0.1053493 0.028699705 -0.034780372
-0.047228944 -0.15186724 -0.048080307 0.30541542 0.050923917 0.10712405 0.07678102 -0.3209918
0.2506586 -0.07203818 0.022956127 0.0928285 -0.4053862 0.23955436 0.0045993957 -0.06361158
-0.0005340449 -0.072300814 0.24381383 -0.012157124 -0.12021966 0.06269537 -0.71538234 -0.035606243
-0.017790867 0.17004961 0.11297949 -0.07897578 0.19402145 0.009546721 -0.0770348 0.056718204
00000000: 07cf 933e c5b5 05be 3eee 04be f154 22be
00000010: 14a9 b4be 767e 0d3e cd60 913d a1b2 713d
00000020: c5ca f7bc 127e c23e 3cdd db3d 667a ac3d
00000030: b008 3bbd 0860 b8bd 12de fcbd b367 dfbc
00000040: bcb6 c23d 21b1 93bc 58f4 843d 8f88 d63d
00000050: d000 58be b603 0a3e 87de 9e3d a61a 04be
00000060: df6e d2be aae8 debd f073 e13d 45a8 143e
00000070: 9445 bfbc 8ad0 57bd b596 233e ee02 493e
00000080: 661b f63a fa25 fcbe 8140 2bbf 54b9 193c
00000090: 4a3c 273d 00ac 863d c762 09bd c6a4 3c3d
000000a0: 95a3 0b3e 65b4 c03c 6e17 cd3e 1b37 03bf
000000b0: 97d8 abbe 53f9 36be bb8c b4bf 69bc 8e3d
000000c0: e4a1 bb3c 28d7 16be cbb4 e23c 492c c2bd
000000d0: 6e61 b23d 332a 3cbd 4fd4 523e 335f 0d3e
000000e0: 3c74 ccbd 1771 61bb 3348 c93d 2c86 203d
000000f0: 42d5 d7bd 4f8e ed3d 243e 563e f7ce 0e3e
00000100: 68cd ffbd c254 383d 495c 3f3e 3035 65bb
00000110: f59c 9dbb f48b 793c 877b 903d 30d7 933c
00000120: 40aa 523c a5b2 8b3b efb4 c33d 666f 383e
00000130: 76d0 25bc b8e1 b7bc 3c15 aabd 91d7 d9bb
00000140: 8d12 6f3d 6253 39bd e697 4e3e ac57 573e
00000150: 21d8 403e 4506 b5be 3949 e9bd c9f1 a03e
00000160: c8fb 81bd 1401 e13d 59c8 813e 312f 3dbe
00000170: 6822 03bd cb44 0a3e 6e68 ec3d 8acf 4bbe
00000180: b460 3a3e 60a9 72bd 4682 c73e 95c7 2bbd
00000190: 52cd 763e 902c 07be 47d0 913e 0c58 6d3e
000001a0: 9072 37bd 7948 d2bd 5278 7c3d 5274 fa3d
000001b0: f932 b53e fa1b d8bb bc09 f13c a49c 193e
000001c0: 389f 233e bac9 b6bd 8809 653d 1909 083e
000001d0: 45d4 643e 1897 d03d ccb6 29be 88e0 7ebe
000001e0: bfe8 16bf f27f cf3d 0d78 953d 0640 fdbd
000001f0: 63a1 373e 8cf7 c2be 4bde c4bb aaee f4bd
00000200: b078 f23d d227 483d 47f5 5fbe 4b8f 80bb
00000210: 0c26 503d 7914 613e 7005 953e a37b 8f3c
00000220: 16ad 0f3e 2c2e ccbc 775e 34be 4aa2 123e
00000230: 46eb 89be f8a3 543d 0b4b 11be a41d 083e
00000240: 1f98 173d 53ac e5bd 13f0 b63d e62c 9d3c
00000250: f53f 27bd 24c2 08be 2f00 003d 5ce1 593e
00000260: ca16 8dbe b8b4 5fbd 1e36 16be f054 2cbe
00000270: b264 7abe 42d8 00be ad50 973d f91d febd
00000280: 49ac 9fbd 464c c0bc 68b8 d33d c6ff 043d
00000290: b631 e8be 9cef 193e d898 bcbe 565c 1b3e
000002a0: a6bc 02be c460 ddbe 1561 e9bc e4d9 563d
000002b0: 3ed8 40be 2ea1 9fbe 72fd 873e 17f2 7d3e
000002c0: c824 5bbe 7930 c03d 80b7 09be 3230 8e3d
000002d0: ae72 ffbd c2e8 a8bd 7b1a 97be 6581 d23d
000002e0: 001d 6ebd dc38 803e 3790 b9be 7cca 60be
000002f0: 8422 ca3b 28ac d9be e041 463d 9993 86be
00000300: a561 833d b6b3 2abf dde4 c93e 1c1b 08bd
00000310: 4f06 bd3c 9d62 093e fb2e 94be f795 f9bd
00000320: 8050 a9bd d164 01bd 934f 5a3e cee5 5abe
00000330: c6f6 4b3e dfa4 773d 8cd7 b03d 2be8 8ebe
00000340: c1ce c03d 472c e43a f7e8 883d 30b6 10be
00000350: 4a5b 75be 7894 8c3e db5c 413e e385 123e
00000360: f781 743d cbe4 55bd 2712 dcbe 0676 533e
00000370: 2834 bbbd 60c1 d73d a51b eb3c dd75 0ebd
00000380: 2373 41bd 1683 1bbe dbef 44bd 695f 9c3e
00000390: 9995 503d db63 db3d 5e3f 9d3d 0a59 a4be
000003a0: 5356 803e c188 93bd 7d0e bc3c de1c be3d
000003b0: c88e cfbe bd4d 753e 87b6 963b ca46 82bd
000003c0: 26ff 0bba 7312 94bd 55aa 793e ac2e 47bc
000003d0: ba35 f6bd 6e66 803d 4c23 37bf dad7 11bd
000003e0: 27be 91bc 7c21 2e3e ca61 e73d 0ebe a1bd
000003f0: 8fad 463e da69 1c3c 6cc4 9dbd 5951 683d

fc1.bias f4 [158]
0.08938046 0.1264918 -0.12856524 0.15498573 -0.23054992 -0.086227424 0.14661962 -0.12029483
0.086089954 0.122995965 0.019243108 0.19005881 0.031085676 -0.04014348 0.04416616 -0.034922775
-0.10322116 0.046200104 0.078658566 0.031724136 0.033024292 0.058351386 -0.23024586 -0.06529401
-0.114912026 -0.02138142 0.033948615 0.020513443 0.017736567 0.0010382746 0.062312316 0.06758945
-0.07774081 0.15561388 -0.099227555 0.10392433 0.11545524 0.051833443 -0.019941209 0.031354398
-0.18883586 -0.1315196 0.036651414 0.11215694 0.009689838 0.023127593 -0.06153377 -0.08204297
-0.027567077 -0.10607096 -0.062423415 0.056536984 0.10609937 -0.14281291 0.029213967 -0.1100151
0.046981424 -0.1480515 -0.05067154 -0.103981756 0.1432926 -0.10069749 0.09881202 0.18141244
-0.08245754 0.08113695 0.10285822 -0.20812824 -0.06415952 0.14584583 -0.16428696 0.12292035
-0.06327446 -0.04468301 -0.104293115 0.035158638 -0.15315858 -0.08827857 0.016496956 0.07278373
-0.083130136 -0.052168842 0.04022134 0.13909054 0.07676928 -0.14152776 -0.017608173 -0.0016544639
-0.027447462 -0.008873734 -0.02891115 -0.0145257525 0.106302895 0.06899631 0.052313525 -0.07560321
0.0128241815 -0.12157063 -0.1256346 -0.04981501 -0.110931836 0.09597807 0.10247848 0.05141171
-0.031008415 -0.069364645 0.13800956 0.1461416 0.12096073 0.07357677 0.06391715 -0.031427123
-0.15155248 -0.17735204 -0.036107194 0.008773375 0.045956936 0.10337701 0.12689792 -0.073412105
0.12716818 -0.056835577 0.10152605 -0.19732608 -0.08384164 0.08751802 0.11289698 -0.06608567
0.20416468 -0.17407525 -0.15219988 0.009914604 0.07116972 -0.07074291 0.16606241 -0.17946582
0.20086373 -0.072021864 0.07834461 -0.0898225 -0.07702562 0.12067828 0.035603937 -0.10908169
-0.24093671 -0.09824294 0.12744139 0.13466975 -0.066705845 0.036515158 -0.04122218 0.0687683
0.042661805 -0.17449231 -0.11958401 -0.123035334 -0.106715344 -0.096649155
00000000: 1a0d b73d 1187 013e 9ba6 03be 94b4 1e3e
00000010: 4715 6cbe 0198 b0bd 7423 163e 235d f6bd
00000020: ee4f b03d 4fe5 fb3d b9a3 9d3c c79e 423e
00000030: 63a7 fe3c 7d6d 24bd 93e7 343d 2f0b 0fbd
00000040: 9e65 d3bd 523c 3d3d be17 a13d 2bf1 013d
00000050: 7b44 073d dd01 6f3d 92c5 6bbe deb8 85bd
00000060: ff56 ebbd 1628 afbc b40d 0b3d cf0b a83c
00000070: 474c 913c b716 883a 333b 7f3d 566c 8a3d
00000080: 9336 9fbd 3f59 1f3e d137 cbbd 47d6 d43d
00000090: cc73 ec3d 4e4f 543d bf5b a3bc 786d 003d
000000a0: 305e 41be 13ad 06be cb1f 163d 8ab2 e53d
000000b0: 20c2 1e3c 1476 bd3c d60a 7cbd 2506 a8bd
000000c0: 5ad4 e1bc bb3b d9bd b2af 7fbd 5393 673d
000000d0: a04a d93d 8c3d 12be 2152 ef3c 994f e1bd
000000e0: 986f 403d d09a 17be f68c 4fbd 63f4 d4bd
000000f0: 4cbb 123e 7c3a cebd f55d ca3d 2fc4 393e
00000100: 80df a8bd 212b a63d 55a7 d23d 921f 55be
00000110: 1166 83bd 9c58 153e d73a 28be aabd fb3d
00000120: 0a96 81bd 8805 37bd a197 d5bd 8102 103d
00000130: 9ad5 1cbe 65cb b4bd a024 873c a30f 953d
00000140: 2240 aabd ffae 55bd 22bf 243d c06d 0e3e
00000150: 3639 9d3d a7ec 10be 043f 90bc 99da d8ba
00000160: 80d9 e0bc 2363 11bc 13d7 ecbc 6cfd 6dbc
00000170: 55b5 d93d f04d 8d3d b546 563d dbd5 9abd
00000180: 841c 523c 06fa f8bd 5ba6 00be d30a 4cbd
00000190: 3b30 e3bd 2690 c43d 3de0 d13d 1695 523d
000001a0: 5c05 febc 0d0f 8ebd 6152 0d3e 25a6 153e
000001b0: 42ba f73d 6baf 963d ffe6 823d bab9 00bd
000001c0: 9330 1bbe c69b 35be 23e5 13bd 34be 0f3c
000001d0: 573d 3c3d 53b7 d33d 87f1 013e 1659 96bd
000001e0: 6038 023e 6ccc 68bd e4ec cf3d d90f 4abe
000001f0: 2ab5 abbd a63c b33d 8836 e73d ec57 87bd
00000200: 8c10 513e c840 32be 49da 1bbe dd70 223c
00000210: 6ec1 913d a9e1 90bd 440c 2a3e e3c5 37be
00000220: 39af 4d3e 3380 93bd 2473 a03d dcf4 b7bd
00000230: 9cbf 9dbd 2d26 f73d 6fd5 113d 3966 dfbd
00000240: 1db8 76be 9833 c9bd ff7f 023e dee6 093e
00000250: 139d 88bd eb90 153d 97d8 28bd 65d6 8c3d
00000260: 25be 2e3d 1dae 32be 76e8 f4bd f3f9 fbbd
00000270: 938d dabd feef c5bd

fc2.weight f4 [49, 158]
0.14167337 0.03469148 -0.16624732 0.09824586 0.28729558 -0.071366854 0.047545314 -0.05120923
-0.13950281 0.14363681 0.00094923005 0.090259835 -0.037184328 0.09775061 -0.16015735 -0.09408354
0.12913367 0.14768203 0.15853426 -0.0052913274 -0.08581717 -0.028554427 -0.22534773 0.02759205
-0.08081764 -0.051348478 -0.099210836 -0.11676029 -0.19646314 0.060696907 -0.04413747 0.09525062
-0.00953275 0.01873424 0.13500454 -0.16335891 -0.07566417 -0.047302213 0.06628553 0.05283352
0.057493657 -0.3268594 -0.02074083 0.12106335 0.20077647 -0.08003603 -0.0925284 0.05626798
-0.048762873 -0.2772769 -0.0649511 0.048455097 -0.028458204 -0.015590597 -0.17951535 0.04796983
-0.019479128 -0.3338475 0.035947394 0.07655259 0.027107483 -0.16455258 -0.16227466 0.054973282
-0.2216286 -0.08681247 -0.0445977 -0.051157862 -0.2863589 0.15255123 -0.065430015 -0.15658934
0.17053603 -0.10525051 0.13945435 0.16187137 -0.16187805 -0.010316984 0.0836511 -0.025026303
-0.080435365 0.07959072 -0.25657725 -0.008184378 0.004134259 0.02050616 0.06862627 0.033536084
-0.11496842 -0.06451977 -0.008466111 0.085821204 -0.0882385 -0.010221866 -0.11326208 0.020169303
-0.039609645 0.057140082 -0.20831265 -0.26919353 -0.0033535357 0.03454168 -0.03128968 -0.07104594
0.18891264 -0.17339018 0.07039211 -0.11563248 -0.25405106 0.02364121 0.065366186 -0.04196462
-0.11946019 -0.0448158 0.23241054 0.009824628 -0.22111307 -0.1969341 -0.0030698122 -0.20771134
0.014309814 -0.2784886 0.09894858 -0.20871852 -0.008316112 -0.12939192 0.09609856 0.1717125
0.019976206 -0.0954492 -0.13922764 -0.06724253 -0.020746527 -0.09925683 -0.3424685 0.04095501
0.1019943 -0.04435583 0.10685812 -0.08695332 0.124245815 -0.033716626 -0.033846598 0.004283042
-0.19459003 0.013147965 0.05121525 0.100410305 -0.031046553 0.10052307 0.08639717 -0.141833
0.111131005 -0.21689703 0.25013837 -0.08480737 -0.23058116 -0.19641131 0.017421916 -0.16588397
-0.2909757 0.22929622 0.14218 0.24704662 0.123103365 -0.21985532 -0.2646155 0.16382588
0.23006347 0.14486745 -0.1122161 0.12506698 -0.119827025 -0.0029955534 -0.047033235 -0.1097625
-0.028404998 0.086010754 -0.03372026 -0.2865381 -0.07326158 -0.12909967 -0.011435979 0.011682635
-0.15317185 -0.53842753 0.10614182 -0.124394 0.0831829 -0.19534656 -0.10936291 -0.1751462
-0.36620808 0.08397986 -0.28166303 -0.112792276 0.18349615 0.39555433 -0.20377724 -0.22832382
0.03232601 0.14089438 0.080277905 0.37811625 -0.08258642 0.07460076 -0.19351062 0.1234427
-0.059878126 -0.10400907 -0.5004977 0.14013211 -0.22431062 0.054831717 -0.0097456295 -0.056681506
0.14452673 0.029357614 -0.39159366 0.044242512 -0.018407416 -0.01699693 -0.16171373 -0.207899
0.004412739 0.012442663 -0.0070630005 0.17767644 -0.19500738 -0.06929833 0.022630796 -0.06827924
-0.13404475 0.19201598 -0.12760104 0.014313085 -0.040208366 -0.23631725 -0.14278272 0.13686228
-0.14136 0.31087524 -0.030238127 0.18086092 -0.1418804 -0.042412803 0.23784901 -0.4396778
-0.59707415 -0.5080639 -0.046745308 0.021313502 -0.036435246 -0.03334325 -0.17387171 -0.1281556
00000000: d312 113e a718 0e3d bd3c 2abe 2035 c93d
00000010: 6818 933e c928 92bd e0be 423d c5c0 51bd
00000020: d3d9 0ebe 8715 133e c0d5 783a 26da b83d
00000030: 984e 18bd 7931 c83d 4a00 24be dfae c0bd
00000040: 9e3b 043e f539 173e ce56 223e df62 adbb
00000050: eac0 afbd f9ea e9bc 8ec1 66be b908 e23c
00000060: b883 a5bd c852 52bd 0d2f cbbd 0520 efbd
00000070: a22d 49be 529d 783d 7ec9 34bd c212 c33d
00000080: 402f 1cbc 8d78 993c a13e 0a3e 8f47 27be
00000090: d1f5 9abd f7bf 41bd b5c0 873d f667 583d
000000a0: 787e 6b3d 1e5a a7be ace8 a9bc 10f0 f73d
000000b0: 5998 4d3e eee9 a3bd 887f bdbd 4179 663d
000000c0: 94bb 47bd 3df7 8dbe 1505 85bd da78 463d
000000d0: 2e21 e9bc b46f 7fbc dfd2 37be 037c 443d
000000e0: b192 9fbc 0fee aabe 933d 133d 9bc7 9c3d
000000f0: 8310 de3c 7980 28be 542b 26be aa2b 613d
00000100: 9cf2 62be bcca b1bd 14ac 36bd e88a 51bd
00000110: a29d 92be 6436 1c3e 2c00 86bd f558 20be
00000120: ffa0 2e3e 948d d7bd 1fcd 0e3e 9cc1 253e
00000130: 5cc3 25be 9108 29bc 4551 ab3d f603 cdbc
00000140: 4cbb a4bd 7600 a33d 185e 83be c517 06bc
00000150: ae78 873b 89fc a73c ee8b 8c3d 225d 093d
00000160: 9074 ebbd f122 84bd 71b5 0abc 07c3 af3d
00000170: 63b6 b4bd 9d79 27bc f3f5 e7bd 183a a53c
00000180: b93d 22bd b80b 6a3d e94f 55be bcd3 89be
00000190: fec6 5bbb 947b 0d3d 9c29 00bd 8980 91bd
000001a0: 5172 413e 328d 31be bd29 903d b9d0 ecbd
000001b0: fb12 82be 36ab c13c b5de 853d 18e3 2bbd
000001c0: 8ba7 f4bd c690 37bd 07fd 6d3e 7af7 203c
000001d0: 776b 62be 18a9 49be e72e 49bb 48b2 54be
000001e0: b673 6a3c 0f96 8ebe 8ea5 ca3d 4fba 55be
000001f0: 4d40 08bc 517f 04be 52cf c43d 67d5 2f3e
00000200: 24a5 a33c df7a c3bd b191 0ebe 74b6 89bd
00000210: 9ff4 a9bc 2a47 cbbd 0858 afbe 71c0 273d
00000220: 63e2 d03d 75ae 35bd 6ed8 da3d 9514 b2bd
00000230: 9774 fe3d 721a 0abd bba2 0abd c358 8c3b
00000240: 9c42 47be 906a 573c 15c7 513d eba3 cd3d
00000250: 5755 febc 0adf cd3d 00f1 b03d ac3c 11be
00000260: a798 e33d 411a 5ebe 2312 803e 7daf adbd
00000270: 781d 6cbe 0c20 49be 68b8 8e3c 7ddd 29be
00000280: c4fa 94be a1cc 6a3e a297 113e caf9 7c3e
00000290: 9e1d fc3d c121 61be af7b 87be f9c1 273e
000002a0: c295 6b3e 2258 143e 8ed1 e5bd 8f11 003e
000002b0: df67 f5bd 0c51 44bb eca5 40bd 29cb e0bd
000002c0: 99b1 e8bc 6826 b03d 411e 0abd 1fb5 92be
000002d0: 2b0a 96bd b432 04be f95d 3bbc 8668 3f3c
000002e0: 15d9 1cbe 63d6 09bf e260 d93d 48c2 febd
000002f0: cc5b aa3d ee08 48be a9f9 dfbd 8759 33be
00000300: a07f bbbe a2fd ab3d 2336 90be a3ff e6bd
00000310: 6ae6 3b3e 1986 ca3e fbaa 50be b8cd 69be
00000320: 4768 043d 9e46 103e be68 a43d 7498 c13e
00000330: 1223 a9bd 49c8 983d a627 46be 87cf fc3d
00000340: c442 75bd b502 d5bd 9e20 00bf cb7e 0f3e
00000350: afb1 65be 3997 603d 22ac 1fbc de2a 68bd
00000360: d1fe 133e 617f f03c f77e c8be a337 353d
00000370: 26cb 96bc 253d 8bbc 4998 25be 7ae3 54be
00000380: bd98 903b 50dc 4b3c be70 e7bb d0f0 353e
00000390: 04b0 47be 48ec 8dbd 3864 b93c fcd5 8bbd
000003a0: 0743 09be d69f 443e d9a9 02be 6e81 6a3c
000003b0: 87b1 24bd 26fd 71be a235 12be a025 0c3e
000003c0: adc0 10be 0a2b 9f3e f3b5 f7bc 9b33 393e
000003d0: 1849 11be 0cb9 2dbd b18e 733e 731d e1be
000003e0: dad9 18bf 7a10 02bf 0278 3fbd a799 ae3c
000003f0: 203d 15bd ef92 08bd 6d0b 32be 393b 03be

fc2.bias f4 [49]
-0.057873316 -0.013983922 0.036654063 -0.039689012 0.016025618 0.009295946 -0.07895658 0.03911497
-0.03023298 0.010914383 0.034798373 0.008822272 -0.025692608 0.03232755 0.013960945 0.0063631195
0.18272513 0.012279714 -0.010768591 0.07758718 -0.005115702 0.07946538 0.029909749 0.012899828
-0.014583929 0.0051001827 -0.08014426 -0.023932472 -0.057550065 -0.033418126 -0.008026172 -0.007986658
0.023739886 0.18979992 -0.0702847 0.018415786 0.018308228 0.04304496 -0.025612613 0.23497571
-0.037245255 -0.028920058 0.05676391 -0.012137647 0.06864858 0.0480041 0.08790447 -0.031149177
-0.075989895
00000000: 920c 6dbd d21c 65bc 9222 163d f290 22bd
00000010: 2848 833c 064e 183c fdb3 a1bd 0537 203d
00000020: 28ab f7bc 3ed2 323c bd88 0e3d 4a8b 103c
00000030: 4e79 d2bc e569 043d 73bc 643c b781 d03b
00000040: 4c1c 3b3e db30 493c bf6e 30bc 07e6 9e3d
00000050: 9ea1 a7bb bfbe a23d 4a05 f53c cd59 533c
00000060: 6ff1 6ebc 6f1f a73b ac22 a4bd 080e c4bc
00000070: 9eb9 6bbd 72e1 08bd 3580 03bc 79da 02bc
00000080: 267a c23c e95a 423e 6df1 8fbd b4dc 963c
00000090: 23fb 953c e94f 303d 8bd1 d1bc 799d 703e
000000a0: 7b8e 18bd c2e9 ecbc 4681 683d fbdc 46bc
000000b0: a097 8c3d f29f 443d 4207 b43d 8f2c ffbc
000000c0: 97a0 9bbd

fc3.weight f4 [4, 49]
-0.09434926 0.0962463 0.1690296 -0.014561976 0.38123593 0.20366114 0.12100966 -0.15567052
0.019057292 0.33985716 0.36591873 0.09466549 0.046404272 0.008107899 -0.1014239 0.3432202
0.01347442 -0.18212734 -0.0028030246 0.018966699 0.10486083 0.12031755 -0.10938263 -0.06320523
0.07425783 0.0048838314 0.17171513 0.08224292 -0.12286905 -0.2925651 0.055385385 -0.028399194
-0.25847125 0.14358865 -0.24816069 0.11367249 -0.0411182 -0.007813944 0.017007392 0.094890386
-0.0454993 -0.08294181 -0.05272892 0.16474654 0.41164878 0.1544572 0.10926853 0.29533044
-0.042633373 -0.2645178 0.4191069 -0.033447042 -0.3786016 0.20558174 0.19706076 0.19549617
-0.3247184 0.1603197 0.0046716584 0.078257784 -0.016173234 0.032920107 0.13594848 -0.4171925
-0.2997055 0.15506253 0.4014557 -0.22501867 0.1898288 0.18274283 0.10642598 0.14293322
0.23931377 0.24043956 0.17315876 0.24739869 -0.04798313 -0.2189041 -0.25139356 0.19542137
-0.07203328 0.2670902 0.10141597 -0.10793028 0.13122337 0.08465222 -0.4082617 -0.10004986
0.14758581 0.1711891 -0.14307632 -0.36960605 0.37222606 0.050410267 0.0029354163 0.063363425
-0.06065514 0.19354005 -0.27823985 -0.42799023 0.28905976 -0.18132718 0.09230998 0.07884682
-0.04919186 -0.35689571 0.21104634 0.23775598 0.11529604 -0.48522693 0.12742166 0.38736627
0.49940974 0.18365452 0.03211288 -0.348229 0.17802396 0.23752427 0.076032594 -0.02397307
0.030628903 0.17276928 -0.047067184 -0.19310924 0.41316155 -0.2302201 -0.15785003 -0.39248666
0.37956074 -0.20488738 0.30755082 0.15449624 -0.09783888 0.2877991 0.15774415 -0.12694487
0.10145551 0.0871193 0.260009 -0.22782692 -0.028746685 -0.18570773 -0.06232304 -0.21158612
-0.0032751744 0.05207865 -0.29145917 0.074629895 0.17277443 -0.10603879 0.25781134 0.10865385
0.029363587 0.30472463 -0.07102424 0.5973616 0.0062880646 -0.18585493 -0.2925279 -0.114740044
0.1376285 -0.123886995 0.26598117 0.03437361 0.10771379 -0.3218024 0.19428822 0.4384256
0.2382499 -0.4319038 -0.07657629 0.16642252 -0.40825263 0.09505918 0.016972031 0.22356328
0.20786124 0.20896196 0.010690433 -0.06675082 0.11554392 -0.22543396 0.16376969 0.027930994
0.1298428 0.32457995 0.1715817 -0.24908103 0.11242084 0.21191268 -0.3569128 -0.11609106
-0.3711934 -0.12854324 0.07455458 -0.064424075
00000000: 2f3a c1bd c81c c53d 1816 2d3e 5b95 6ebc
00000010: 5b31 c33e 8c8c 503e ead3 f73d 1868 1fbe
00000020: 0a1e 9c3c c201 ae3e b359 bb3e fbdf c13d
00000030: 6812 3e3d fed6 043c 55b7 cfbd 8fba af3e
00000040: d0c3 5c3c 977f 3abe f3b2 37bb 0d60 9b3c
00000050: 46c1 d63d 0c69 f63d 0004 e0bd be71 81bd
00000060: 7d14 983d 8c08 a03b 17d6 2f3e fa6e a83d
00000070: c5a2 fbbd 18cb 95be c9db 623d 6da5 e8bc
00000080: 5856 84be e708 133e d61d 7ebe 1fcd e83d
00000090: 8f6b 28bd 0e06 00bc 1653 8b3c e455 c23d
000000a0: 795d 3abd 65dd a9bd 48fa 57bd 51b3 283e
000000b0: a1c3 d23e 072a 1e3e 2ec8 df3d 8d35 973e
000000c0: 55a0 2ebd e16e 87be 2e95 d63e c4ff 08bd
000000d0: 12d8 c1be 0584 523e 4cca 493e 2630 483e
000000e0: 7d41 a6be d92a 243e b614 993b 9e45 a03d
000000f0: bb7d 84bc 3cd7 063d 1436 0b3e 419a d5be
00000100: 0073 99be b6c8 1e3e 9a8b cd3e 4b6b 66be
00000110: 7b62 423e f020 3b3e ddf5 d93d 165d 123e
00000120: ab0e 753e ca35 763e 8850 313e 1556 7d3e
00000130: f589 44bd 6528 60be a8b6 80be 8a1c 483e
00000140: 2f86 93bd 0cc0 883e 2db3 cf3d 8d0a ddbd
00000150: 6b5f 063e 255e ad3d ad07 d1be f1e6 ccbd
00000160: bc20 173e 324c 2f3e 9982 12be 013d bdbe
00000170: 6a94 be3e ff7a 4e3d 1d60 403b afc4 813d
00000180: 8671 78bd 5d2f 463e 7475 8ebe 8921 dbbe
00000190: a4ff 933e d5ad 39be 040d bd3d 717a a13d
000001a0: 677d 49bd 09bb b6be 881c 583e 4e76 733e
000001b0: 5520 ec3d aa6f f8be d37a 023e df54 c63e
000001c0: a2b2 ff3e ee0f 3c3e cc88 033d 124b b2be
000001d0: ea4b 363e 9039 733e fab6 9b3d 2c63 c4bc
000001e0: 77e9 fa3c 6eea 303e 85c9 40bd 6ebe 45be
000001f0: e989 d33e d1be 6bbe 70a3 21be 03f4 c8be
00000200: c955 c23e ffcd 51be 4d77 9d3e 4334 1e3e
00000210: c05f c8bd 675a 933e af87 213e d6fd 01be
00000220: e8c7 cf3d 9b6b b23d e61f 853e 764b 69be
00000230: 2b7e ebbc 2b2a 3ebe 7246 7fbd 08aa 58be
00000240: 4fa4 56bb 6c50 553d 233a 95be 8fd7 983d
00000250: c8eb 303e dd2a d9bd d9ff 833e e985 de3d
00000260: e88b f03c de04 9c3e 2875 91bd b1ec 183f
00000270: 1c0c ce3b c150 3ebe 38c6 95be d4fc eabd
00000280: 7cee 0c3e 77b8 fdbd af2e 883e 58cb 0c3d
00000290: 0c99 dc3d 49c3 a4be 7ef3 463e 5279 e03e
000002a0: c8f7 733e 7f22 ddbe 08d4 9cbd aa6a 2a3e
000002b0: 7d06 d1be 63ae c23d ee08 8b3c c6ed 643e
000002c0: 94d9 543e 20fa 553e ed26 2f3c a7b4 88bd
000002d0: 4aa2 ec3d 29d8 66be 3eb3 273e 8acf e43c
000002e0: 83f5 043e 582f a63e 1db3 2f3e 190f 7fbe
000002f0: e63c e63d a3ff 583e 46bd b6be 26c1 edbd
00000300: 100d bebe d7a0 03be 12b0 983d c5f0 83bd

fc3.bias f4 [4]
0.254097 0.07749287 0.20456174 0.1070571
00000000: 0119 823e 95b4 9e3d a278 513e c140 db3d
