checkpoint0.pth (torch_old, 37107 bytes, 6 tensors)

fc1.weight f4 [81, 37]
00000000: cf99 973c f530 053d 5804 69bd 2b26 4a3d
00000010: 0cb5 9abe 20d6 fd3c 1908 8bbd 4ada 3d3e
00000020: b251 5dbd 94ce 84be 97f2 7abd 96cc 963d
00000030: 1a90 d33d f5ba 62bd 6cd6 08be b783 c93d
00000040: 71e4 2ebd 2fcf 693c d7a6 13be 3c06 5bbe
00000050: d827 1cbe 2358 c9bd dd06 463d 0341 dfbd
00000060: 0e50 333e c78b 84bd b3d8 8e3d ad16 3f3e
00000070: 6481 07be 57cb 5ebd 0466 0dbe d6c7 373e
00000080: e785 683e 0ce1 763d 74a2 3f3e 90d0 ddbd
00000090: 86d5 943d 2879 01be 75cf 003e 658e f8bc
000000a0: dc61 c33d 5303 023c 38f9 39be f248 103e
000000b0: bfcf cb3d 9026 473d db1a 8ebd 5536 3c3d
000000c0: 29d4 f9bd 4493 e93c d2a6 20be 4064 a2bd
000000d0: baf6 ad3d 964e 6a3b 49f8 383d 346f 013e
000000e0: 077b 113e a9bd 3cbe 93cd 153e a67a ac3d
000000f0: c2f6 99bc e24b 673e d7e4 b93d 4341 1a3e
00000100: d235 c3bd 0b65 7abd b8c5 bf3c ace5 453e
00000110: e8af febe 9461 55be f648 21be 63a7 63bf
00000120: b852 b5bc 3c81 8ab9 1580 813d 1e22 cebd
00000130: 6cdf 033e 1af2 b83d 46e9 15be 63cf 1e3d
00000140: c235 703d 0c00 38be 070c 07bc 2836 493e
00000150: 95ef 5c3e 9ddd 4bbe 23fd 07be 6b85 233d
00000160: 8fe9 7abd afb0 813b 4191 003e 041f f2bd
00000170: 1710 303d 7db8 293d b7fd a7bd a290 f5bc
00000180: abeb 2a3d b875 6ebd 7cb9 b8be 6211 acbd
00000190: 8957 133e 99cb 423c ed69 0b3e bbb7 c83d
000001a0: 6bb1 32be f271 d4bd e954 1a3e 9c76 fe3d
000001b0: fb9b 303f ca41 35bd cbec e73c 9027 473e
000001c0: 1815 c13c 94a1 6dbd 5d44 2e3d 6fd7 913c
000001d0: a703 663e 16ee 183c fa28 01be 34f6 a5be
000001e0: 4eb5 7dbe f487 f63c be5c 803d 719c 203d
000001f0: 0e56 bb3d 6a45 b7bd 1523 5cbe fec4 c13b
00000200: 1455 0d3e ccce 013e 4eb7 f03d 4755 263d
00000210: 5ff6 143d 95a7 2d3e 7838 a43e d444 c53d
00000220: ea8c 803e 8437 d53c d717 1fbe 4e66 b6be
00000230: 21be adbe 12b3 9ebd 17f9 e4bc 535a bf3d
00000240: 7d1f 0a3d a565 9e3e fc7e d5bc b926 b63c
00000250: f0b8 583e 9df0 8a3d 2a25 b83b 6ecf 6a3d
00000260: 132f f5bd ed0e 42be 8934 13be c364 d73c
00000270: a38a 94bd b6e9 93bd 1dd8 a03e f083 8ebe
00000280: a082 1cbe 09b8 c8bd 1247 6dbf 9fa9 e33b
00000290: 07d2 fb3c a38c 44bc a6e7 21bc f540 dd3d
000002a0: 9af9 b03d 7a7a 5fbd e386 7abd a51a 94bc
000002b0: 3bdd 59be c949 e53d 0ac3 213e 68e3 db3d
000002c0: 8ad5 f83d 4793 093e bdd0 75bd a2a6 d23d
000002d0: f0c0 a3bd e140 913b 72b5 c63d 6863 98bd
000002e0: 02f5 5ebc 1636 c83d 53a6 83bd 1189 58be
000002f0: ed57 23bd d2f0 e0bd e871 1abd ae08 d8bc
00000300: 014f 82bd a115 45bd 8f43 343f 66e1 5abd
00000310: 9b49 31bd 72b6 1d3e 708c 743c 161d ecbd
00000320: 3ae7 233d 1bc8 93bd 376f 343d c9dd 58be
00000330: 7763 11be ccdf b73b cc35 4bbd a7fe 63bd
00000340: c648 b23c 160e fbbd aee7 41bd 252b 78bc
00000350: 4a23 edbd 49eb 153e 0224 a33b d1b6 383e
00000360: 7b08 423c 820e 64be 616d a3be 186b 10be
00000370: d261 27bd 8dff c73d 817c fcbd 9f1a 35bc
00000380: 3e8f a7bc 39d2 36be f469 29bd 6305 61be
00000390: 5089 9b3e fa1a b43e c257 fabd b5f3 19bf
000003a0: aa93 723d 94d1 a53d 74c0 9cbd e4c0 053d
000003b0: 8b0f fabd 0087 78be 5651 2f3e c6ca 0b3d
000003c0: 620f 2d3d c554 f5bd a965 0d3e e429 a5bd
000003d0: dea3 b7bc 829e 3fbd 10c1 9cbe 90eb ebbe
000003e0: 83f2 123e 81fe 153e 23a6 8ebc d83a e2be
000003f0: e4a5 13be 16a0 cf3d fddf d03d 9bd2 f43d
0.018505959 0.032517392 -0.05688891 0.049352806 -0.30216253 0.030985892 -0.06788654 0.18540302
-0.05403299 -0.25938857 -0.061266508 0.073632404 0.103302196 -0.055354077 -0.13363045 0.09839576
-0.042698327 0.014270588 -0.14419113 -0.21389097 -0.15249574 -0.09831264 0.04834639 -0.10901072
0.17511007 -0.06471973 0.06974926 0.18660994 -0.13232952 -0.05439314 -0.13808447 0.17947325
0.2270733 0.060273215 0.18714315 -0.10830796 0.07267289 -0.12643874 0.12579139 -0.030341337
0.095401496 0.007935363 -0.18161476 0.14090326 0.09951734 0.04862076 -0.06938716 0.045950253
-0.121986695 0.028512605 -0.15688637 -0.079292774 0.08494325 0.0035752407 0.04515866 0.12640077
0.14207087 -0.18431725 0.14629202 0.08421831 -0.018794421 0.22587541 0.09076851 0.15063958
-0.0953175 -0.06113152 0.02340971 0.19325894 -0.4974358 -0.20838004 -0.15750489 -0.88927287
-0.02213417 -0.00026417698 0.06323258 -0.10065101 0.12878197 0.09030552 -0.14639768 0.038771998
0.058645017 -0.17968768 -0.008242614 0.19649565 0.21575768 -0.19908758 -0.13280158 0.03992216
-0.061257895 0.00395783 0.1255541 -0.11822322 0.042984094 0.041435707 -0.08202689 -0.029976193
0.041728657 -0.058217734 -0.36079013 -0.08401753 0.14388861 0.011889362 0.13614626 0.09800669
-0.17450492 -0.10373296 0.15071453 0.12424967 0.6898801 -0.044252194 0.028311154 0.19448686
0.023569629 -0.05801542 0.042545665 0.017802922 0.22462331 0.009334108 -0.12613288 -0.324144
-0.24776193 0.030094124 0.06267689 0.039211694 0.09147273 -0.089487866 -0.21497758 0.005913376
0.13801986 0.12676543 0.117537126 0.04060867 0.03636777 0.16958459 0.32074332 0.096322685
0.2510751 0.026027448 -0.15536438 -0.35624927 -0.3393412 -0.07748999 -0.027950807 0.093434
0.033721436 0.30936924 -0.026061527 0.022235261 0.21164298 0.067841746 0.0056196647 0.057326727
-0.11971869 -0.18951006 -0.1437551 0.026293164 -0.07253005 -0.07222311 0.3141488 -0.27835035
-0.15284204 -0.09800727 -0.9268657 0.0069477106 0.030739797 -0.011996421 -0.009881889 0.10803405
0.08641358 -0.054560162 -0.061163794 -0.018079111 -0.21275799 0.11195714 0.15797058 0.10736734
0.12150104 0.13435088 -0.06001352 0.10285689 -0.07995784 0.004432783 0.09702577 -0.07440835
-0.013608219 0.09775941 -0.06428208 -0.21146037 -0.039878774 -0.10983433 -0.037706286 -0.026371326
-0.06362725 -0.04811633 0.70415586 -0.053437613 -0.043283086 0.15401629 0.014926061 -0.11528985
0.040015437 -0.072159015 0.044051375 -0.21178354 -0.14198099 0.0056113955 -0.04961185 -0.055662777
0.021763217 -0.12258546 -0.047340088 -0.015147005 -0.115789965 0.14640535 0.0049786577 0.18038489
0.011842842 -0.2227116 -0.31919387 -0.14103353 -0.040864773 0.09765539 -0.12328435 -0.01105371
-0.020454045 -0.17853631 -0.04136081 -0.21974711 0.303782 0.3517683 -0.1222377 -0.6013749
0.059222855 0.080966145 -0.07653895 0.032654658 -0.12209996 -0.24270248 0.17120871 0.034128927
0.042251 -0.11979059 0.13808312 -0.08064631 -0.022417005 -0.046782024 -0.30616045 -0.46078157
0.14350323 0.14647867 -0.017413205 -0.4418552 -0.14418751 0.10137956 0.101989724 0.11954232

fc1.bias f4 [81]
00000000: 56ed 0f3e 5675 3c3d 16c9 cdbd 431d 8e3d
00000010: f701 e03c b7d6 a43d bc62 db3d bdcc 61bd
00000020: e825 f93d d8eb e6bd 8a11 70bc 8cf1 35be
00000030: d99d 163e f9c5 a3bd 146f 61be 2c32 27be
00000040: c62f d0bc 2c5f ea3b c085 dd3b 5052 67bc
00000050: d37c 35be 0694 49bd 2642 24bc a43d 84bc
00000060: b5ed 80bd 3b68 e53d de98 ce3d 1a7e 923c
00000070: b3a3 9d3b 1491 86bd 959a c53c 422e 94bc
00000080: b76a 06bc f5c6 bebd cfb5 3d3e c633 253e
00000090: 66d1 18be d9d1 943c 25da b9bd 0b53 d6bc
000000a0: e620 36be 3014 89bc 19ab f6bc 0a89 92bd
000000b0: 607f c83d 1386 d63c ce4f 3b3e a095 853d
000000c0: bf64 7f3d 70e5 c7bd ebba bf3d f183 073e
000000d0: 9841 293d eb70 6fbd 55ec 1a3d 9520 c5bb
000000e0: 4ade 80bd 7bf7 d93d 835c fe3d 3045 0b3e
000000f0: edfc 6a3e e6b7 383e 28aa 5bbe fccd 9b3d
00000100: f3ae 343e 6e7b 0ebe f787 4b3d cf82 a0bd
00000110: 9cfa 9e3d 8dfc c73d b2fe ac3a da59 a9bd
00000120: 23b5 cc3b 5f2f 763d 1a75 13be 159b fd3d
00000130: f868 58be 3de9 83bd e914 443c f476 513d
00000140: f83e 093e
0.1405538 0.046010338 -0.1004812 0.06939175 0.027344687 0.08048766 0.107121915 -0.055126894
0.12165433 -0.112754524 -0.014652619 -0.17767924 0.14708652 -0.07996745 -0.22015029 -0.16327733
-0.025413405 0.0071524587 0.006760329 -0.014118746 -0.17723398 -0.04921343 -0.010025537 -0.016142674
-0.06295339 0.11201521 0.10087751 0.017882396 0.0048107742 -0.0657064 0.024121562 -0.018088464
-0.008204154 -0.09315292 0.18526386 0.16133031 -0.14923629 0.01816647 -0.09074811 -0.026162645
-0.17785987 -0.016733259 -0.030110883 -0.071550444 0.0978992 0.026186978 0.18292162 0.06522679
0.06235194 -0.097605586 0.09361824 0.13233925 0.04132232 -0.058457296 0.03782304 -0.006015847
-0.06292398 0.10642906 0.12419989 0.13600612 0.22948046 0.18038902 -0.21451628 0.07607648
0.17644863 -0.13914272 0.049690213 -0.0783745 0.07762644 0.09764967 0.0013198464 -0.08269091
0.006247179 0.06010377 -0.1440014 0.12383095 -0.21133792 -0.06440971 0.011967876 0.051138833
0.13402927

fc2.weight f4 [69, 81]
00000000: cd17 f33d b33d 39bd 54e7 323d f37f 0a3e
00000010: 430f 833c 81eb 0abd a326 853d 2df6 3dbd
00000020: 5a87 4c3d 2789 a93e 7f7e 643d 261c aebc
00000030: 4022 8abd ee7b 393d d8fb 75bc a2a1 1b3d
00000040: 117a 953d 0bba cb3d 8195 1a3e 47e7 fabd
00000050: 5134 43bc 241d d43d eae8 c5bc 467c 4abd
00000060: 22c3 3fbe 23ac 5d3e 070b 663d 1514 103e
00000070: 353c 163e 86cc 35bc dcbd b63d dfbf 003e
00000080: 12dd 683d 0863 70bd c281 bb3d e075 013e
00000090: b365 6ebc 5476 b53d 7a50 a4bd d8c1 c53d
000000a0: 86e6 d83b 0a14 153e 4db3 9abc 376b 1e3e
000000b0: 4e84 6cbd 60d1 5b3d 5402 a73d d6a2 7fbd
000000c0: 3021 e5bc 7ab8 cdbd 81ed 073c 7961 2c3e
000000d0: 3588 9a3d 6ac7 3a3c dc56 d3bc 0967 0b3e
000000e0: dce7 983d e631 c53d 7593 623d ebc5 e5bc
000000f0: 1d5a 3e3e 61cd ebbc e60c 3a3d f29f 0e3d
00000100: 8325 cd3d a1ba b83d 86bb e03b 8792 a43c
00000110: 5660 74be dedb ed3c ec6f 29bd 244c b3bd
00000120: a21b 423e 52f5 733d 9972 9e3d 910a 763e
00000130: 463e 493d a443 9c3d 57ec 083d febe 843d
00000140: 63db a43d 9f77 6fbd eafb 5cbe 4019 b63c
00000150: cd13 66bc e92c c93d be41 fcbd 2aa4 89bd
00000160: ecbe ec3d 729c c4bd 0628 48be 4087 f2bd
00000170: b261 05bd 65f9 523d 4cde 18bb 9629 383d
00000180: def5 9ebe 00da 21bd 81a2 443d 07d0 91bb
00000190: 9e09 413d 2ba5 bb3e da82 49bd 3582 0bbd
000001a0: e255 6f3d ae2a 34be da94 593d 4151 06be
000001b0: 3c97 9e3d 3f9e 923d ced1 14be 7be4 8ebc
000001c0: 13c0 81be bb35 c03d d63d 393d 353b 46bd
000001d0: b5a6 083e 6719 adbd 3a73 b8bb adb9 d43d
000001e0: 4033 9a3d 9136 653d 11f1 2b3d 660b 253d
000001f0: 12aa 473e 2495 1e3d 7782 eabc 946d 94bc
00000200: 0575 babd c335 e13d 7c27 0dbe 9b21 bd3d
00000210: 2b68 a9bd 8be1 653d ff0b 6c3d 48e0 75be
00000220: 4bd8 b03d 4829 8ebd 2d2c b1bd b2c0 00bd
00000230: 1340 903c dacc 843d 75f9 a3bd 56c7 673d
00000240: 5d3c 97bd 7e7d 88bd e5ce 90bc f3e7 07bd
00000250: 536d 43bd 39c7 92be c463 d73d b211 e33d
00000260: 37b3 86bd 8002 cbbc da0c e4bb 173e 12bd
00000270: 5eb9 853d 9ea5 b8bd 3ca8 423c 75b7 cb3d
00000280: 4563 633e 630a 51be a961 cb3c af48 3b3e
00000290: 449f d0bd 3290 393d 40be 23bd 05c8 873d
000002a0: bdae 1fbe 3686 083e 0326 31be 6abe 323d
000002b0: 0828 a93c ce47 ee3c 5552 893d 21c2 8dbe
000002c0: 7104 68bd 7252 8e3d 18d2 993d 2ebb 23be
000002d0: fb8c a4bd 8bd9 37be ec83 093e c234 4d3d
000002e0: 5fa7 f0bd cc3c 743a bbe3 20be 55f9 19be
000002f0: 146b 323d 1a8d 9bbe 18fb 803c 2496 e0bd
00000300: e701 52be 5962 44be 2de0 e63d 6b43 8bbc
00000310: 7b64 6a3d 58ea 663d 6d91 863d 8aa7 883d
00000320: ea1e 45bd a90d 623d a157 2c3c 2be0 693d
00000330: 99e0 b83c 6744 2cbe 38f2 e43d d89d 203e
00000340: 3f8b 5b3d a36e ea3d b74c 9d3d ace4 443d
00000350: c4d5 e53d 79cf f93d 74b4 18bd 6fee 853c
00000360: 132b 27be 4e86 90bd 7737 98bd 51d5 95bd
00000370: 4a68 cabd 88dd 363d f7d1 d73b 72a9 213e
00000380: 2590 83bd 326c d43c 4a88 8ebd 1c11 6cbe
00000390: c238 58bd 8ae0 adbe a78f 213e bb7f c03d
000003a0: 72ce 05be c1dd fd3c 0bbe 4e3d f977 9cbd
000003b0: 0aad b1bb c989 c63c 655e f6bd 8a96 2a3e
000003c0: f97c 8dbd 64a7 8abd 26b5 79bc 1ca4 073c
000003d0: f410 ccbd 6abe 4abc 6b20 3d3d e8ef 64bd
000003e0: 4053 dfbc 03f6 dabd da2c 233d 9522 b03d
000003f0: 826f 98be 380c 953d f993 6e3d 9d5b 863d
0.11869774 -0.045224857 0.043677643 0.13525371 0.015998488 -0.033916 0.0650151 -0.04637735
0.04993377 0.3311245 0.0557847 -0.021253657 -0.06744814 0.045284204 -0.0150136575 0.037995942
0.07298673 0.09947594 0.15096094 -0.12251144 -0.011914329 0.10357121 -0.024158914 -0.049434923
-0.18726781 0.21647696 0.05616286 0.1407016 0.14671405 -0.0110961255 0.089229316 0.12573193
0.056851454 -0.058688194 0.09155609 0.12642622 -0.014550614 0.0886046 -0.08023162 0.096561134
0.0066192774 0.14558426 -0.018884325 0.15470587 -0.057743363 0.053666472 0.08154741 -0.06241115
-0.027969927 -0.10044952 0.008296371 0.16834058 0.07545511 0.011400083 -0.025798254 0.13613524
0.07466099 0.09628658 0.055316407 -0.028048476 0.18589063 -0.028784456 0.045422457 0.034820504
0.100169204 0.09019972 0.006858292 0.020089401 -0.23864874 0.029035505 -0.041366503 -0.08754757
0.18955854 0.059560128 0.077367015 0.24027468 0.049131654 0.07630089 0.033428516 0.06481741
0.08049657 -0.05846369 -0.21580473 0.022228837 -0.014042807 0.09823019 -0.12317227 -0.06720765
0.11559853 -0.09600152 -0.19546518 -0.11842203 -0.032563873 0.051507372 -0.0023325859 0.044961534
-0.31046957 -0.03951454 0.04800654 -0.0044498476 0.047128312 0.3664945 -0.049197055 -0.034059722
0.058431514 -0.17594406 0.05312047 -0.13116933 0.077436894 0.07159089 -0.14533159 -0.017442932
-0.25341853 0.09385248 0.045224987 -0.048396308 0.13344844 -0.08452111 -0.0056289705 0.10386977
0.075293064 0.05596024 0.041977946 0.040294074 0.1949847 0.03871645 -0.028626664 -0.018118657
-0.09104351 0.10996582 -0.13784593 0.09234925 -0.082718216 0.056123298 0.057628628 -0.24011338
0.086350046 -0.069414675 -0.08651004 -0.03143377 0.017608678 0.06484385 -0.080065645 0.056586586
-0.0738456 -0.06664561 -0.01767678 -0.03318019 -0.04771168 -0.2866762 0.10517076 0.110873595
-0.06577151 -0.024781466 -0.00695954 -0.035703745 0.065294966 -0.09015964 0.0118809305 0.09947101
0.22205837 -0.20414118 0.024826841 0.18289445 -0.101866275 0.04530353 -0.03997636 0.066299476
-0.15594001 0.13332447 -0.17299657 0.043638624 0.020648971 0.029086974 0.06705157 -0.2768717
-0.05664486 0.06949319 0.07510775 -0.15989372 -0.080347024 -0.1795408 0.1342923 0.050099142
-0.117506735 0.0009316921 -0.15711872 -0.15036519 0.04355915 -0.3038109 0.01574473 -0.10966137
-0.20508538 -0.19178142 0.11273227 -0.01699992 0.057224732 0.05637583 0.065707065 0.066725805
-0.048125185 0.05518881 0.010518939 0.05709855 0.022568034 -0.16822968 0.11179012 0.15685213
0.053599592 0.114468835 0.07680648 0.04806964 0.11222413 0.121977754 -0.03728147 0.016349046
-0.16325025 -0.070568666 -0.07432454 -0.073160775 -0.09883173 0.044644862 0.006586309 0.15787295
-0.06423978 0.025930498 -0.06959589 -0.23053402 -0.052788503 -0.33960372 0.15777455 0.09399363
-0.13067034 0.03098953 0.050474208 -0.076400705 -0.005422239 0.024235623 -0.12029723 0.16658989
-0.06908602 -0.067702085 -0.015240943 0.008278873 -0.09964171 -0.0123745 0.046173494 -0.055892855
-0.027261376 -0.10691454 0.039837696 0.08600346 -0.29772574 0.07277721 0.058246586 0.065604426

fc2.bias f4 [69]
00000000: c635 533e 4cee 2ebd 7fa7 9cbd e4ac 183e
00000010: d6af 873d 5a6f 92ba f583 9ebd 5a18 9abd
00000020: bf27 193d ec55 883d 2ca4 373e 3fa4 d2bd
00000030: 4bee 9cbd d0e2 683d 6eb1 663d c840 053d
00000040: 3379 51bd b820 613c 8454 19bd 1660 6bbd
00000050: 0add acbc 5095 8d3d 0c47 32bc 15df 94bc
00000060: ff2b a7bd b58e 1b3e d86c ddbd dc9b f9bc
00000070: 8a0f 91bb 5419 bcbd 9956 ea3c fd7b 90bc
00000080: da66 96bc b709 8b3d 2c82 91bd 1b26 68bd
00000090: 7755 31bc 82a2 9a3d 344a 62bd 33d9 8b3e
000000a0: 367e b1ba b36c ca3d b913 02be dbfd fb3d
000000b0: 21c7 f4bd c47a a9bd 732b bf3d a22d 033d
000000c0: 049a 753e 265d a7bc cbbc acbd c800 cebc
000000d0: b0f8 67bc 6138 bb3c 303a 363d 0fd0 c6bc
000000e0: 45be 8f3d 20f5 9ebd 90a4 823d 12a3 f6bb
000000f0: daf8 22bd 465d 843c 658d e73d a496 833d
00000100: b21e eebc 21c4 203e 9bc4 123e 6678 d53d
00000110: f237 a73d
0.20625982 -0.042707726 -0.07649135 0.14909703 0.06625335 -0.0011172101 -0.077400126 -0.07524176
0.03739142 0.06657013 0.1793372 -0.10285234 -0.07662638 0.05685693 0.056321554 0.032532483
-0.051140975 0.013740711 -0.037434116 -0.05746468 -0.021101493 0.06913245 -0.010881197 -0.01817278
-0.081626885 0.15191157 -0.10811776 -0.030469827 -0.004426901 -0.091845185 0.028605746 -0.017637247
-0.01835959 0.06788962 -0.071049064 -0.056676965 -0.010823599 0.07550527 -0.055246547 0.27314147
-0.0013541642 0.09884014 -0.12702836 0.123042785 -0.11952043 -0.08275369 0.09334459 0.03202594
0.23984534 -0.020430159 -0.08434447 -0.025146857 -0.014158413 0.022854032 0.044489086 -0.024269132
0.07018713 -0.07761598 0.06379044 -0.0075267637 -0.039788105 0.016157757 0.11306266 0.06425217
-0.029067371 0.15699817 0.14332812 0.10423355 0.081649676

fc3.weight f4 [4, 69]
00000000: b8e7 6d3d 7417 bb3d ba7b 98bd 36b7 af3e
00000010: 5c2f 06bc 1771 e43d 921e 3cbe 7df2 6a3d
00000020: 77d0 083e 3c60 db3e f8cd b93d a087 08bd
00000030: 91d1 033e 1b1d af3e 16b4 d13d 5bbb 14be
00000040: 9c80 c03e ff64 6fbe 6c08 bb3e 35f9 873c
00000050: dd83 30be 814f e63d a03c 933c 37c5 8abd
00000060: a9c8 9a3e 1148 b13d 8388 debd 52ee b93d
00000070: 9e19 103d 137c 233e 3358 463e a0af 393e
00000080: 4ede d9bd 5ca6 e13d 6cf6 113c 1d71 343e
00000090: 5291 e4be cdbe 253e 8c26 1abe 5a22 003e
000000a0: 0a63 80be a47c 633e 7d3b ee3c 455d e53c
000000b0: cbc7 023e 0574 1dbc 4108 273e 8908 673d
000000c0: 8022 f23d 6d0c b33e df4b 333e 1647 1f3c
000000d0: 677c 2e3e 500f caba 21f6 b33d 5443 4c3d
000000e0: f61b 933d 2c9f 47bd 22ea 05be 074a 79bd
000000f0: 2618 933d 73b2 ffbb e1d7 ee3e 736b 603e
00000100: 0822 ac3d 275b 673e 530c 183d 9ba1 013e
00000110: 329b 553c 92b4 263e cdfc aa3d d21e 123d
00000120: 25a6 3a3e c5c7 ab3d 5c51 2f3e 22a5 ab3e
00000130: a2cf 0a3e f99f e13d dbb2 6b3c ca3c a53d
00000140: d618 2c3d ecd6 9d3e 6030 b63e fa3b 293e
00000150: 9bd9 82be 2ea6 063e 3c46 97bb 65b7 e63d
00000160: a897 a53d 61fa 0dbc 4ed2 1b3e b41c fd3d
00000170: 91c1 ae3b 301d b73e af14 ee3d 72ec d7bd
00000180: 4bd9 803e 944b 38be 4d83 8a3d e1a1 08be
00000190: c5b4 3d3e 5b48 163d d84a 683c 120d 68be
000001a0: 2993 cabe c086 3c3d c40f 163e b382 183e
000001b0: 1362 753d 19a2 b73d dc58 dd3d 5ccb 3fbd
000001c0: 4742 a03d 567b 63bd fdab 8f3d 0dfc 1f3e
000001d0: 825a c4be a6a0 863d 1865 2e3d 5c13 b63d
000001e0: a3ab c73d bf0a 0e3e 60c5 393e 66e5 6b3d
000001f0: 8900 213e 6852 99be 090c 15be 1375 b2be
00000200: 024a 783e 6d78 57be 99e8 273e ed5d 5c3e
00000210: c818 2f3e 2ee4 5abe b442 793e 9127 3e3d
00000220: 904d ab3d 553b 9bbd 6248 923d 1c8d 703d
00000230: 9853 03be c438 1b3d da43 473d 4240 153e
00000240: f025 1fbe 2f3e 503e 0ca5 2f3e 00ae 2cbe
00000250: c895 b73d 389c 52be b79c b83e 2957 073d
00000260: c915 943e 2857 9b3c ca9a 803d f864 8fbe
00000270: fa3b 283c a296 54bd aa45 073e 2f9a 8b3e
00000280: 26b9 a2be d3e5 2f3d 7a17 cd3e 3ea3 303d
00000290: 7588 30be 3faf b33e bf70 8abe 0e9f 72be
000002a0: 36b9 4abc 2895 d73e 86cc 623d 6a87 14bd
000002b0: 9155 273e 4b3e 8abe 0ab4 8cbe ffe3 933d
000002c0: d12b 653d f5f7 d73d c8d1 d63d 6192 af3e
000002d0: a35d 58bd 3e38 4e3e 9e6e 37bd 193a 07be
000002e0: 528a 17bd 4ee5 093e 32a7 dd3d 4b54 943e
000002f0: 3feb 9ebd afa2 ea3c 2756 af3d 3ee0 9a3e
00000300: d179 a2bd afed f3bc 8690 8f3e fc46 70be
00000310: 6c04 f5bd b78c 303d ebb3 733d e2ce 7d3e
00000320: 529e aa3e 3b39 0b3e d767 88be a706 823c
00000330: b7da 2b3e fb55 723e 1633 313e cecf 143e
00000340: 88b7 d83b 69ce f7bd a92f 2e3e 16bb 353e
00000350: 4556 273c edd2 98be 1c77 a53d adfd 643e
00000360: 295c c8bd e16b d53c b205 d3be c6aa 4a3e
00000370: 3ef2 113f ec38 06bc 757d 073e 7fed 003f
00000380: 06fa d6be 89a5 fb3d d622 293e 6ce2 923d
00000390: f606 01bc 6862 25bc 015c 11be 4c5f 49bd
000003a0: fd99 ef3d bdca 1bbd 7512 88bd d710 2fbe
000003b0: 990c bdbd f30c 26bd 9b6a 543d 84a1 16be
000003c0: 72db 503e 9843 a7be 2f81 ab3d 2330 5cbd
000003d0: 4caf 393e e248 c63d 80e2 7b3d caac c43d
000003e0: dbdb 063e 6fe2 db3c 1a37 cb3d 4de8 6f3e
000003f0: f77e 2b3e 230f b6bd d89e 2cbe 773f 163e
0.058082312 0.09135333 -0.07445474 0.34319466 -0.008190002 0.11154383 -0.18371037 0.05736016
0.13360773 0.42846859 0.090724885 -0.033332467 0.12872912 0.34201893 0.10239427 -0.14524595
0.3759812 -0.2337837 0.36529863 0.016598323 -0.17237802 0.11245633 0.017973244 -0.06775897
0.30231217 0.08656324 -0.10865881 0.09078659 0.03518068 0.159653 0.19369583 0.18133402
-0.106381044 0.11018059 0.008908849 0.17621274 -0.4464212 0.16186066 -0.15053767 0.12513104
-0.2507556 0.22215515 0.0290811 0.027998576 0.12771527 -0.009610181 0.16311742 0.056404624
0.118229866 0.34970418 0.17509411 0.009721538 0.17039643 -0.001541594 0.0878718 0.049868897
0.071830675 -0.048735783 -0.13077596 -0.060861614 0.0718234 -0.007803255 0.46649078 0.21915989
0.084049284 0.22593366 0.03712113 0.12659304 0.01303749 0.1627982 0.08348999 0.035673924
0.18227442 0.083877124 0.1712088 0.33524424 0.13555768 0.110168405 0.014385904 0.08068235
0.042015873 0.30828035 0.35583782 0.16526785 -0.25556645 0.1314933 -0.004616527 0.112654485
0.08085567 -0.008665652 0.15216944 0.1235899 0.0053331335 0.35764456 0.11625039 -0.10543145
0.2516578 -0.17997581 0.06763325 -0.13343002 0.1852599 0.036690097 0.014178 -0.22661236
-0.395654 0.046026945 0.14654452 0.14893608 0.059907984 0.089664645 0.10807964 -0.046824798
0.078251414 -0.055537544 0.07015226 0.15623493 -0.38350302 0.0657361 0.04257688 0.08890411
0.09749534 0.13871287 0.18141699 0.05759182 0.1572286 -0.29945683 -0.14555372 -0.34854946
0.24246982 -0.21042033 0.16397323 0.21520205 0.17099297 -0.21376106 0.24341851 0.046424452
0.08364403 -0.07579676 0.07142712 0.058728322 -0.12824857 0.037895933 0.048648693 0.14575294
-0.15541816 0.20336221 0.17152804 -0.1686325 0.089641154 -0.20567405 0.36057064 0.033042107
0.2892287 0.018962458 0.06279524 -0.2800672 0.010268206 -0.051901467 0.13210168 0.2726607
-0.31781882 0.042943787 0.40056974 0.04312443 -0.17239554 0.3509464 -0.27039143 -0.23693487
-0.012373259 0.42105985 0.05537083 -0.036261953 0.16341235 -0.2700065 -0.2748111 0.07221221
0.05594999 0.10545341 0.10489231 0.34291366 -0.052823674 0.20138642 -0.044783227 -0.13205756
-0.036997147 0.13466379 0.108229056 0.2897056 -0.077597134 0.028642027 0.08561354 0.30249208
-0.07933391 -0.029776422 0.2803995 -0.23464578 -0.11963734 0.043102946 0.059497755 0.24785951
0.33323914 0.1359605 -0.26641724 0.015872313 0.16782652 0.23665611 0.17304644 0.14532396
0.0066136755 -0.120999165 0.17010368 0.17747149 0.010213439 -0.29848424 0.08079359 0.22362395
-0.09783203 0.026052417 -0.41215283 0.19791707 0.5701026 -0.008192282 0.13231452 0.5036239
-0.41987628 0.12287433 0.16517195 0.07172093 -0.007875195 -0.010094263 -0.14195253 -0.049163148
0.11699293 -0.038035143 -0.066441454 -0.17096268 -0.092309184 -0.040539693 0.05185948 -0.14710051
0.20396212 -0.32668757 0.08374249 -0.053756844 0.18133277 0.0968187 0.061495304 0.096032694
0.13169806 0.02684137 0.09922619 0.2342846 0.16747652 -0.08889606 -0.16857469 0.14672647

fc3.bias f4 [4]
00000000: bbb5 853e 5080 413e 13df 393e 33a4 513e
0.26115212 0.18896604 0.18151502 0.20472793
